core/models/nlp/command/multiclass/multi_classifier.pt (torch, 781380 bytes, 23 tensors)

weight f4 [300]
00000000: 6fcb 7e3f e670 7d3f fcd0 7f3f c84e 7c3f
00000010: 7d04 823f ba70 7a3f 112d 803f 5216 813f
00000020: ecae 7d3f 5a61 823f 0cb7 803f 0741 833f
00000030: 046c 813f 4410 823f 6c1e 803f 47dc 7f3f
00000040: a13b 843f a4cb 823f f030 833f 6468 803f
00000050: 99b6 7e3f d55c 823f 80df 813f a906 803f
00000060: 4101 833f ba45 813f 813e 823f ed55 833f
00000070: ccfe 7a3f 1c51 823f d3a9 7e3f f761 7c3f
00000080: 0344 803f f03c 7e3f 1740 853f caff 7c3f
00000090: fb0a 813f e224 823f 865c 803f 5d2b 7d3f
000000a0: a0ea 7f3f bf87 813f e476 803f e982 873f
000000b0: 5bed 7e3f 16a3 803f e5ce 813f e35f 7c3f
000000c0: 24d7 7d3f fa52 803f b43b 833f fa30 7c3f
000000d0: db93 813f 08fe 823f e776 7b3f afd4 803f
000000e0: 2d79 7f3f 0136 853f 03ee 823f 6116 803f
000000f0: 1f5f 783f 7849 883f 552b 813f 8ed5 803f
00000100: b438 843f 80e7 813f 3f70 7d3f 08e2 7e3f
00000110: 3041 803f 4cb8 813f ec5c 823f 7589 833f
00000120: 5391 7c3f 4a77 833f 2836 833f ab03 803f
00000130: 67d6 813f eceb 7d3f 2d2f 813f 5d68 823f
00000140: 9b22 843f 54a9 7d3f 5d75 803f 381e 833f
00000150: 7279 823f 3103 813f 63f1 7e3f 9a49 803f
00000160: abde 7f3f 8c03 7f3f fc16 7e3f 2101 833f
00000170: c351 803f 042d 843f ccf0 7f3f 9f9c 803f
00000180: 10d5 7e3f dccb 833f 0572 833f 6269 823f
00000190: 444f 843f 4fde 823f 62a3 7e3f d634 7f3f
000001a0: f800 853f e3f0 7e3f 011c 803f 2d6f 803f
000001b0: 3476 7f3f 0651 7e3f 355a 7a3f 616c 823f
000001c0: 5162 803f 3e7f 813f 3647 7c3f 52d9 803f
000001d0: 4a44 813f 8d5d 813f 8df0 803f a186 7a3f
000001e0: 72dc 7d3f 434d 7f3f c9ff 833f 5f47 7f3f
000001f0: 2097 7c3f 4919 813f 691c 833f 30d3 823f
00000200: 3a51 803f ca2a 813f ed6d 843f 56b7 853f
00000210: 41a8 7c3f 016a 823f faa1 7d3f cc22 7e3f
00000220: 2c91 7a3f f09a 863f 2a6e 833f 9d09 823f
00000230: 003a 833f 3d28 843f ed4a 7e3f 5dc2 7e3f
00000240: 69e4 823f d7dd 863f 7c6f 803f e4a1 823f
00000250: eced 7b3f 2d5f 7f3f bf7b 7f3f e7c8 813f
00000260: ab7f 7c3f 64e8 813f 8dd9 7f3f 0ad9 803f
00000270: 812e 823f 8ea9 813f 7628 823f e11a 833f
00000280: 2ea8 813f 55c2 823f 5617 7d3f c7b5 7f3f
00000290: a69a 873f ae12 803f e3c7 7e3f d593 843f
000002a0: ac59 813f dde6 833f 8e93 7d3f 9049 7a3f
000002b0: ec2a 823f c96e 7f3f c491 7d3f a492 823f
000002c0: c86f 823f 8075 7f3f 6cb8 803f 33dd 833f
000002d0: cfdf 833f f064 7f3f 4ab0 803f e930 873f
000002e0: bf35 833f 455c 803f caaf 823f d8f3 7d3f
000002f0: 241e 883f f95d 853f 9b17 803f 3676 813f
00000300: aa1c 853f 155b 793f 67c3 7f3f 1d37 873f
00000310: 7e00 803f d1ea 803f 9eb6 7e3f 078d 803f
00000320: fc68 803f 9597 803f 896d 813f 0a7a 823f
00000330: 6877 843f 99b0 813f f8d9 823f 64c6 833f
00000340: afc4 813f e3fc 7f3f b065 813f 6079 853f
00000350: fad1 803f ed2e 823f 5235 7e3f 54db 7c3f
00000360: a4f3 7e3f 8fcb 813f a902 803f c41a 813f
00000370: 7d88 803f 8aab 803f e154 853f eb6b 813f
00000380: 6782 7a3f 8ae5 803f f968 813f 9261 803f
00000390: c2a8 7e3f 3020 813f c1d4 813f a4ca 833f
000003a0: 448d 813f 1825 7d3f b508 7b3f e6d2 803f
000003b0: 3c4f 803f fdf3 883f 70bd 833f b10e 823f
000003c0: 1f92 7c3f cebe 7e3f 97a9 7f3f 8855 813f
000003d0: e48b 833f 7185 833f 29ee 803f dfbf 813f
000003e0: 7db9 803f ee47 833f 0822 833f 8d42 853f
000003f0: d5f6 7b3f 8967 773f 9360 7e3f 51c8 803f
0.99529165 0.99000394 0.9992826 0.9855771 1.015762 0.9782826 1.0013753 1.0084937
0.99095035 1.0185959 1.0055861 1.025422 1.0111089 1.0161214 1.0009284 0.9994549
1.0330697 1.0218396 1.024931 1.0031857 0.9949737 1.018458 1.0146332 1.0002033
1.0234758 1.0099404 1.0175325 1.0260597 0.9804504 1.0181003 0.9947788 0.9858698
1.0020756 0.99311733 1.0410184 0.98827803 1.0081476 1.0167506 1.0028236 0.9889429
0.99967384 1.0119551 1.0036283 1.0586826 0.99580926 1.004977 1.0141264 0.9858381
0.99156404 1.0025322 1.0252595 0.9851223 1.0123247 1.0233774 0.98228306 1.0064906
0.99794275 1.0407106 1.0228885 1.000683 0.97020143 1.0647421 1.0091349 1.0065172
1.0329804 1.0148773 0.989994 0.99563646 1.0019894 1.0134368 1.0184608 1.0276324
0.9865925 1.0270779 1.0250902 1.0001119 1.0143555 0.99188113 1.0092522 1.0188099
1.0323061 0.990865 1.0035816 1.0243597 1.0193312 1.0079099 0.99587077 1.0022461
0.9994914 0.9961479 0.9925382 1.023472 1.0024952 1.0326238 0.999768 1.0047797
0.9954386 1.0296588 1.0269171 1.018841 1.033669 1.0224093 0.9946805 0.99689996
1.0390921 0.99586314 1.0008546 1.0033928 0.9978974 0.9934238 0.97793895 1.0189325
1.0030004 1.0116956 0.9854616 1.0066321 1.0098965 1.0106674 1.007341 0.9786168
0.991645 0.9972727 1.0312434 0.9971828 0.986681 1.0085841 1.0243045 1.0220699
1.0024788 1.0091183 1.0346047 1.0446575 0.98694235 1.01886 0.9907528 0.99271846
0.97877765 1.0516033 1.0267994 1.0159184 1.0252075 1.032478 0.9933308 0.99515325
1.0225955 1.053645 1.0034022 1.0205655 0.98409915 0.997546 0.99798197 1.0139436
0.98632306 1.0149045 0.9994133 1.0066235 1.0170442 1.0129869 1.0168598 1.0242578
1.0129449 1.0215555 0.9886373 0.99886745 1.059407 1.00057 0.9952375 1.0357615
1.0105491 1.0304829 0.99053276 0.977685 1.0169349 0.9977842 0.99050546 1.0201001
1.0190363 0.99788666 1.0056281 1.030188 1.0302676 0.99763393 1.0053799 1.0561801
1.0250777 1.0028158 1.0209897 0.992002 1.0634198 1.0419303 1.0007204 1.01142
1.0399373 0.97404605 0.99907535 1.0563694 1.000015 1.007166 0.994974 1.0043038
1.0032039 1.0046259 1.0111552 1.0193493 1.034894 1.0132018 1.0222769 1.0294919
1.0138148 0.9999525 1.0109158 1.0427666 1.006408 1.0170571 0.9930011 0.9877217
0.99590516 1.0140246 1.0000812 1.0086293 1.0041653 1.005235 1.0416528 1.0111059
0.9785523 1.007005 1.011016 1.0029776 0.99476254 1.0087948 1.0143052 1.0296216
1.0121236 0.98884726 0.9806016 1.0064361 1.002418 1.0699459 1.0292187 1.0160733
0.98660463 0.99509895 0.9986815 1.0104227 1.0277066 1.0275098 1.0072681 1.013668
1.0056607 1.0256326 1.024476 1.0410935 0.9842351 0.9664236 0.9936611 1.0061132

bias f4 [300]
00000000: 9971 053c c82d 303b acc0 d4bb 3d78 0d3a
00000010: 9223 50bc 404d 2ebc 59a3 933b d4b8 f7ba
00000020: d033 93bb a2d2 afba 6813 00bc 3e38 0cbb
00000030: 9e88 a9bb 6476 10bc 9f94 1a3c 9e46 10bb
00000040: a145 9dba 34fd 4bbc e4dc ec3b 7e3d 19bb
00000050: d14a f43b 84b4 ecbb 62b2 c8bb 6009 243b
00000060: 659b e6bc e72a 72bb da62 f33b 989a f7bb
00000070: 393c 81bc dda7 c73b c624 c63b 2b03 063c
00000080: d273 9fbb c741 8a3a 4b01 84bb 9761 633b
00000090: a51c 753c 836f e13b 4bd3 2d3a 84e0 8cbb
000000a0: 8732 2b3b b339 773c d84b 71bc 6d77 5ebc
000000b0: 10e2 37bc 6284 8b39 fb3f 92b9 4809 e73a
000000c0: 2ae9 c2b9 8c6f 173c 6b1a d0bc e870 68bb
000000d0: 411e 8b3c 5f23 b53b 80ab 033c ed4f 573c
000000e0: c830 473b c91c 2aba a7ba d5ba 99fd c33a
000000f0: ec53 22bc 264f 3d3b 9972 f9bb efa9 433b
00000100: b622 acba a1ed fbbb 49df d53b 7454 ae3b
00000110: 05cd 173b 650f e03b cdf7 133c 69cb 7f3c
00000120: f629 56bc 3177 f1bb 0427 a6bc 41d6 aabb
00000130: 9e65 94ba bd11 843b 5524 663b b84f 7839
00000140: d7ad 10bc 9f5c cbbb 335e fdbb c6e8 3c3c
00000150: edc9 fd3b eea2 82bc 001f 6dbc c363 94bc
00000160: 65a0 eabb ba82 bf39 144f 5dbc 17ec a93a
00000170: c8db 9cba f6c0 763a 07ef febb 94cb 183b
00000180: 2566 343b c870 04bc c11d edbb 96d7 c2bb
00000190: 45f6 043d d677 9d3a 2d77 a03b efec f33b
000001a0: 5644 85bb bbd7 9d3a 019b acb9 0308 42bb
000001b0: 3607 3d3c 5894 063b 24b6 1e3c 3f61 62bb
000001c0: 822d c9ba 5745 b6ba 5d2b 973b 9657 4f3b
000001d0: c7a0 5cbc fe5d cabb d1f2 b53a a19e ac3a
000001e0: 8603 19bc f7b6 a3bb 2078 d0bc 56b7 ee3a
000001f0: b8c0 d83b 51e1 be39 c9e4 513c f1aa d13b
00000200: 6bdc e7bb 3b27 08bb ef21 473a 7a33 723c
00000210: 1a86 7f3c 9e5c c43b 2183 23bb 7d94 293c
00000220: 93f6 14bc 8487 973b 01aa 83bb d2a1 88bb
00000230: 227b acbc 3cf5 ecb9 cc79 db3a c616 b8bb
00000240: d0dd 413c f73b ae3b 370c 1b3b 855d 2abc
00000250: 0ae8 cf3b 472e f5bb 9634 bbba e48b e237
00000260: 6de0 0bbc bd19 91ba 4b48 c13b 5a9d a4bc
00000270: abf6 fb3b 1eae 57b9 905b bbbc d35c 8bbc
00000280: 1ac6 93bc ad14 e939 560f 0f3c db45 ed3b
00000290: 6c13 413b dbdf ff3a 9dbb 3d3c 26a8 523c
000002a0: 30da 0f3c ff86 28bb d012 283c 4c1c b23b
000002b0: f85b 7c3b d906 c3bb 94dc abb9 5f7a f93b
000002c0: 2327 673b de55 3fbb 9503 b73b 2b13 99bc
000002d0: f5a0 d13b 5164 1fbc e423 58bb 8115 99bb
000002e0: b96f f8bb 933b 3abc 2b59 6abb 8949 913c
000002f0: 26d1 4bbc 4b53 603b 8c04 10bc 9989 5dbb
00000300: 17e5 773a cd70 13bc fa6b 263c f62a c13b
00000310: 8478 ca3b 44cf 573c 0b9f 883b 7bd0 6b3b
00000320: 7dda 73bb e22c 5ebc 290a c63a 07b9 343c
00000330: 58af e53a 41ef 6dbc 562d 393a 9faa c93b
00000340: fb10 4dbc 1126 363c 383c 3f3a 2264 a13a
00000350: 8804 9e3c d9e9 653c 6765 08bc 971e 2ebb
00000360: eb14 b3bb 9e1e 933b cef3 073c fe7d 9cbb
00000370: 9d32 21bc e511 65bb ef22 32bc fbca 193c
00000380: 8dbd aabc 1c93 65bc 883d 9cbb d06e 62bb
00000390: 3084 383c 128e 00bc 65f9 09b7 e933 7abc
000003a0: d06e 423c cd73 1b3c 3673 0b3c 6a55 633c
000003b0: 4b12 5aba 38d2 053c c942 203c cfd5 14bc
000003c0: c54f b8bb 382b db3b 8c43 a63b 0865 b8bb
000003d0: 003a 103b 872c 8a3c d27b a7ba 894d 57bb
000003e0: f97e 27bb f55a f839 d993 8cbc 5e62 bdbc
000003f0: 3c12 93ba f39d 1dbb 9c29 a83b d247 c6bb
0.00814476 0.0026882757 -0.006492695 0.000539664 -0.012703793 -0.010638535 0.0045055565 -0.0018899688
-0.0044922605 -0.0013414214 -0.007817127 -0.0021395828 -0.0051737567 -0.008817289 0.009434848 -0.0022014747
-0.00119989 -0.012450505 0.0072284807 -0.00233826 0.007455208 -0.0072236676 -0.0061247805 0.0025030002
-0.02815027 -0.0036951841 0.0074275555 -0.007556271 -0.015775787 0.006093009 0.006046864 0.008179466
-0.004866102 0.0010548168 -0.0040284744 0.003469562 0.014960443 0.0068797483 0.00066309114 -0.0042992253
0.0026122646 0.01508944 -0.014727555 -0.013578278 -0.011223331 0.0002661078 -0.0002789496 0.0017626667
-0.00037176284 0.009242903 -0.025403222 -0.0035467688 0.0169822 0.005527898 0.008036494 0.013141614
0.0030394066 -0.00064892747 -0.0016306237 0.0014952897 -0.009907704 0.0028886287 -0.007612538 0.0029855927
-0.0013132903 -0.0076882397 0.006526862 0.005320126 0.0023162973 0.0068377727 0.009031248 0.015612462
-0.013071528 -0.007368945 -0.020282276 -0.0052135293 -0.0011321788 0.004030435 0.003511687 0.0002368082
-0.008830509 -0.0062061097 -0.0077321767 0.011530107 0.0077450187 -0.015946832 -0.014472723 -0.018113976
-0.007160234 0.00036527758 -0.013507623 0.0012964037 -0.0011967355 0.00094129087 -0.007779959 0.0023314701
0.0027526703 -0.00808353 -0.007236213 -0.00594611 0.032461423 0.0012013863 0.0048970194 0.007444016
-0.004066984 0.0012042442 -0.00032921883 -0.0029606826 0.011537364 0.0020535197 0.00968698 -0.0034542826
-0.0015348645 -0.0013906163 0.0046133236 0.0031637899 -0.013466067 -0.0061757555 0.0013881569 0.0013169834
-0.009339219 -0.0049961763 -0.025447905 0.0018212597 0.0066147707 0.00036407498 0.012810894 0.0063985516
-0.0070758364 -0.0020775336 0.0007596304 0.014782781 0.015595937 0.005992486 -0.0024949985 0.010350344
-0.009091991 0.004624309 -0.004018069 -0.004169681 -0.021054808 -0.00045196142 0.0016744672 -0.005617949
0.011832669 0.005317207 0.0023658404 -0.010398273 0.0063448 -0.0074823233 -0.001428264 2.7006441e-05
-0.008537394 -0.0011070293 0.0058985106 -0.020094562 0.007689317 -0.00020568862 -0.022870809 -0.017012035
-0.018038798 0.00044456628 0.008731684 0.0072409934 0.002946104 0.001952167 0.011580375 0.0128574725
0.008780047 -0.002571523 0.0102583915 0.005435502 0.0038506966 -0.005951744 -0.00032780005 0.0076134647
0.003527113 -0.0029195468 0.005585144 -0.018685898 0.0063973614 -0.009728507 -0.0032980377 -0.004671753
-0.0075816778 -0.011366743 -0.0035758715 0.01773526 -0.012440002 0.0034229334 -0.008790147 -0.0033803938
0.00094564393 -0.008999062 0.01015758 0.005895014 0.0061789174 0.013171975 0.00416935 0.0035982418
-0.0037209087 -0.013560506 0.0015109229 0.011030442 0.001752357 -0.014522375 0.00070639455 0.006154373
-0.0125162555 0.011117474 0.0007295045 0.0012313167 0.01928927 0.014032804 -0.008324957 -0.0026568526
-0.00546514 0.004489734 0.008297874 -0.0047757616 -0.009838727 -0.0034953293 -0.010872587 0.009386773
-0.020842338 -0.014012124 -0.0047680773 -0.0034550913 0.011261985 -0.007846372 -8.223903e-06 -0.015271165
0.01186724 0.009488058 0.008511355 0.013875345 -0.0008318766 0.008167796 0.009781548 -0.009084179
-0.0056247436 0.0066885017 0.00507397 -0.0056272782 0.0022007227 0.016866935 -0.001277799 -0.003285261
-0.002555786 0.00047370014 -0.017160343 -0.023118194 -0.0011220644 -0.0024050444 0.0051319133 -0.006051042

weight_ih_l0 f4 [400, 300]
00000000: d6ea a5bd f066 223b dccf cf3c c20b 25bd
00000010: 17e7 51bc 4a03 49bd e8e6 a6bc 2114 b03d
00000020: 82a1 c53d 515d 0d3c caed 503d c2ec 38bc
00000030: 890c 473c ee4e c53d fcc8 8fbd 1ebd 86bd
00000040: 4ca6 a9bd f41e 62bd 7414 873d 2ef4 a33d
00000050: fc60 bf3d 2c3c 4e3d 0f60 803c e074 d1b9
00000060: f244 993c c065 73bd b4ea e53c 5760 91bd
00000070: 839c b83d 51c9 bd3c 17db 33bd 4efa 0d3d
00000080: 9551 723d 02b3 8d3d e9d0 df3b 9eda 2f3d
00000090: ed0f 923c 9e0f 9e3d 3466 60bc cd04 aabd
000000a0: 0a22 4f3c 9e57 553d 1a34 a6bd eb20 7abd
000000b0: 2c54 2f3d 5964 81bd 43ca 013d 574f 5e3d
000000c0: bb6b 65bd 39ee 77bc aa60 e4bd 01cd 5f3d
000000d0: 8751 6bbd 9d88 f63d 16ec 90bd 825e b63d
000000e0: e3a5 603d 8376 4dbd a355 8bbc ce29 d5bc
000000f0: a017 d13c 8dc7 a83d b5ec c5bd f17d 94bd
00000100: 1f5e 6abd 6405 973d a5db 86bb d96e 3c3d
00000110: d737 c53b db1e a23d dba3 a9bc 9af4 57bc
00000120: c3fb a6bb ec8a 473d 14f5 8dbd 940d 513d
00000130: b5d6 8b3d aa54 1bbc 1ead 873c 67ee bc3d
00000140: b662 80bd bf82 21bb 2f5e 4b3b 23ff 193d
00000150: 086f 90bd 0193 143d e6ad f8bc a823 7a3d
00000160: ea47 dfbc 8d00 87bd e59c 64bd 3578 733d
00000170: b6a1 9b3d 8ab7 953c bf0e 733d 1c41 23bc
00000180: 2a96 4ebb babd 6d3d 83df bdbd ebd1 bc3c
00000190: e95f b53d 406e 2abd 27d0 b4bc 4583 8e3d
000001a0: 0698 343d 6a6a 6cbd 646b 823c e576 9cbb
000001b0: a2bf 84bd 35d4 7cbd 17db 6e39 7306 c7bd
000001c0: 9207 b7bd 1895 80bd a8bc 85bd 9ece 9a3b
000001d0: c487 61bd c5cb ab3d 266b b53d 96b7 e53d
000001e0: 640c 643d f380 b4bd fe10 83bc a477 9cbd
000001f0: e331 94bd ca1b 1abb cdf8 7d3d 9568 70bd
00000200: b155 cf3d 4960 a5bd a7b5 e33d 326e 59bb
00000210: fa8b d03d f97b a1bd e2f3 d4bc 8240 afbd
00000220: 80ef 913d 916e 50bd 9177 233d 19df 513c
00000230: c12b 69ba 20f4 80bd a945 703d 937c f43d
00000240: 7ed6 08bd 54b5 bebd 4fdf 22bd d1e4 f5bc
00000250: 8730 afbd bb82 a339 9c08 323d 4a1e a2bc
00000260: e2e9 843d 2391 6dbc 688c b93d 222c 3f3d
00000270: 2906 40bb 9540 9ebd 1e62 1abd 86a9 babd
00000280: a4a6 8e3d a8e6 67bd ec91 873d f361 ccbd
00000290: 0665 8a3c de2c 9abd 709d e6bd b221 133d
000002a0: ef0c 86bd 1314 753d d679 92bd 6658 c73d
000002b0: 91a1 223d bd89 2ebc 3f15 a73d 16dc c13d
000002c0: 5c59 0ebc 42f1 3f3d 1fca 84bd 3279 103d
000002d0: a13e 90bd 9387 523d 24bd 563b 3f6b 98bd
000002e0: 3ac3 453c 1271 8bbd 1ce8 823d 24d2 b2bd
000002f0: 6ca4 d73c 2e6e a7bd f7bb 603c 94dc 21bc
00000300: 8780 aa3c 22e5 8c3d 20c1 403d 56d2 2bbd
00000310: f845 05bd 82fc 173d f3c8 22bd e857 493d
00000320: 21b5 ca3c cff8 c8bc c90a d43d 5cb2 83bd
00000330: d051 a93d e587 483d c09b 093d e51d 6e3d
00000340: ad95 2f3d 36ea d23c b81f 80bb 7c5d 5a3d
00000350: d54e 4c3d 6e49 c03d a017 c9bb 1832 0fbd
00000360: 71a2 54bc 4468 81ba b7cf 96bc a4a7 8b3d
00000370: 7f49 aabd bc05 55bd 8d55 a5bd fe4b 9cbd
00000380: 4510 50bd ca57 f9bc 27f1 7c3d 35c5 ba3d
00000390: 8ebe 943d 0f71 423d f71a 03be 1f39 dd3c
000003a0: 9a13 2dbd 558a 81bd cc22 293d 8acf cdbd
000003b0: d147 cebd 00b9 023d 6cfb 443d 4d50 4d3c
000003c0: 329b 0eba 25ef b63c 2605 0abb df08 c4bd
000003d0: f677 e6bc 749c bb3d 27f2 69bd 3afe 88bc
000003e0: a93d 233c f140 0a3d e61a b13d 0df0 d3bd
000003f0: edd8 aeba b661 c4bc 35ed 2ebd 61c6 633d
-0.08101432 0.0024780594 0.02536767 -0.040294416 -0.012811444 -0.049075402 -0.020373777 0.08597589
0.09649946 0.008628205 0.051008023 -0.011286916 0.012148985 0.09634195 -0.070207566 -0.0657904
-0.08283672 -0.0552053 0.06595698 0.08005558 0.0934467 0.050350353 0.015670804 -0.00039950665
0.018709633 -0.05942321 0.028066017 -0.070984535 0.09014227 0.023167284 -0.043910112 0.034662537
0.059159834 0.06918909 0.006830324 0.0429331 0.01782986 0.077178225 -0.013696242 -0.08301697
0.012642393 0.05208551 -0.08115406 -0.06106655 0.042804882 -0.06317968 0.031687032 0.054274883
-0.056010943 -0.01513248 -0.1115125 0.054638866 -0.057450797 0.12037776 -0.0707628 0.08904745
0.054845702 -0.05016185 -0.017008608 -0.02602091 0.02552396 0.08241186 -0.09664289 -0.07250584
-0.057218667 0.07374075 -0.004115539 0.04600415 0.0060186195 0.079160415 -0.020708015 -0.013180876
-0.0050959303 0.04871647 -0.069315106 0.05103834 0.068280615 -0.009480635 0.01656204 0.09225159
-0.062688276 -0.002464458 0.003103148 0.037596833 -0.070524275 0.036273006 -0.030356359 0.06106916
-0.027255971 -0.06591902 -0.05581369 0.05944081 0.07599203 0.018275995 0.059340235 -0.009964254
-0.003152261 0.058042265 -0.09271147 0.023049315 0.08856184 -0.04160905 -0.022071911 0.069586314
0.044090293 -0.05771867 0.015920348 -0.0047749155 -0.064818636 -0.061725814 0.00022779066 -0.09718027
-0.08936991 -0.062784374 -0.06530124 0.0047243377 -0.055061117 0.08388475 0.088583276 0.11216657
0.05567588 -0.088136576 -0.015999313 -0.07640007 -0.07236078 -0.0023515099 0.062004853 -0.058693487
0.10123766 -0.080750056 0.11118632 -0.0033177254 0.101829484 -0.07884974 -0.025995199 -0.08557226
0.07125759 -0.050886694 0.03990895 0.012809538 -0.00088947645 -0.06296563 0.058660183 0.11937823
-0.03340768 -0.09311929 -0.039763745 -0.030016335 -0.08554178 0.00031187185 0.04346524 -0.019789834
0.06489922 -0.014499935 0.090599835 0.046672948 -0.0029300547 -0.07727162 -0.037691228 -0.09114365
0.06965378 -0.056616455 0.06619629 -0.0997962 0.016893875 -0.07528089 -0.112604976 0.035920806
-0.06545436 0.059833597 -0.071521446 0.097336575 0.039704863 -0.010652957 0.08158349 0.09465806
-0.008688297 0.04686094 -0.06483864 0.03527183 -0.070431955 0.051398825 0.0032766545 -0.074423306
0.012070471 -0.06808676 0.063919276 -0.087314874 0.02632352 -0.08175312 0.013716689 -0.00987925
0.02081324 0.06879641 0.04705918 -0.04194864 -0.03253743 0.037106045 -0.03974242 0.0491561
0.024744572 -0.024532704 0.103536196 -0.06430504 0.082675576 0.048957724 0.0335958 0.05813398
0.04286735 0.025746446 -0.003910031 0.05331181 0.049879868 0.093890056 -0.0061368495 -0.034959882
-0.012978182 -0.0009872993 -0.018409593 0.06819084 -0.083147995 -0.05200742 -0.08072958 -0.07631682
-0.050796766 -0.030437369 0.06175342 0.091196455 0.07262908 0.047471102 -0.12803255 0.027004777
-0.04225502 -0.06325213 0.04129295 -0.100493506 -0.10072292 0.03191471 0.048091337 0.012531352
-0.0005439996 0.02233083 -0.0021060198 -0.095720045 -0.028133374 0.091607004 -0.0571157 -0.016722787
0.009963431 0.03375334 0.086477086 -0.103485204 -0.0013339795 -0.023972373 -0.042706687 0.05560911

weight_hh_l0 f4 [400, 100]
00000000: 20a3 dfbc cda0 90bd 651a 953d 40d7 20bc
00000010: 28f4 043c 87ba 30bd 4eb7 763d fcb6 df3c
00000020: 5acf 473d 7874 80bc 4009 533c 45b7 acbd
00000030: 4c34 f13c 807a 8bbd cd78 63bd 60e4 c93c
00000040: 174a 3abd 00ca c5bc 8f4a c73d 5001 62bc
00000050: 40d1 823a e005 b03c 927a 4d3d 6868 ccbc
00000060: ca50 0fbd 633b 9f3d d02c 47bd d0b8 24bd
00000070: 873e c13d cc34 c13c 083a 8a3c bea5 0b3d
00000080: 7406 ca3c 2091 a23c c089 12bb d72a 6cbd
00000090: 42fc 273d d067 cc3b ac26 afbc 851c a43d
000000a0: 28c0 c43c 8054 eaba 9c9b d03c 2755 983d
000000b0: 865a 473d 7464 01bd 8811 c53c 30d6 75bd
000000c0: c0e1 5c3c 7d35 9b3d a000 54bd 403a 10bd
000000d0: cd48 24bd 120a 2d3d c85d b5bc 8c90 c53c
000000e0: 7583 823d ce98 773d 28a1 4b3c 2cc9 c5bc
000000f0: 30a9 59bc 98cf 383c aaea a4bd 8bc7 cb3d
00000100: e0f6 afbc a0ec c33c 7a3e abbd c0d1 0fbc
00000110: 5a39 82bd 827e 513d 5f7f b13d a060 8abd
00000120: 729a 463d e82d b8bd 5654 94bd cbe4 93bd
00000130: 906c 87bd 4af3 75bd f28b 1b3d 0d79 4abd
00000140: 3d44 1ebd ce46 2f3d 5633 87bd f7aa 42bd
00000150: 9d4d 40bd cade 50bd b683 8abd b2d4 5e3d
00000160: 40cc 1bbc a99f c33d 3614 503d 6ca6 8bbc
00000170: c033 7abb 1802 9b3c 6a48 a0bd d0e5 3e3c
00000180: af9a 9f3d 1e97 98bd 68fc 413c ac13 f2bc
00000190: d0e2 b5bd 0068 9e3c ea41 28bd 7aeb a3bd
000001a0: 7f71 b9bd d30b b7bd e1ce 883d 80cd 7bbd
000001b0: 385a d0bc e9a3 c13d 5470 d63c 827b b5bd
000001c0: 104c 4b3c 4d82 bf3d f454 d93c c0fb 76bd
000001d0: aa32 b8bd dfab ae3d a074 a33c 6179 843d
000001e0: dd0f a73d ad48 a1bd 815a a43d 9362 93bd
000001f0: 5a85 263d d1a4 8b3d a084 ae3b 976d 74bd
00000200: 4566 c33d 6720 49bd e3c6 52bd 9948 973d
00000210: f204 633d 40b1 77bd b0f6 373c f07f 11bc
00000220: 9047 213c 324a a4bd cdcf 5bbd 2cc3 b9bc
00000230: af98 bcbd e76a 47bd a0cd eabc 5dbb 8f3d
00000240: 507d 1ebd 6e69 9bbd 8c23 c93c 6cba e7bc
00000250: 7d67 78bd 6a51 1fbd 003e 9fb9 2b93 b63d
00000260: 6a3e cbbd 345c fdbc df59 9b3d 2421 e03c
00000270: 7a3e c8bd 111c bc3d 6251 253d fa6e 01bd
00000280: 5881 a3bd 0a32 4a3d 5e41 8cbd f08e 2a3c
00000290: 8049 c9ba 5096 e7bb e392 9d3d b482 09bd
000002a0: 5860 8dbd 51b8 9d3d ec8f a53c ad52 37bd
000002b0: 8e4f 8bbd 532f 9c3d 5c3f da3c 1641 363d
000002c0: c3b7 b5bd 51a0 883d 1879 b3bc 5e01 163d
000002d0: b907 953d de0d 453d 8357 62bd 1ade 083d
000002e0: eb6b 963d 85c6 a93d 2e09 163d 7382 8f3d
000002f0: 2265 c6bd 6df0 8fbd b2b8 7d3d 16be 6a3d
00000300: 6346 1fbd 90f4 1bbd 25c7 8cbd 1ca1 dc3c
00000310: 99ad 9a3d b9e0 bf3d 23d3 2abd bc10 8bbd
00000320: 0018 183c d0df 0cbc 7c35 cd3c 062f 703d
00000330: b683 84bd aefc 753d f258 783d f8fc d4bc
00000340: b49b 18bd e337 9b3d ba6e 713d 209e b6bc
00000350: 46bf 8dbd 60d7 b9bc c3f0 32bd 02f5 263d
00000360: 4374 b83d ce43 483d 6c7d a5bc dbdc c73d
00000370: 812b 873d 7d2d c8bd 50fd 5dbc 9ffd 963d
00000380: c87f 94bc 600d 26bd 981f 55bc ec6b a3bc
00000390: f8df a93c 70c1 54bc 596d 853d a30d 7abd
000003a0: 9365 b23d 3d84 a83d 2ad0 273d a315 acbd
000003b0: aac9 0cbd beaa 083d cd4c 47bd 1034 173c
000003c0: ea29 04bd cc6b dfbc acbb 8abc d827 dfbc
000003d0: 1361 56bd 0080 fcbb 3725 49bd 00d8 623b
000003e0: c210 b9bd 3547 923d 1ac9 29bd 044f 81bd
000003f0: d99d 8f3d 06de 01bd 5361 c53d eb00 993d
-0.027299464 -0.0706192 0.07280425 -0.009816945 0.008114852 -0.043146636 0.060233407 0.027308933
0.04878173 -0.015680537 0.012880623 -0.084333934 0.029443882 -0.068104744 -0.055535126 0.02464503
-0.045480814 -0.024144173 0.09731018 -0.013794258 0.0009980574 0.021487176 0.05016572 -0.024952129
-0.034989156 0.07774999 -0.04862672 -0.040215313 0.09435754 0.023584746 0.016873375 0.03409361
0.02466128 0.019844592 -0.0022359937 -0.057658043 0.041012056 0.0062379614 -0.021380745 0.08013252
0.024017408 -0.0017877966 0.025464825 0.074381165 0.048670314 -0.03158994 0.024056211 -0.06001872
0.013481557 0.075785615 -0.05175841 -0.0352118 -0.04010849 0.042245932 -0.022139445 0.024116777
0.0637273 0.06044846 0.012428559 -0.024143778 -0.013284966 0.011279963 -0.08052571 0.09950169
-0.021480024 0.023916543 -0.08361526 -0.008778036 -0.06358595 0.051146038 0.08666872 -0.06756711
0.048487134 -0.08993131 -0.07242648 -0.07221373 -0.066125035 -0.06004647 0.03797526 -0.04943185
-0.038639296 0.042792134 -0.066015884 -0.047526326 -0.046949018 -0.05099372 -0.06763403 0.05440206
-0.009509146 0.09551937 0.050800525 -0.01704713 -0.0038177818 0.018921897 -0.07826312 0.011651471
0.077931754 -0.07450698 0.0118399635 -0.029550396 -0.08881152 0.0193367 -0.041078486 -0.08003898
-0.09054851 -0.08937802 0.06680084 -0.061475277 -0.025433645 0.094550915 0.02617661 -0.08861448
0.012408271 0.09351025 0.026529767 -0.06029868 -0.089940384 0.085288756 0.019953072 0.06468464
0.081573226 -0.0787519 0.08025075 -0.07196536 0.040654518 0.068185456 0.0053258687 -0.059674826
0.09540991 -0.049103167 -0.051459204 0.07386894 0.055424638 -0.060471773 0.0112282485 -0.0088806
0.009843722 -0.08021964 -0.05366497 -0.022676073 -0.092088096 -0.048685934 -0.028662503 0.070181586
-0.038693726 -0.075884685 0.024553083 -0.028287135 -0.06064557 -0.038896002 -0.00030373037 0.08914789
-0.09924014 -0.030927755 0.07585501 0.027359553 -0.097775415 0.09185041 0.040360816 -0.031599976
-0.07983655 0.049364127 -0.06848405 0.0104100555 -0.0015356988 -0.007067479 0.07694032 -0.033571914
-0.06903142 0.07701171 0.020210229 -0.04475658 -0.06802283 0.07626214 0.02664154 0.044495665
-0.088729404 0.06671203 -0.021908328 0.036622398 0.072768636 0.048108928 -0.05525924 0.033414938
0.073448025 0.08289818 0.03662985 0.07007303 -0.09687258 -0.070282795 0.061943717 0.057310186
-0.038885485 -0.03807503 -0.06873921 0.026932292 0.075526424 0.09369034 -0.041705262 -0.06790301
0.009283066 -0.008598283 0.025049917 0.058638595 -0.06470434 0.060055427 0.0606317 -0.025999531
-0.037257865 0.07579019 0.058943488 -0.022292197 -0.06921248 -0.022685707 -0.04368664 0.040761
0.0900655 0.04889279 -0.020201407 0.09758922 0.066000946 -0.09774301 -0.013549164 0.07372593
-0.018127337 -0.0405401 -0.013008021 -0.019948922 0.02073668 -0.012985572 0.06514997 -0.06104816
0.0871078 0.082283475 0.040970005 -0.084025644 -0.03437201 0.033365957 -0.048657227 0.009228721
-0.032266535 -0.027273081 -0.016935192 -0.027240679 -0.05233867 -0.0077056885 -0.049107756 0.003461361
-0.090363994 0.07142488 -0.04145155 -0.06313899 0.07012529 -0.03170588 0.09637704 0.07470878

bias_ih_l0 f4 [400]
00000000: 429f 86bd 1eba cf3d 57bc 14bd a9cf 943d
00000010: c9c7 043d 9fee d43d f01e 2fbd 75be 9c3d
00000020: 1ef6 39bd 9d22 f13d bb30 ba3c 5bcf 07bd
00000030: d23e 26bd 347c 9bbd 66fb a4bc 252a 4e3d
00000040: 3515 b33d cde1 ef3d 44c9 57bd 852d 593d
00000050: 89d3 b0bd 303a 923d a7f7 65bd b0f5 c13d
00000060: 68b4 333d 0b39 863d 7ead 5fbd 5639 2bbc
00000070: 1f61 db3d d394 40bd 4249 67bd 5943 a13c
00000080: e12d 32bd c0a1 0c3c 0cca 1d3d 48e8 1f3d
00000090: 182a 8ebd a319 503d 3c8e 3abd d306 093d
000000a0: e84d 043d 8cd2 a9b7 e6af 713d 7646 033d
000000b0: 7f62 86bd 226b 3cba df52 e6bc 621f bf3b
000000c0: 55bc 4c3d a88d 9bbc 641d a2bd 1051 49bd
000000d0: f90a 823d a508 2a3d ca14 11bc 6b4f 00bc
000000e0: 5e21 f2bc 22a8 953c 0972 b23d 1cb3 7c3d
000000f0: 66b2 e33b bb11 f4bc 0c7a 53bd fcbc 0abd
00000100: e3c5 bf3c 7227 4c3d 42e8 523d ccb2 e63c
00000110: eb41 d9bc c12c a5bd f4e4 803d 33ef cd3c
00000120: 49a9 ee3d a881 403c 3653 ff3c ab27 8abd
00000130: 6890 b53d 6169 b4bd c420 b83d 6619 7fbc
00000140: f583 9e3c 973a 003d 44ea 9ebc 5839 7bbd
00000150: 96c2 183c 6897 91bd 84f1 bf3d cbee b43c
00000160: 93d3 283c 59e0 27bc 7d1e 033e b242 003c
00000170: 6b47 2a3d 60dd 0bbd 8c29 8c3c 6da2 aa3c
00000180: f6fe ba3d 6ef2 0c3d 7563 7fbd b151 a03d
00000190: a192 cc3d fa53 163d 6061 45bb 9703 bfbd
000001a0: 4a5a 26bd 40db 08bd e756 49bd 68b1 ebbc
000001b0: 4d8e 6cbd 252e 8b3d 6dd2 25bd 70b6 74bd
000001c0: 12f5 0a3d da08 56bd a5ad b23d c09c 9fba
000001d0: 7d96 5bbd f850 f6bc ee98 523d 9dba 67bd
000001e0: b212 503d ea72 00bd 66aa 103d 53ec 9a3d
000001f0: 3234 303d 9f72 853d e33d 3dbd d015 cdbb
00000200: 10d0 78bd a0cc 2fbd ba23 1f3d 4aa8 a2bd
00000210: ed3a b3bd 5078 c53b 9d07 26bd 9a4c 603d
00000220: 9f9d a43d 6206 1e3d 0267 bbbd 7429 933c
00000230: e093 c3bb f3ca 7ebd 30de a53b c8f5 92bd
00000240: 76eb 473d 6888 f6bc 20d6 bd3b 78e1 edbc
00000250: 0789 be3d 8269 183d 6e65 323d 0a09 093d
00000260: 9db9 30bd a03d a63b c095 063c 0d33 2abd
00000270: acbc e73c fb57 cabd eebd 7d3d 4e2e 88bd
00000280: 30b7 07bc 69bc a53d a65d a7bd eced edbc
00000290: abbe 8b3d f6e9 a3bd 292e 853d e04e 9cbb
000002a0: 8f9f 933d 0a8a 423d 2aec 643d f4b3 10bd
000002b0: 6047 963c 186f 4ebc c374 4abd 707e 3f3c
000002c0: b61b 19bd 08fb abbd 5df1 89bd 8322 35bd
000002d0: 0506 a2bd 3a6e 4f3d 005f e8bc 0b62 c33d
000002e0: fedb 593d 823e 373d 7018 00bd f1f6 a73d
000002f0: c70e aebd 764c 03bd cc31 a0bc f60a 01bd
00000300: 140b 8f3c 6618 143d 8a52 78bd 7a6e c9bd
00000310: 0218 283d e5e4 c1bd d0a7 e73b a862 1bbc
00000320: 4978 9b3d 644d fabc 07f0 723c f8fb 28bd
00000330: 810e 80bd d925 db3d 13a2 893d d2b1 babb
00000340: 1449 6f3d b955 4cbd 20a6 b9bd 4d7b 26bd
00000350: ca51 b13d 3649 55bd 84db c83d 76fe 6bbd
00000360: 9917 18bb b54d 6dbd 7baf cd3c 651e 933d
00000370: 4d55 00bd 838e 353c 79b8 20bc d7a9 8dbd
00000380: a9c2 08bc 37c5 babc 1879 0a3d 1123 bc3d
00000390: bba6 50bb f6d3 37bd 5f75 823d 48ed dabd
000003a0: 31bf c03d 3c2d 44bd 055a bb3d 45bf d23c
000003b0: ccba 57bd c7ee 8fbd d5b9 a43d f4df 91bd
000003c0: 81c3 7d3d 4b9a 6e3c 89f3 4c3d 27db 903d
000003d0: a7ea 113d 8deb 9c3d 2f06 8c3d 6632 11bc
000003e0: 41cf 53bd 5323 a83d b987 acbc 5b28 8b3d
000003f0: 60cc 793d ae87 1c3d 5517 003d c7a8 48bd
-0.06573345 0.10142921 -0.036312427 0.072661705 0.032417092 0.10397076 -0.042754114 0.07653514
-0.04540073 0.1177418 0.022728315 -0.033156734 -0.040587254 -0.07592049 -0.020139407 0.05033316
0.08744279 0.1171299 -0.052682176 0.053021926 -0.08634097 0.07140005 -0.056144383 0.09470689
0.04387322 0.06553849 -0.054608814 -0.010450682 0.10711884 -0.04701693 -0.05646635 0.019685434
-0.043500785 0.008583486 0.038522765 0.03903988 -0.069416225 0.0508057 -0.0455458 0.033453774
0.03230086 -2.0244413e-05 0.05900564 0.03204962 -0.065617554 -0.0007187595 -0.028115688 0.0058325985
0.049984295 -0.018988445 -0.07915762 -0.049149573 0.06349749 0.04151215 -0.008855054 -0.007831435
-0.029556926 0.018268649 0.08713157 0.06169425 0.006948757 -0.02979361 -0.051630065 -0.033871636
0.02340979 0.049842305 0.05149103 0.028161429 -0.02652069 -0.08065177 0.06293669 0.025138473
0.11653382 0.011749662 0.031167608 -0.06745847 0.08865434 -0.08809162 0.089906245 -0.01557002
0.019350031 0.031305876 -0.019398816 -0.061333984 0.009323737 -0.071089566 0.09372237 0.022086522
0.0103043495 -0.01024636 0.12804599 0.007828401 0.041572016 -0.034146667 0.017109655 0.020829404
0.09130661 0.034410886 -0.06235071 0.078280814 0.09988905 0.03670118 -0.0030117854 -0.093268566
-0.04061345 -0.033412218 -0.049155142 -0.028771117 -0.057752896 0.06795911 -0.04048388 -0.0597443
0.033925124 -0.052254535 0.08724526 -0.0012177452 -0.053610314 -0.030067906 0.051415376 -0.056574453
0.05079908 -0.03135959 0.035318755 0.075646065 0.043018527 0.06516003 -0.046201598 -0.006258704
-0.0607453 -0.042919755 0.03885243 -0.07942255 -0.087514736 0.0060263053 -0.040534604 0.054760553
0.08037876 0.038580306 -0.091505066 0.017964102 -0.005968556 -0.062205266 0.005061887 -0.07175785
0.048808537 -0.03009434 0.005793348 -0.029038176 0.0930348 0.037209995 0.043553762 0.033455886
-0.043145765 0.0050732642 0.008214414 -0.041552592 0.028288208 -0.09880062 0.06194871 -0.06649457
-0.008283421 0.08092577 -0.08172159 -0.029044114 0.068234764 -0.08003609 0.06502945 -0.004770145
0.07208168 0.047494926 0.055889286 -0.035327867 0.018344581 -0.012599729 -0.04942776 0.01168786
-0.037379943 -0.0839749 -0.067354895 -0.044222366 -0.079113044 0.05064223 -0.028365612 0.095401846
0.053188317 0.044737346 -0.031273305 0.08201397 -0.08498912 -0.03205534 -0.019554995 -0.031504594
0.017461337 0.03615608 -0.06062559 -0.09835525 0.04103852 -0.09467486 0.0070695654 -0.009483971
0.07591302 -0.03055448 0.014827735 -0.04125592 -0.062527664 0.10700578 0.06720366 -0.0056974674
0.058419302 -0.04988644 -0.09064889 -0.040644933 0.08658178 -0.052071773 0.09807494 -0.05761572
-0.0023207425 -0.057935435 0.02510809 0.07183532 -0.03133135 0.011081341 -0.009809607 -0.0691716
-0.008347192 -0.022799117 0.03380689 0.09186376 -0.003183766 -0.044879876 0.06370043 -0.10689789
0.09411467 -0.0478947 0.09148029 0.02572597 -0.052668378 -0.07027965 0.08043257 -0.07122794
0.061954025 0.0145631535 0.05003694 0.0707305 0.035624173 0.07662115 0.06837117 -0.008862114
-0.051711325 0.082098626 -0.021060811 0.067948066 0.060985923 0.03821533 0.03127225 -0.048989084

bias_hh_l0 f4 [400]
00000000: dc7f ea3c 488f 88bd 41de c3bb 8a27 9c3b
00000010: 9028 2abd 16c1 193d 0fd3 6cbd 6379 2b3d
00000020: 8b03 c0bd db56 17bd 513c 623d ce67 c03d
00000030: 22aa e23c ab77 e3bc e75c 97bd 3e44 de3d
00000040: 8527 d3bd 937a f23d 099b d93d d4a8 823c
00000050: eb08 7c3d c3b5 613c d547 a8bd 8dbb af3d
00000060: b063 253d dc51 bd3d 7ee5 2cbd d6e3 79bd
00000070: 87ee 5ebc f43e ddbc 70dc a23d d303 cfbb
00000080: 759c a4bd 711a dbbc 629c 77bd ee1a 3b3d
00000090: cbc8 003d 3bab a0bd 57fa 003c d1a4 a93d
000000a0: ed5e cc3d b3a3 7c3c 0232 f03d b10a 843c
000000b0: 21f2 3f3d 1c3d 6c3d d837 083d b3d5 303d
000000c0: eda2 b13d f1fa 53bd d4c4 d63d ed75 fd3d
000000d0: 41d5 973d 6132 133a 4a6f 3bba 4a45 d03d
000000e0: 8445 393c 8156 713d e44f 533c 9f6d a1bd
000000f0: d411 ae3d 028d 253d 65ec 0bbd a435 663d
00000100: d764 aebd c8e4 283d b2f7 8a3d abcf 00bd
00000110: bf2e c93d eb74 65bc eb86 0ebd 2c58 8bbd
00000120: 4e82 513c 52d8 353b 5849 02bd 259d 213d
00000130: 5cf1 98bd 5417 b6bd e8f4 17bc 5269 e5bc
00000140: 9c43 9fbd 1efd 5ebd cc87 9bbc db44 b23d
00000150: e039 a03d e440 3cbd 6f8f 02bd 0102 6ebd
00000160: ab64 febc b59d 5a3d 43e3 86bd 5e5d 923d
00000170: 98b7 bc3d 4abf 30bd bce1 5bbc 38c3 14bd
00000180: 2cb4 ac3d ef24 2cbd b5a9 503d 7edb 993d
00000190: 0897 b03c 9ad5 24bd 34d5 b43c c9b7 c43d
000001a0: 9d3f b1bd 0dde 66bd ddd8 8a3d 18f0 7b3c
000001b0: 827f aabd dc21 fa3c 48b1 f6bc 31ab 833d
000001c0: b0fb 643c e73c 45bd 3d92 6fbd 2601 82bd
000001d0: b1e2 a33d 5036 15bd 40fd a3bd 2e74 183d
000001e0: 3fc4 c5bd 3096 edbb 7477 a2bc ff03 c3bd
000001f0: c42f ea3c b0ca 3bbc ba18 58bd 505d 2ebd
00000200: 4ca3 03bd 61b6 833d 2a4f 77bd 9a9b 6e3d
00000210: 25aa 983d 4d59 8f3d 8875 b2bd e4a0 ed3c
00000220: f206 353d ea09 3cbd 5232 3c3d 3060 8c3b
00000230: 07eb c93d e147 a83d cb53 a63d 0013 8b3c
00000240: b80b c73c 68a9 3b3c 7c75 06bd 0ea8 083d
00000250: c09c c4bc 18cb 9dbd b35f c1bd b3e3 acbd
00000260: 94ac c1bc 0a8b 87bd db50 8dbd 52be 013d
00000270: c76e 71bd b0aa fb3b 40fb 00bb ac1e cb3c
00000280: 2367 bb3d 14e5 a9bc 3ae7 a5bd cc0b c2bc
00000290: 9804 bebc cd9a 5abd 82a9 7d3d b48d d7bc
000002a0: 4eea 143d d67c 8cbd c245 733d e0b7 bebb
000002b0: 0006 e53a d4ea cebc 191d c93d 403c 63bc
000002c0: 6035 aebd d8ae a6bd cd72 c53d 5a97 54bd
000002d0: fcf5 e23c 70bd 0ebc a789 c9bd 93ff 77bd
000002e0: 8046 863b a81d 893c 020e 303d 5d3d b33d
000002f0: 60b9 62bb fadd 20bd de19 533d a86a a1bd
00000300: cade 5d3d 8aa5 18bd 5a89 7b3d 1647 153d
00000310: eab7 663d 403f a5bd 4318 31bd 8063 a1bb
00000320: 8aeb f8bc 12cf 763d 7c29 5f3d a9ff 6cbc
00000330: 9e7e aabd 6928 afbc 397c 9a3d fa08 833d
00000340: 7054 cabd 114e 64bd 5b79 193c b0bb 793d
00000350: cd2d 6e3c 9670 5abd 8835 0c3d d513 bbbd
00000360: 45c6 b7bd e74c 9b3d 0317 53bd 1d74 8fbd
00000370: 67ac e73c ba4b 8fbd ac89 803d c8ce 663d
00000380: 55a2 cbbd 0ec9 11bc 5b86 963d 6678 863d
00000390: c35e 4f3d 8e79 143d 8b06 993d 7f92 633d
000003a0: e5aa 6c3d 164b 493d 55eb 8d3d b3f4 bebd
000003b0: f88a 303d 80ec 54bd 296e aabd 0cd9 19bd
000003c0: 36b3 b83d 1356 2ebd de36 a6bd 0b00 dbbc
000003d0: eb09 be3d 9d85 c33c bb14 62bd 0fa0 023d
000003e0: 3a22 96bc a391 7e3d b029 c4bd 51f9 8f3d
000003f0: d3bc 383d c8e2 34bd 90e2 a0bd 6226 803d
0.028625421 -0.06667954 -0.0059774225 0.0047654556 -0.04154259 0.037537657 -0.05781847 0.04186381
-0.09375676 -0.036948066 0.055233303 0.09394799 0.027669016 -0.027767023 -0.073907666 0.1085286
-0.10310272 0.118397854 0.10625274 0.015949644 0.061531942 0.0137762455 -0.08216826 0.08580694
0.040378273 0.09244129 -0.04221105 -0.061008297 -0.013606674 -0.027007557 0.07952201 -0.0063175946
-0.08037654 -0.026746007 -0.060451873 0.04567998 0.03144149 -0.078451596 0.007872186 0.08283389
0.09979043 0.015419888 0.11728288 0.01611838 0.04686177 0.057675466 0.03325638 0.04317255
0.08673654 -0.05175299 0.10486761 0.12376008 0.07413722 0.0005615112 -0.0007150067 0.10169466
0.011308078 0.058920387 0.012897465 -0.07882237 0.08499494 0.04041768 -0.03416099 0.0562035
-0.085153274 0.041233808 0.067855254 -0.031448048 0.09823369 -0.014004926 -0.034796637 -0.06803927
0.012787415 0.0027747345 -0.031808227 0.039456505 -0.07467911 -0.08891168 -0.009274699 -0.028004322
-0.07776567 -0.05444061 -0.018985651 0.087045394 0.07823539 -0.045960322 -0.03187507 -0.05810738
-0.031053862 0.053373057 -0.065863155 0.07146715 0.09214705 -0.043151177 -0.0134205185 -0.036318988
0.084328026 -0.04202741 0.050943095 0.07512568 0.021556392 -0.04024277 0.02207432 0.09605367
-0.086547114 -0.056364108 0.06779645 0.015377067 -0.083251014 0.030533724 -0.030113831 0.064291365
0.013976023 -0.048153784 -0.058489073 -0.06347875 0.08002222 -0.03642875 -0.08007288 0.037220173
-0.096565716 -0.0072505698 -0.01983235 -0.095222466 0.02858723 -0.011461899 -0.052757956 -0.04256946
-0.032138154 0.064312704 -0.06037823 0.058253862 0.074543275 0.06999455 -0.087138236 0.029007383
0.044196077 -0.045907892 0.045946427 0.0042839274 0.09859281 0.08216835 0.08121451 0.016976833
0.02429758 0.011453964 -0.032826886 0.033363394 -0.024000525 -0.07704753 -0.09442081 -0.08441868
-0.023641862 -0.066183165 -0.069001876 0.031675644 -0.058943536 0.0076802596 -0.0019681007 0.024794899
0.09150531 -0.020739116 -0.081007436 -0.023687266 -0.02319555 -0.053370286 0.061929233 -0.026312687
0.036356263 -0.06859748 0.059392698 -0.0058202595 0.0017473102 -0.02525846 0.09820003 -0.013869345
-0.08506274 -0.081388175 0.09641037 -0.051902153 0.027705185 -0.008712158 -0.09840708 -0.06054647
0.0040977597 0.016737774 0.04298211 0.087519385 -0.0034595355 -0.039274193 0.05153834 -0.07881671
0.054167546 -0.037267245 0.061410286 0.036444746 0.056327738 -0.080687046 -0.04323603 -0.0049251914
-0.030385751 0.06025607 0.054482922 -0.014465251 -0.083249316 -0.021381574 0.07543225 0.063981965
-0.098793864 -0.055738512 0.009367312 0.06097001 0.014537287 -0.053330027 0.03423074 -0.09134642
-0.08973364 0.07583027 -0.051535618 -0.07004569 0.02828045 -0.069968656 0.06276259 0.056349546
-0.09943072 -0.008898033 0.07349845 0.06565933 0.05062748 0.036248736 0.07471951 0.05555963
0.057780165 0.049143873 0.06929652 -0.093240164 0.04310128 -0.051983356 -0.08321793 -0.037560508
0.09018557 -0.042562556 -0.08115934 -0.026733419 0.092792355 0.023867423 -0.05519555 0.031890925
-0.018326867 0.06215061 -0.09578264 0.07029975 0.04510195 -0.044161588 -0.07855713 0.06257321

weight f4 [20, 100]
00000000: 7811 943c 9f2e aa3d c093 85bd b742 1abd
00000010: 4d7b b2bd 7023 7bbd 5191 b83d eabd 99bd
00000020: 45a8 8e3d 0a5e a0bd 56c0 11bd 3208 94bd
00000030: 4fa4 9d3d c0f0 403b c261 bbbd a084 cdbc
00000040: fa2a 773d 9872 3ebc 00a8 083c 7eaf 473d
00000050: da12 09bd 5562 85bd 1282 673d 168b 97bd
00000060: 4aa8 003d 77f2 4cbd 0f6a 8d3d 0cb7 d83c
00000070: 14bf dfbc afad c53d 40ae b33c 3542 b43d
00000080: 403e 433c db07 b03d 5d46 98bd da4a 193d
00000090: 5049 2cbc 2b8d 90bd 32ed 3b3d 4b00 a5bd
000000a0: e00c 863c 184d 9b3c 207e 14bd 7016 13bd
000000b0: 01eb 973d d985 cc3d b262 693d a7d9 883d
000000c0: 1d81 98bd 30fe a63b 5fac c43d b659 07bd
000000d0: 4d60 6fbd 9780 bcbd fe10 82bd 6647 19bd
000000e0: 7998 9e3d 8c29 9b3c e4fa d93c 6f41 ac3d
000000f0: 9412 ffbc 6202 453d 98e6 2abc 3d7a 9dbd
00000100: 82c7 0a3d 4a9f 2abd b7c2 af3d 867b 103d
00000110: 8cb2 8fbc 6877 3a3c ba47 6dbd 95f5 a0bd
00000120: 00ac 473c a677 503d d20d 673d 6012 11bb
00000130: e207 613d 8050 c5ba 68c4 1abc 7ae0 7e3d
00000140: b42c fd3c dde3 cb3d c805 c2bd 134f 41bd
00000150: e324 b3bd 6cfb 8a3c bd13 88bd b2a1 1d3d
00000160: 322f 043d 1060 53bc 123e 89bd e404 da3c
00000170: 18cf 17bc 946f c43c c668 0b3d 2dc6 8b3d
00000180: d693 a8bd 000f 24bc 6091 7d3b 8089 313c
00000190: 81d6 863d e7d9 57bd 008c fabb ebd8 92bd
000001a0: a365 90bd 1938 c13d d8a9 c8bc 84ae 06bd
000001b0: 8348 a43d be80 643d 4ad7 423d 6252 5c3d
000001c0: 9770 65bd 27a4 5abd 3dd0 b73d c0f8 c3bd
000001d0: 8012 25bd 1452 fc3c 47df b3bd 4680 5b3d
000001e0: a2df 193d 772c 5abd 7a1b 69bd 5893 0fbc
000001f0: 8af9 343d 30da 98bd b31b c8bd ac1e 0fbd
00000200: b9eb 853d b463 efbc 05c9 c33d 28b1 663c
00000210: 03e0 a73d 92a6 563d 359e 863d 986a 1e3c
00000220: bdc0 b0bd 0d9b 45bd 209c c03c b04d 36bc
00000230: 1d51 bcbd 705b 20bc 3992 893d 03e8 4dbd
00000240: cd37 993d 5591 b53d c964 993d a0c7 3bbd
00000250: eb93 933d a00e e73b 8735 25bd 1204 093d
00000260: 345e babc e0ac b9bb aefa 563d e218 383d
00000270: 106b 1c3c e06a cf3b c0ce 7abc 6c58 0fbd
00000280: ea49 093d 2056 c2bd 82de 683d 60ff 6a3b
00000290: 7770 5abd d1c1 923d 8c9b 91bc b7f7 65bd
000002a0: 1bf1 bdbd ae3b 2c3d d260 493d 0a14 033d
000002b0: 684c 31bc 9197 883d 3c4e 8abd fddb 8b3d
000002c0: 965e 0e3d 60b1 bebc 4538 cb3d 4c04 8e3c
000002d0: 0d37 853d 7ed1 483d 0d3c 3dbd 14c4 f8bc
000002e0: 8905 a93d 400d 463b c03b 6c3c 6279 a9bd
000002f0: ccd8 84bc 1d16 963d 66c9 88bd 00a3 363c
00000300: 001e babc 62a9 723d 023e 3b3d 9646 04bd
00000310: a46c f63c 7a97 6e3d 93c4 b2bd 3e42 9ebd
00000320: 7d08 46bd bdbb c43d 0347 26bd b398 8d3d
00000330: 6785 873d 1689 163d cb12 bdbd fe3b 4a3d
00000340: a805 353c 0866 b1bd f0ae 52bd 4eae 4b3d
00000350: 5826 d5bc 39ea ad3d 2bc2 c6bd 7038 7d3c
00000360: f447 16bd a17a 8a3d 2a71 40bd 3ebe 86bd
00000370: 9af2 053d 9d3f 843d 92a2 7b3d 2d50 8fbd
00000380: 93a9 79bd 9d01 9fbd 865e 103d 6b1b c6bd
00000390: b5b9 a13d 72f5 703d d8e8 193c 4035 daba
000003a0: f5b8 aa3d bd27 a1bd f740 893d d880 babd
000003b0: 90b7 4ebc 9eb5 a5bd b011 8f3b 884c a0bc
000003c0: 4823 81bd ecd6 fabc 517f 903d ac80 fdbc
000003d0: d17d a73d d821 28bc 9051 073c 727d 2e3d
000003e0: cae1 95bd 315a 923d 8bb9 9dbd 8309 5cbd
000003f0: f9eb ca3d 2e5b 233d bfe7 c03d df04 c5bd
0.018074736 0.083096735 -0.06522322 -0.03766128 -0.08714924 -0.061313093 0.09012092 -0.07506926
0.069656886 -0.078304365 -0.035583816 -0.07228126 0.07697355 0.0029440373 -0.09149505 -0.025087655
0.06034372 -0.011624001 0.008340836 0.048751347 -0.033465244 -0.06512896 0.05652053 -0.073995754
0.031410493 -0.05003592 0.06904995 0.026454471 -0.027312793 0.09652268 0.021933675 0.088016905
0.011916697 0.08595248 -0.07435296 0.0374249 -0.010515526 -0.07058176 0.045880504 -0.080566965
0.016363561 0.01895766 -0.036253095 -0.03591007 0.0741787 0.09986467 0.05697889 0.06682139
-0.074465014 0.0050962195 0.0960319 -0.03304454 -0.05844145 -0.09204214 -0.06350897 -0.037421606
0.077439256 0.01894071 0.026608892 0.08410918 -0.031136788 0.048097976 -0.010430954 -0.07689331
0.03388167 -0.041655816 0.08582061 0.03527405 -0.017541192 0.011381008 -0.057929732 -0.07859341
0.012187004 0.050895356 0.056409664 -0.0022136196 0.05493916 -0.0015053898 -0.009446241 0.062225796
0.030905105 0.09955571 -0.09473759 -0.04719455 -0.0874727 0.01696559 -0.0664439 0.038484283
0.03227157 -0.012901321 -0.06701292 0.02661366 -0.009265684 0.023978986 0.034035467 0.068249084
-0.082313225 -0.010013342 0.0038691387 0.010836005 0.06583882 -0.052698042 -0.007646084 -0.0717028
-0.07050636 0.09434528 -0.02449505 -0.032881275 0.08021643 0.05578684 0.047568597 0.053789504
-0.056015577 -0.053379204 0.08975265 -0.0956893 -0.040300846 0.030800857 -0.08782821 0.053589128
0.03756679 -0.05326506 -0.05691097 -0.008763157 0.04418329 -0.07463491 -0.09770908 -0.03494136
0.06539101 -0.029222347 0.09559826 0.014080323 0.08197024 0.052404948 0.06573144 0.009668969
-0.08630512 -0.04824357 0.023511946 -0.011126921 -0.09195159 -0.009787425 0.06717343 -0.05027009
0.07481346 0.088656105 0.07489926 -0.045844674 0.072059475 0.007051304 -0.04033425 0.033451147
-0.022749998 -0.0056663603 0.05248516 0.044945605 0.00954701 0.006329879 -0.015308082 -0.034996435
0.033517756 -0.09489083 0.056852825 0.0035857782 -0.05332991 0.07165874 -0.017774366 -0.056144442
-0.09274503 0.042049102 0.0491646 0.032001533 -0.010821439 0.06669534 -0.06753203 0.06829069
0.034758173 -0.023277938 0.09922842 0.017336033 0.06504641 0.049027912 -0.046199847 -0.030366935
0.08253009 0.00302203 0.014418542 -0.08275105 -0.016216658 0.073284365 -0.06679039 0.011147261
-0.022719383 0.059243567 0.045713432 -0.03229388 0.0300811 0.058249928 -0.087289 -0.077274784
-0.04834794 0.09606121 -0.040595066 0.06913891 0.06617241 0.03675183 -0.092321 0.04937362
0.011048712 -0.08662039 -0.051436365 0.049726777 -0.02601926 0.0849194 -0.09705003 0.01545535
-0.036689714 0.06761671 -0.04698292 -0.065792546 0.032702066 0.06457446 0.061434336 -0.06997714
-0.060952734 -0.077639796 0.035246395 -0.09673198 0.07896749 0.058827825 0.009393893 -0.001664795
0.08336059 -0.078689076 0.06701844 -0.09106606 -0.012617007 -0.08091281 0.004366122 -0.019567743
-0.063055575 -0.03062006 0.07055534 -0.030945145 0.081782945 -0.010261975 0.008259192 0.042600103
-0.073184565 0.07146109 -0.07701405 -0.05372001 0.099082895 0.039881878 0.09419202 -0.0962007
