core/models/nlp/command/multiclass/multi_classifier.pt (torch, 778040 bytes, 21 tensors)

weight_ih_l0 f4 [400, 300]
00000000: 8200 ae3d 8883 d63c 5d5d 8e3d a2c2 3a3d
00000010: d9af 85bd 2985 803d 02b7 903d b465 a13d
00000020: 187f a0bd c6f7 8dbd 2f98 0a3d 4168 bdbd
00000030: 87c8 b23d 5e24 123c 093b b93d 5fa1 00bd
00000040: 397b f9bc ac13 d73c 30fe 92bd 5359 f43c
00000050: 5576 74bd fc10 32bd a32d 14bb ca6f 8a3d
00000060: 62fd 70bd 104c c9bb 98bc 3a3d 3ac1 8d3d
00000070: 37e1 b03d 2c14 cabd 1c35 dbbd 177d 42bd
00000080: 8a11 81bc 4996 93bd 88f6 7bbd 2b0f 203d
00000090: c756 953d 51fd b3bd 19a9 60bd 899c acbd
000000a0: e560 e4bb cd4c 9bbc b6f8 953d 1808 8c3d
000000b0: a94a 6b3d dd87 8dbc 2d2b 31bd 853a b6bd
000000c0: 3cda 3bbd b7a5 8c3d 0f3c 98bc b8e5 813b
000000d0: f9fb d03d ec43 0abc e3a8 053c 74e7 67bd
000000e0: d112 af3c 1a5f 343d acf1 a2bd c259 a73d
000000f0: ac84 813d 4e41 7cbd 8ed3 543d 0e96 52bd
00000100: 8234 943d 8197 ca3c 6775 6d3d fe39 ccbd
00000110: 4ec0 56bd 1d44 b63d bee4 7c3d 9e14 d33d
00000120: f01d de3c cf56 6f3d 9361 0fbd afa8 9dbd
00000130: 411b 023d 6459 5d3d b998 62bd dc65 223d
00000140: 30e7 573d e475 8dbd 2b8d acbc 600c a63d
00000150: ba2a 9f3d df77 15bd a933 ae3d 11fc ae3d
00000160: ae6a 7dbd a2a0 d1bd 9625 f9bc 317e b1bd
00000170: e696 91bd 44ec 85bd 47ff 45bd 6f43 a1bd
00000180: 4d27 68bd ed76 3ebd 4a14 abbc c4a4 fbbc
00000190: 1aab 38bd 25be a83c 683f 8cbd 6053 aa3d
000001a0: ba29 e93c 6957 3e3c 7577 893d 080b d93c
000001b0: 0555 ae3c 1536 ccbd 2019 123c bd7b 8abc
000001c0: cec6 3abd bf43 d9bb e042 ee3d fa17 243d
000001d0: c561 163d cc30 00bd 9c1c d93d 9622 81bc
000001e0: eb05 5b3d 092b 18bc 0a46 42bd 1b74 0dbc
000001f0: 3e12 67bc 40f6 663d 29e3 373d 37c5 89bd
00000200: e9f9 dc3b 8019 8c3d d2b0 4e3d 1cda 063a
00000210: 132e 06bc 4771 19bd 9267 a7bd 9838 973c
00000220: 7b3f 66bd 5e21 94bd aebb f93c 42bb 86bd
00000230: 7607 d0bd a165 8d3d f827 ac3d f263 ab3d
00000240: 2815 463d d973 c1bc bc67 a3bb d705 f53b
00000250: 188f f03b a712 99bd 056f 6b3b 9edf 59bd
00000260: a8c5 1dbd bf74 853d 00d1 74bd bc12 273c
00000270: e2b3 33bd 1d7d 9bbd 4d53 963d a35c 303d
00000280: 1cea 693d 2133 92bd 7ef2 053d 5632 313d
00000290: f8bb b23d 24b6 2b3d 2e4b b6bd f96c 8a3a
000002a0: 26d9 d3bc 8cc6 1fbd 85c1 e03c 9f57 ae3d
000002b0: 62d9 5c3d 52ff 4fbd b184 db3c 49cd 8c3c
000002c0: 8e8b 8a3c 07fe 143d 3ae0 713c ce3e b53d
000002d0: 18be cf3d 5358 e1bc 31ac 4f3d 61be 69bd
000002e0: c22b b4bd 395f d7bd 01dd 983c 1335 e13c
000002f0: 82e1 dfbc bdb7 7e3d 7da3 8abd 47d5 423d
00000300: 3694 dc3c 6278 62bd c0a5 9cbd acd3 07bd
00000310: e644 a83d 24ec 9c3d 6fa3 02bd 1488 513d
00000320: 1bbe 7f3d eaa9 7fbc f4d8 d23b 3282 00bd
00000330: 1de5 c4bd 20f2 b9bd 7969 703d cb9d babd
00000340: bb5c 5bbd 0c12 61bd cd48 b13b 1406 07bd
00000350: 0099 b8bd fcff 943d c7e6 063d a1b2 bb3d
00000360: bece 2f3d d65e a23d a436 1d3d a8a1 9ebc
00000370: ac4c d23c b054 e33b 6f70 80bc 27ad 9a3d
00000380: 2d9b b93b 00c6 8e3c 52c9 7ebd ce18 7dbc
00000390: bad1 473d fa8e c7bd b430 813d d345 b5bd
000003a0: 46d7 a33d 6c00 f93c df94 b8bd 6081 813d
000003b0: 388f b1bd 916b 8d3d 5652 71bc b62c e73c
000003c0: dc74 483d 3a83 f13c 48fa 873b 1705 a7bd
000003d0: 45c1 80bc 6226 bd3d 238c a93d b167 823c
000003e0: aa3a e1ba 226f 253c a16d d0bc 97c7 88bd
000003f0: 0c54 82bc b730 76bc de22 8c3c 330d 8dbd
0.084961906 0.026185766 0.069514014 0.045595773 -0.06527681 0.06275398 0.07066156 0.078807265
-0.07836741 -0.06932025 0.03383654 -0.092484005 0.08729654 0.008919803 0.09044463 -0.031403895
-0.030454265 0.026254497 -0.07177389 0.02982775 -0.059683163 -0.04347323 -0.002261021 0.06759603
-0.058835395 -0.0061431006 0.045590013 0.06921621 0.08636706 -0.09867129 -0.10703489 -0.047482576
-0.015755434 -0.07206399 -0.061514407 0.039076965 0.07291942 -0.08788551 -0.054848764 -0.08428294
-0.0069695585 -0.01895752 0.073228285 0.06837481 0.05744425 -0.017276699 -0.043254066 -0.088978805
-0.04586242 0.06867545 -0.018583326 0.003964152 0.1020431 -0.008439045 0.0081579415 -0.056617215
0.021371277 0.04403601 -0.079562515 0.08171417 0.06324133 -0.061585717 0.051959567 -0.051412635
0.072365776 0.024730446 0.05797329 -0.09971999 -0.05242949 0.0889971 0.061741583 0.10306667
0.027113885 0.058432397 -0.035005163 -0.076981895 0.031764273 0.054040328 -0.05532143 0.039647922
0.052710712 -0.069072515 -0.021063408 0.08107829 0.07771821 -0.03649127 0.08505947 0.085441716
-0.061869316 -0.102357164 -0.03041343 -0.08666647 -0.0710886 -0.06539205 -0.048339155 -0.0787419
-0.056678105 -0.046500135 -0.020883698 -0.030718215 -0.04508505 0.02059848 -0.06848031 0.08316684
0.02846228 0.01161752 0.06712238 0.026494518 0.021280775 -0.09971253 0.008917123 -0.016904706
-0.04559975 -0.0066303904 0.11633849 0.04006193 0.036714334 -0.031296536 0.1060116 -0.015763562
0.05347244 -0.009287604 -0.047430076 -0.008633639 -0.01410347 0.056387186 0.04489437 -0.06727069
0.006743659 0.06840801 0.050461598 0.0005144195 -0.008189696 -0.037461545 -0.08174051 0.018459603
-0.056212883 -0.07232927 0.030485 -0.06578685 -0.10157673 0.0690415 0.08406061 0.083686724
0.04836002 -0.02361481 -0.0049867313 0.007477503 0.007341277 -0.07474261 0.0035924327 -0.053191774
-0.038518578 0.06516408 -0.05976963 0.010197338 -0.04387272 -0.07592223 0.07340107 0.043057095
0.05710803 -0.07138658 0.03270196 0.043260895 0.087272584 0.04192175 -0.08901058 0.0010561041
-0.02586038 -0.03900771 0.027436027 0.08512806 0.05391825 -0.0507806 0.02679667 0.017187731
0.016912248 0.03637507 0.014762932 0.0884987 0.101436794 -0.027507937 0.050701324 -0.057066325
-0.08797409 -0.10516209 0.01866007 0.027491128 -0.02732921 0.062186945 -0.06769464 0.04756668
0.026926141 -0.055290587 -0.07648802 -0.03316085 0.08216266 0.07662228 -0.031894144 0.051155165
0.062437158 -0.0156044755 0.0064345542 -0.031374164 -0.096140124 -0.09079385 0.058694337 -0.09112128
-0.05355523 -0.05494885 0.00541029 -0.03296478 -0.090135574 0.07275388 0.03293493 0.0916493
0.042921774 0.07928245 0.038382187 -0.019364193 0.025671326 0.006937586 -0.015678613 0.075525574
0.0056642503 0.017428398 -0.062203713 -0.015447808 0.048783995 -0.097440675 0.063081175 -0.088512085
0.080000445 0.030395709 -0.0901277 0.063235044 -0.08669895 0.06905282 -0.014729103 0.028219562
0.04893957 0.029481519 0.004149709 -0.08155268 -0.015717158 0.092358366 0.08278682 0.015918585
-0.0017183621 0.010097297 -0.0254429 -0.06678694 -0.015909217 -0.015026263 0.01710647 -0.06887283

weight_hh_l0 f4 [400, 100]
00000000: 0afe cbbd 68ac 41bc ae7f 533d 9a18 0dbd
00000010: b9f9 9e3d 43ce 2ebd a3b8 64bd 18b1 37bc
00000020: 0f66 c0bd 168f 6d3d b5ca abbd fd04 b2bd
00000030: a608 86bd 6317 a53d c0b8 513b c13a cc3d
00000040: 4017 37bc de13 a9bd 346f f2bc da4e 3b3d
00000050: 012e be3d 52f9 453d f004 5bbd 44d0 dc3c
00000060: 9513 99bd dea0 abbd 58f6 88bc bb9d c7bd
00000070: a0e6 0e3b b0e4 9fbd 14f2 943c a86b 9f3c
00000080: e340 6bbd 1266 c3bd 9638 6c3d 5868 82bd
00000090: 95c6 9b3d 8a20 163d fd98 bdbd c0fc b9ba
000000a0: 9095 b6bd 00e7 1d3a f984 c63d ae0e 6d3d
000000b0: e313 9d3d a005 f8bb b4f9 bdbc edb0 9d3d
000000c0: 400d 53bc 820a 423d d663 9ebd 12fe afbd
000000d0: fef6 613d 6c54 fc3c 713c c83d a544 c4bd
000000e0: c080 c13a da5b 0c3d dadd 6fbd 7ad6 7ebd
000000f0: 8fcf 813d ccbd 0fbd c258 7e3d c53c c9bd
00000100: 40af 5bbb 0465 8abd e033 93bb 206d 7abd
00000110: 37b2 30bd 010d 843d 9836 febc cc73 edbc
00000120: 334d b53d 3223 b3bd bcf9 fb3c 80ac c6bd
00000130: 4017 9fbd 47d1 8e3d 80b4 03bd 4532 afbd
00000140: 86ab 93bd 87f2 71bd 009d 4e3a c038 01bd
00000150: 00a7 b53b 407a 113c e1fd a93d 08b0 85bc
00000160: 4a03 22bd 3444 8b3c 6a1a 4fbd 834e 68bd
00000170: 8589 903d 004f 143a 0bb1 af3d 7e9c 8dbd
00000180: a76b cabd 3605 143d e169 a63d d06b 1cbc
00000190: d84d e4bc c0d1 c63c 1881 d9bc 295b 853d
000001a0: 9a70 3f3d 7343 1ebd dea0 a6bd ed50 bc3d
000001b0: e7e5 1abd 3026 6cbc b2f5 243d c016 8aba
000001c0: d861 a7bc 0c5b c33c 2d63 bcbd 40f0 fdbc
000001d0: 9083 723c 8075 bbbd 539f ca3d 2287 713d
000001e0: 153e 963d 75e2 8dbd b1a3 ca3d d7de aebd
000001f0: c77e 953d 7702 9d3d d475 b93c 336d cc3d
00000200: d8ad c9bc 5055 47bd b752 b3bd f9cd c13d
00000210: 52d1 a7bd 5b0e acbd e8f3 9dbc f0a4 6bbc
00000220: 1b8c 92bd da7c 22bd fc0b e23c 823b 0e3d
00000230: b8ad abbd 9a92 713d 8efa 0f3d 61ae 863d
00000240: 0255 253d 7210 623d 53ba 44bd cab5 5c3d
00000250: 2a39 583d 1470 d9bc 6858 6c3c 06c5 a5bd
00000260: a75c 2cbd 20dd 0dbd 4049 613c d5e3 ac3d
00000270: 61f6 bb3d 3444 fabc 74bb 15bd 50dd 09bc
00000280: 0ee7 583d 6241 a7bd 5b0b 8f3d 2683 053d
00000290: 6c15 d7bc 7448 8e3c 1436 d3bc 70a5 573c
000002a0: ff4a 8a3d ff3c b43d 7852 a3bc 0030 7338
000002b0: 5a19 6d3d 7b11 b7bd c017 a33c 7849 a8bd
000002c0: 8262 483d 8729 21bd 2584 833d 4024 fbbc
000002d0: e2e3 143d 5ac1 7dbd a9c1 b23d 6ab4 383d
000002e0: 4018 3abb 18f6 39bc e870 dabc d0e4 5ebd
000002f0: 0012 1b3c 70c3 333c 5c63 fa3c 4c03 f4bc
00000300: 4bfc a23d 02bb a8bd 43fa 6cbd 9d6f bebd
00000310: cca2 c93c e8fc a6bd 60c4 c0bd 3712 7ebd
00000320: 79a1 a03d 5e6f 703d 189b 943c 3165 a23d
00000330: 0d81 a33d addd b73d 47e8 bebd a028 afbc
00000340: baa5 9abd f001 01bd d868 86bd 1cd3 ee3c
00000350: fb98 a1bd a8eb 9d3c 207b 9dbc 5fb6 b93d
00000360: fae6 66bd c77d 5ebd 2a03 09bd 922f 523d
00000370: 60d4 33bb 72de 80bd eef6 2a3d 2337 55bd
00000380: 0090 cfb9 d43e acbc babc 7abd 8de4 a7bd
00000390: 808d 23bc 5df5 b23d 39a5 9b3d 7742 43bd
000003a0: 6856 b8bc 28d7 a73c c596 933d a01a b03b
000003b0: 4567 95bd 6dd4 bebd 7a85 4abd 75f6 9e3d
000003c0: 983e 413c e1ec c83d 003a 45bb 5e12 573d
000003d0: b000 19bc dba3 c73d 0c95 f23c f6e1 89bd
000003e0: d43f a1bc 425b 003d 0a83 373d 8c70 aa3c
000003f0: 86e9 753d 9c25 0fbd 94ec e83c 3f95 bebd
-0.099605635 -0.01182089 0.051635437 -0.03444729 0.077624746 -0.042677175 -0.055840146 -0.011211656
-0.09394466 0.057997786 -0.08388273 -0.08692358 -0.06544618 0.08061101 0.0032000989 0.09972144
-0.011174977 -0.082557425 -0.029594041 0.045729496 0.09286118 0.048333474 -0.053471506 0.026954778
-0.07474438 -0.08380292 -0.016719028 -0.097468816 0.0021804944 -0.078072906 0.018181838 0.019460514
-0.057434928 -0.09540953 0.057671152 -0.06367558 0.07606236 0.036652125 -0.09257696 -0.0014189705
-0.089152455 0.00060234964 0.09693331 0.057875328 0.07669809 -0.00756903 -0.023190357 0.076997615
-0.012881577 0.047373302 -0.07733886 -0.08593382 0.05516719 0.030801974 0.09777153 -0.095834054
0.0014763102 0.034267284 -0.058561184 -0.06221626 0.06338417 -0.035093114 0.062096365 -0.09826044
-0.0033521205 -0.067575485 -0.004492268 -0.061139226 -0.04313871 0.06447793 -0.031031892 -0.02898588
0.08852615 -0.08746947 0.030758731 -0.097008705 -0.077681065 0.0697351 -0.03215456 -0.0855451
-0.0721045 -0.059069183 0.0007881671 -0.03154826 0.0055435896 0.008879244 0.08300377 -0.01631929
-0.039553918 0.017000295 -0.0505623 -0.0567155 0.0705748 0.0005657524 0.0857869 -0.06914614
-0.09883814 0.036137782 0.081256635 -0.009547189 -0.02786915 0.024269938 -0.026550815 0.06511528
0.046738245 -0.038638543 -0.08136152 0.09195123 -0.03781691 -0.0144134015 0.040273376 -0.0010535344
-0.020432398 0.023847125 -0.09198604 -0.03099835 0.014801875 -0.09153271 0.0989367 0.058966763
0.0733606 -0.06927959 0.09894503 -0.08538597 0.072995715 0.07666486 0.022639193 0.099817656
-0.024619028 -0.048665345 -0.08756011 0.09463114 -0.081942216 -0.084011756 -0.019281343 -0.014382586
-0.07155629 -0.03966985 0.027593605 0.03472472 -0.083827436 0.0589777 0.035151057 0.06576229
0.040364273 0.055191465 -0.048029255 0.053884305 0.05278889 -0.0265427 0.014425375 -0.0809422
-0.042080548 -0.03463471 0.013750374 0.08441893 0.091778524 -0.0305501 -0.036555722 -0.008414581
0.052954726 -0.08166768 0.06984588 0.032595776 -0.026255332 0.017368533 -0.025782622 0.013162002
0.067525856 0.088006966 -0.019936785 5.798042e-05 0.057885505 -0.08938881 0.019908786 -0.08217138
0.04892207 -0.039346244 0.06421689 -0.030656934 0.03635014 -0.061951973 0.08728344 0.04509393
-0.0028395802 -0.011350177 -0.026665166 -0.05441743 0.009464741 0.010971889 0.030564956 -0.029786728
0.07958277 -0.08238794 -0.057855856 -0.09298632 0.02461376 -0.08153707 -0.094124556 -0.06202909
0.078432985 0.058699958 0.01814036 0.07929457 0.07983599 0.08977828 -0.09321647 -0.021381676
-0.07551141 -0.03149599 -0.06562966 0.0291534 -0.07890507 0.019277409 -0.01922375 0.09067988
-0.05637262 -0.05431917 -0.033450283 0.051314898 -0.0027439818 -0.06292428 0.041739397 -0.052054536
-0.00039589405 -0.021026053 -0.06121514 -0.081978895 -0.009982467 0.087382056 0.07599873 -0.047670808
-0.02250214 0.020488337 0.072064914 0.0053742677 -0.07295088 -0.09317861 -0.0494437 0.07761852
0.011794709 0.09810806 -0.0030094385 0.05250775 -0.009338543 0.0974805 0.029612087 -0.06732552
-0.019683756 0.03133703 0.044802703 0.02080562 0.06003716 -0.034947976 0.028433122 -0.0930581

bias_ih_l0 f4 [400]
00000000: 9190 69bd 72d9 103e 8c7d b03d 9763 d7bc
00000010: 7c13 a63d 0cf4 cd3d eead cd3c 7121 283d
00000020: 8b9f 87bd 2e13 d33d c62f c63d e814 ec3c
00000030: 1e7c 0fbd 1afa ec3b d2da 79bd d05b c53d
00000040: fb71 883d 03e5 0b3d 2728 033e dd27 013e
00000050: dbc7 92bc f748 003e 51fb 12bd 9d5d 22bd
00000060: 7f1e fb3b 8a61 ffbb a742 f03c a7d1 1bbc
00000070: b104 a2bc df86 40bd 13b2 3cbd 9dbe 85bd
00000080: 32a8 dd3d 7df0 41bc 7948 21bd d47b 8dbc
00000090: 65eb 923d 3993 013d 7666 c93d f3e4 5bbd
000000a0: ba1f 193d b19c 5cbd 8c4b a4bd ea32 d93c
000000b0: 109c a2ba 83cf 65bd 7378 853d 29ac f6bc
000000c0: f592 45bd c665 f03d 6274 003e d9d2 2d3d
000000d0: 5db5 01bc cdc7 633c ffb6 e93d 4c0e 1fbb
000000e0: 8078 743d 0258 5f39 3e95 f6bc 0e97 8d3d
000000f0: c413 07bd 4fdd 1c3e d9fd a13d dbe9 fd3b
00000100: ac8f ce3d 0929 113e cb5a eb3d fd89 b2bd
00000110: 54cd e63d 59ac 403d ffc3 9d3d a35e 55bd
00000120: 837e a93d 75ef babb f864 c2bb 940f 373d
00000130: 4c31 a5bd 17e9 9e3d 8e63 b03d 83c3 ae3d
00000140: be6c 203e ffa1 583b 92df f73d bf98 dd3d
00000150: e95a f5bc 6a3c 173d 8e34 11bc 44dd 0e3d
00000160: ee09 a03d 6019 eb3c b892 95bd 8cb3 bc3c
00000170: 0685 39bd 64fc 033d 82fb 303e 0531 653d
00000180: 1a75 be3d 8b25 ca3d f5a7 32bd 9fe0 8d3c
00000190: 18be b3bc 589f 17bc 62f3 8dbd e481 f33c
000001a0: 7670 263d 3c42 04bd f751 31bd 478b 9b3d
000001b0: 4651 91bd a309 50bd 007d 17bc dba9 8c3d
000001c0: 4a83 3f3d 1434 ee3c 33f4 64bd ec1d 0fbd
000001d0: e015 8ebc b700 a33d 40e1 173b a8a9 413c
000001e0: 558b a7bd 705a 573c 957f a83d 5d11 8fbd
000001f0: 3818 c83c c4a0 02bd 1f9f 9d3d d415 bebc
00000200: 08c8 be3c 33d0 1ebd f48e c03c 5e23 2a3d
00000210: 5859 323c 8a1f 01bd 80ec 9f3b 4082 c13c
00000220: 2898 b5bc 73ce a0bd 918e a53d e214 753d
00000230: 3103 983d 1821 9abc aa46 28bd 7388 60bd
00000240: efeb ad3d 4ffa a93d 4a8d 793d 5323 a8bd
00000250: 6719 a83d 42c8 a2bd 4cac cc3c d7ca 4bbd
00000260: 4027 2a3c f745 51bd 5bb4 a0bd e03f d43b
00000270: 84f2 ef3c da85 a5bd 75cc c53d ebd0 bcbd
00000280: 18cd 11bc 7e6e 2d3d 20b5 7abd a48b f23c
00000290: 16ae 153d fdd5 47bd 7db7 29bd 60e4 533b
000002a0: 6244 193d 27c4 b23d 3d70 70bd 4e9c 0b3d
000002b0: b8f8 813c 0448 87bd 7703 41bd c7b0 b2bd
000002c0: c200 7a3d 0f1b babd baed b0bd 6d2e afbd
000002d0: 3a84 353d 7a2d 0b3d 1810 4a3c 2b06 a5bd
000002e0: 7af0 6e3d 6956 c43d e4ed e13c 9264 4b3d
000002f0: 95a1 bb3d 0018 4cba 803c 42bd eacd 8bbd
00000300: f3ce c5bd 82dd 203d 034e 893d 1406 c33c
00000310: 10d4 72bc dc8a 05bd 9b68 c23d cdc7 b9bd
00000320: da02 ccbd 90e0 55bd aaa0 1bbd b4f8 f83c
00000330: 289c e3bc 1a8d 413d 9072 923d 85b4 a93d
00000340: 616e 20bd adb2 09bd c309 5f3d bf22 65bd
00000350: 6137 46bb c53a dc3c f98a 80bd 764b 22bd
00000360: ce8a 99bd 8109 b03c efd5 493c d2ae 89bc
00000370: 1ba0 d2bb bfa8 44bc f9e3 693d 1243 653d
00000380: b517 c33d 27be 833d 3053 afbd 2c86 943c
00000390: 5d0f 28bc ba2e b33b d48f bbbd 0e84 06bd
000003a0: 7076 033d 44ed 58bd f6fb 8abd 1189 b0bb
000003b0: 4940 3ebd 1360 18bd ec1b 9dbd 917b 81bd
000003c0: 6d15 97bd c23d 48bd 27f1 573d ebe4 bdbd
000003d0: 59e9 3bbd 9d67 843c ad3c 9abc 2c2c d03d
000003e0: 3217 3c3d a2a7 173d 31a5 0dbd e379 723d
000003f0: 6dcb c4bc 58a5 853d 4a56 9ebd 7e05 e03b
-0.057022635 0.14145449 0.08617696 -0.026292605 0.08109185 0.10056314 0.02510735 0.041047517
-0.06622227 0.103063926 0.09677081 0.028818563 -0.035030477 0.007231963 -0.0609997 0.096366525
0.06662365 0.03415395 0.12808286 0.12612863 -0.017917564 0.12527834 -0.035884205 -0.039640058
0.0076635475 -0.00779361 0.029328657 -0.009510434 -0.019777628 -0.047003623 -0.046068262 -0.06530497
0.10823096 -0.011837122 -0.039375756 -0.01727096 0.07173804 0.031634543 0.09833996 -0.05368514
0.037383772 -0.05386037 -0.08022222 0.026513536 -0.0012406129 -0.0561061 0.065171145 -0.03011139
-0.048235852 0.11738162 0.12544397 0.042437408 -0.0079167755 0.013902617 0.11411857 -0.0024269996
0.05968523 0.00021299723 -0.030100461 0.06913577 -0.032977834 0.15318798 0.07909746 0.007748825
0.10085997 0.1417581 0.11491927 -0.087177254 0.11269632 0.047039364 0.07703399 -0.052092206
0.08276083 -0.005704815 -0.0059324466 0.04469259 -0.08066043 0.07759302 0.086127385 0.08533385
0.15666482 0.0033055542 0.121031895 0.1082015 -0.029950576 0.03692285 -0.008862628 0.034878984
0.07814394 0.028698623 -0.07303375 0.023034833 -0.045292877 0.03222312 0.17283443 0.05595495
0.09299679 0.09870442 -0.043617208 0.017319022 -0.02194123 -0.009254299 -0.06931187 0.029725023
0.040634595 -0.03228973 -0.04329106 0.075949244 -0.0709558 -0.05079044 -0.009246111 0.06868335
0.046756066 0.029077567 -0.05589695 -0.034940645 -0.017344415 0.07959121 0.002317503 0.011820234
-0.08180872 0.013144121 0.08227459 -0.06985734 0.02442561 -0.0318916 0.076963656 -0.023203768
0.023288742 -0.038772773 0.023505665 0.041537635 0.010885559 -0.03152422 0.004880488 0.023621678
-0.02216728 -0.07851877 0.08083833 0.05983437 0.07422484 -0.018814608 -0.041083016 -0.054817628
0.084922664 0.08299696 0.06092576 -0.082098626 0.0820797 -0.079483524 0.024984501 -0.04975399
0.0103853345 -0.051092114 -0.078469 0.006477341 0.029290445 -0.08082171 0.09658138 -0.092195354
-0.008898996 0.0423417 -0.06120789 0.029607601 0.036542974 -0.04878806 -0.041434754 0.0032332167
0.03741873 0.08728819 -0.05870079 0.03408461 0.015865669 -0.06605533 -0.047122445 -0.08725124
0.06103588 -0.09087192 -0.08639093 -0.08553777 0.044315554 0.033978917 0.012332939 -0.08057817
0.058334805 0.09586794 0.027579255 0.04965646 0.09161679 -0.00077855587 -0.04742098 -0.06826384
-0.09658613 0.039273746 0.06704333 0.02380661 -0.014821067 -0.03260313 0.09492608 -0.09071312
-0.099614814 -0.052216113 -0.037995018 0.030392028 -0.027784422 0.047253706 0.07150757 0.082863845
-0.039167766 -0.033617664 0.05445267 -0.05594134 -0.003024541 0.026883492 -0.06276507 -0.039622746
-0.07497178 0.021488907 0.012319072 -0.016806994 -0.0064277775 -0.012003123 0.057102177 0.055972166
0.09526006 0.06432753 -0.08560789 0.018130384 -0.010257569 0.0054682167 -0.091582924 -0.03284078
0.032095373 -0.05296065 -0.06786339 -0.0053874333 -0.046448026 -0.037201 -0.07671341 -0.063223965
-0.073771335 -0.04888702 0.052720215 -0.09272178 -0.045876835 0.016162688 -0.01882776 0.10164675
0.04592056 0.0370251 -0.034581367 0.05919827 -0.024022782 0.065256774 -0.07731302 0.006836592

bias_hh_l0 f4 [400]
00000000: be0f 42bd 9ea5 ee3d 6df9 45bd fa3b 663d
00000010: c1de e5bd 7f11 6a3c 8bd3 ca3d a0d5 873d
00000020: e4a5 6f3c c441 713d a5aa 05bb 4209 46bc
00000030: 8464 ed3b 16fd 0e3e adfe 8a3d cd01 273d
00000040: 5854 073e 9a58 993b 938f 4f3d 9e85 463d
00000050: 8a60 c03d 8a57 9f3d 4fa6 74bd 8ed8 f43d
00000060: eda0 38bd e362 aa3c 6851 0bbb e8fa 893d
00000070: 77d3 a6bb 2240 603d 9c39 6c3c 0bbf 3ebd
00000080: 9f55 373e 5c34 b9bc 1e9d 0b3d e58a d93d
00000090: b1fc d1bc a71b 403e dad1 953d c1d8 7d3c
000000a0: 5154 1bbd 1868 efbc 6979 85bd 5cfb 883c
000000b0: be80 783d 7286 94bd 53ee 913d 7897 ee3d
000000c0: 21d6 783c fc3a 01bd a543 53bb 21d1 06bc
000000d0: 8c31 f13d 4242 503d 1874 213d 7e98 93bc
000000e0: 872d f03d 9bd5 25bd fdc8 913d c5d0 8abd
000000f0: 1a44 6c3d 7f08 253e 9a89 ab3d 4ab0 123e
00000100: 5c2c b23d 28e1 7d3d 7f37 4ebd 73df 613c
00000110: 8e4a c13c 9cdf fc3d 3f62 433d 22e9 923c
00000120: 0e51 483d a199 a03d bc62 c53d 4644 173d
00000130: da5a 22bd 5e54 633d a671 2cbd a2aa 57bd
00000140: 8f24 823d 5331 9a3d 8438 d03d f7f8 da3d
00000150: 798f 933d 3a1a f63d 9027 583d b382 59bc
00000160: 0e3d d23d 8683 64bd 8b78 2a3d 2ccb 74bd
00000170: 8044 fb3d 6061 d73c c8a2 fd3c 5267 8bbd
00000180: 1448 9f3d b1bc 183e 4ecd 79bd c2d1 f73d
00000190: ab4d b73d 046b e83c ff1d cbbd 5da3 803d
000001a0: 4daf c43d 8aa6 2c3d afcf b13d c097 613b
000001b0: d708 943d 00fa cb39 20c0 b3bd 1a48 1e3d
000001c0: b92b ae3d 60b9 a73c 549d 14bd e4a2 0abd
000001d0: d27b 5e3d 6434 d03c 1d1c 8b3d b212 533d
000001e0: ada7 b43d a0e7 6bbd 3ec9 453d 1069 043c
000001f0: c315 26bd 2d91 4fbd c86d bbbd 46e4 13bd
00000200: ea4e 5ebd c2c1 0d3d 0b22 c63d 00d6 9eb9
00000210: 1a10 7ebd ee45 673d d4a3 943c 7a1b 563d
00000220: b6a5 6e3d 508e 97bb 80f7 8c3b 7d7b 70bd
00000230: 98aa 873c 0651 463d e265 b8bd a0e4 f93b
00000240: 0027 bc3b 3e79 0b3d 38b4 b1bd 1f7f b43d
00000250: 4fa0 913d 0608 4c3d 9de6 9fbd c788 8f3d
00000260: ad63 75bd 9d3c 833d f9ad c53d caf8 cbbd
00000270: 2ae1 26bd 3754 48bd 9e77 493d 7564 833d
00000280: 910e bd3d f8c3 afbc 2d00 56bd a0cf 0c3b
00000290: e2f8 013d f98f a13d 42fe 353d c8f1 ccbc
000002a0: 18e8 b0bd f0bc 073c 2b89 c43d 2b56 983d
000002b0: 7385 a53d 1419 b0bc 9229 5e3d 8002 ac3c
000002c0: c279 473d 3e81 113d f0ec 4fbc 9016 6ebd
000002d0: b815 c03c 79b3 a23d a027 753b c0db 44bc
000002e0: c1e6 bf3d 232b 39bd 9625 593d 77da 5fbd
000002f0: a6c6 493d e0e8 bebc 184f 41bc ad23 90bd
00000300: 824e 7e3d 5406 c8bc 28f7 bb3c 62cb c5bd
00000310: d13f b23d f47c e1bc 4c3d eb3c a804 bfbc
00000320: cca6 7abd 0fed 433d 5068 a23d a015 cebd
00000330: 14d4 a63d db4f 37bd 8dd8 f0bd 0650 b8bd
00000340: a516 14bd df38 92bd 3e77 983d b95d 86bc
00000350: cbff 943d 7746 c8bc 6e31 b73d 97f6 6a3d
00000360: 1629 9abd e12d ce3d f1b7 193b 86fd 1fbd
00000370: 68e3 8a3d 2581 f83c b7c2 2cbd c337 babd
00000380: 54d6 6abd b608 e638 9101 6d3d 5268 98bd
00000390: ce12 87bd 8159 cfbd a840 393c fc7b adbd
000003a0: 155d 9f3d e12e 10bd 248a 783c b8d0 9d3d
000003b0: 1b72 afbd 53f6 423d 6da9 e13c f358 98bd
000003c0: abe5 a7bc 9280 47bd 9767 513d 6c3d 4ebd
000003d0: 1b34 06bd 7ede f9bb 83ac 62bd e5ac 443d
000003e0: a202 3b3d 48c8 983d 587f b6bd e593 c6bb
000003f0: 867d 08bd c25a b9bd c5d1 a93d b4b1 acbd
-0.047378294 0.11652683 -0.048333574 0.05620954 -0.112241276 0.014286398 0.0990363 0.066325426
0.014626954 0.05890061 -0.0020395902 -0.012087168 0.0072446484 0.13963732 0.06786857 0.0407732
0.13215768 0.0046797516 0.050674032 0.04846727 0.09393413 0.077803686 -0.059728917 0.11955367
-0.045075346 0.020799106 -0.0021258239 0.0673731 -0.0050911265 0.05474866 0.014418032 -0.04656891
0.17903756 -0.022607975 0.034085386 0.10622195 -0.025633188 0.18760549 0.07315417 0.015493573
-0.037922207 -0.02922444 -0.06517298 0.01672142 0.060669653 -0.07252206 0.07125535 0.11649984
0.015187771 -0.031550393 -0.0032236364 -0.008228571 0.117770284 0.05084444 0.039417356 -0.01801705
0.11727434 -0.040486913 0.071184136 -0.06778101 0.057682134 0.16116522 0.08375855 0.14325061
0.08699867 0.061982304 -0.050345894 0.013786185 0.02359512 0.123473376 0.047701117 0.017933432
0.048905425 0.078418024 0.09637973 0.036930345 -0.039637424 0.05550038 -0.04210057 -0.052652963
0.06354629 0.07528939 0.101670295 0.106920175 0.072050996 0.12016721 0.052772105 -0.01327579
0.102655515 -0.055789493 0.041618865 -0.059764072 0.12268925 0.02629155 0.03096141 -0.06806816
0.0777742 0.1491573 -0.06098681 0.12100555 0.08950361 0.028371342 -0.09917831 0.06281159
0.096037485 0.04215101 0.086821906 0.0034422725 0.072282486 0.00038905442 -0.08776879 0.03864298
0.08504433 0.020474136 -0.036282852 -0.03384675 0.054317303 0.025415607 0.067924716 0.0515315
0.08821044 -0.05759394 0.048287623 0.0080816895 -0.040548097 -0.05067556 -0.091517985 -0.03610637
-0.054274477 0.03460861 0.09674462 -0.0003029555 -0.062027074 0.056463175 0.018144526 0.052272297
0.058263503 -0.0046251193 0.0043019652 -0.058711518 0.016560838 0.048417114 -0.090038076 0.007626131
0.005741954 0.034051172 -0.08676952 0.08813309 0.071106546 0.04981234 -0.07807658 0.0700851
-0.05990951 0.064080454 0.09652323 -0.09959562 -0.040742077 -0.04890844 0.04918634 0.06415645
0.09231294 -0.02145575 -0.05224626 0.0021486059 0.031731494 0.07888789 0.044431932 -0.025017634
-0.08638018 0.008284792 0.09596475 0.0743831 0.08082094 -0.021496333 0.054238863 0.020997286
0.0487001 0.035523646 -0.012690768 -0.058126986 0.023447856 0.07944388 0.0037407652 -0.012015283
0.09370185 -0.045207154 0.05301436 -0.054651704 0.04926171 -0.023304403 -0.011798643 -0.070380546
0.06208659 -0.02441708 0.022945002 -0.09657933 0.08703578 -0.027525403 0.028715752 -0.02331765
-0.061194226 0.0478335 0.07930052 -0.100627184 0.081459194 -0.04475389 -0.11760054 -0.08999638
-0.036154408 -0.071397536 0.07444619 -0.016402112 0.07275351 -0.024447663 0.08944975 0.057364073
-0.07527368 0.100673445 0.0023455585 -0.03906014 0.067816556 0.030335018 -0.042177882 -0.09092667
-0.057333305 0.00010968877 0.057862822 -0.074417725 -0.065953836 -0.101244934 0.011306919 -0.08470914
0.07781426 -0.035200957 0.015169654 0.077058256 -0.08566686 0.047598194 0.027546609 -0.07438841
-0.020495256 -0.0487066 0.05112418 -0.050351545 -0.032764535 -0.0076254 -0.0553403 0.048016448
0.045656808 0.074600756 -0.08911008 -0.006060111 -0.033322833 -0.09050514 0.082919635 -0.08432332

weight f4 [20, 100]
00000000: 58b3 74bc 0836 dabc 383d 9b3c 01f9 bb3d
00000010: a870 4abc cc43 ca3c 76b7 7a3d a005 e6bc
00000020: 72a9 543d 086c c93c f89c c8bc 00ee a7bd
00000030: 5db3 41bd 2078 a6bc d09b b73b 8642 88bd
00000040: 6095 82bd 4066 87bc 7a24 5f3d e079 e9bb
00000050: d082 573c f63f 163d 7fdf 893d 504f 0abd
00000060: fc81 d33c 1843 3cbc 02af 383d 08c3 90bd
00000070: bbaa cc3d 838f 92bd 58f0 c2bd 6f21 c9bd
00000080: 1a0d 3ebd b926 943d 67e6 21bd 02f0 9fbd
00000090: 4114 a53d 3ecb 5d3d 77bd b0bd 029c 3a3d
000000a0: 607a e6bc 710a a73d 982f 5dbc 0f63 9a3d
000000b0: 7325 c0bd f3c2 babd 28c7 8e3c d403 a83c
000000c0: 1222 0f3d 6ee4 6b3d c7d4 7cbd 18ab 353c
000000d0: 39c7 b23d 204a a1bd 9440 db3c 4052 533b
000000e0: 7dd0 b93d 942d 17bd fe34 7b3d a029 0c3b
000000f0: 1ec2 413d ccc8 88bc 9070 5f3c 4c12 95bc
00000100: c6cf 023d a092 bebd 7e45 213d 2766 943d
00000110: 2d17 b3bd 60d9 263b d407 bebc 57e9 813d
00000120: a097 93bd ad55 38bd 93a9 b23d 30c9 233c
00000130: 80f8 ba3b 1a06 4c3d 4018 383b 9070 25bd
00000140: 1e60 84bd 2d7c babd e8b6 243c 8850 c23c
00000150: c301 79bd a3b8 64bd 0790 5abd 80d3 cc3a
00000160: 30b1 dcbb b00c 34bc bb3b a7bd 9df6 90bd
00000170: b61f a4bd 6d4c 23bd 2c10 be3c c90a 903d
00000180: 82be 323d 0478 ea3c 767c 12bd 9da4 7cbd
00000190: 6992 9a3d 4cf5 e7bc cb65 acbd 5375 8b3d
000001a0: f9f7 ca3d 1101 a13d b43c 10bd be42 3c3d
000001b0: 176b 36bd 8042 01bd e43a 03bd 4bc7 b43d
000001c0: 7806 9e3c 6046 53bd 0366 59bd 6855 93bc
000001d0: 80be 29ba 7af8 5ebd 9632 183d 6841 683c
000001e0: 68fb 5b3c b191 ba3d e0c9 c2bb 9da2 78bd
000001f0: 40d3 91bd 5bbd 90bd 79c9 ba3d f3ae 813d
00000200: fdc6 39bd 2cc2 a6bc b6ec 8dbd 37f1 ae3d
00000210: 90a8 473c f0ee 753c 34ec ef3c b2b2 283d
00000220: 5043 f63b 0394 3dbd a3e1 bcbd e602 05bd
00000230: 87b2 a93d 1a42 5bbd 1bd8 94bd 30cd 39bc
00000240: e0e4 8c3b 0647 563d 95cc cb3d 3295 553d
00000250: 00ca 0d39 2c15 d0bc f0d4 9cbd 6073 953b
00000260: 0ac6 28bd a6dc 033d b3ba 8e3d cad0 83bd
00000270: 58ca eebc 44c4 0bbd 298c cb3d e707 4bbd
00000280: 54a5 883c a065 1cbd de24 9cbd 15be 973d
00000290: aafe 0b3d a812 97bc 6021 15bb 9363 66bd
000002a0: 50ae e43b 589c a3bc d205 8ebd c9df c93d
000002b0: 529d 7d3d 6e11 4b3d a592 be3d 228a 403d
000002c0: ca6c a8bd 0c04 983c 7a2c 0cbd 6b07 a8bd
000002d0: 92c6 703d 7133 8c3d ec1d c73c 322b 95bd
000002e0: bddd 9d3d a836 0e3c b008 7cbc d828 463c
000002f0: b135 9f3d 7163 a93d 5b92 8fbd 7045 7fbc
00000300: afc0 aebd 8059 1a3a 8545 a83d 7a97 bdbd
00000310: 1d2b 2cbd 6d0c 22bd 30fb dfbb d927 8c3d
00000320: 6bbc c13d 1ae5 2d3d 32b3 333d 5daf 4abd
00000330: f15b b53d f354 c5bd 7ce7 eb3c c0cb 473b
00000340: e890 183c 22c1 b5bd c0c1 28bd 308e 19bc
00000350: b2b1 673d 8e1e 113d 5d15 8a3d ecca fe3c
00000360: 947d f73c 58be 98bd 46ee 623d dda5 893d
00000370: 696a b63d 684e 3d3c 21ec b23d 7007 153c
00000380: b2c9 533d 5396 8d3d c0ee eb3a 24df ee3c
00000390: 406f 50bc d831 99bd f491 c23c a015 183b
000003a0: 944a ae3c 8baf a3bd c22e 4d3d d08b bebd
000003b0: 7ccd dc3c df6a b13d a0ab 0abd 47fb 1bbd
000003c0: e35a aabd 1a43 403d e016 fe3b 6d33 87bd
000003d0: f4bf 863c 6d62 b73d 60f6 8dbc 87d4 4fbd
000003e0: b937 ba3d e5ce acbd 0ed2 3e3d 60e5 2c3b
000003f0: 20fa 85bb 1847 773c 686a b7bc c020 7dbd
-0.014935337 -0.026637092 0.01895009 0.09178353 -0.012355961 0.024690531 0.06121012 -0.028078854
0.05191941 0.024587646 -0.024488911 -0.08199692 -0.047290195 -0.020320952 0.005603291 -0.06653313
-0.06376147 -0.016528249 0.054478146 -0.0071251243 0.013153747 0.03668209 0.067320816 -0.033767045
0.025818817 -0.011490606 0.045088775 -0.07068449 0.09993502 -0.07156279 -0.09518498 -0.0982083
-0.046399213 0.07233948 -0.03952637 -0.0780945 0.08060504 0.054148905 -0.086298876 0.045558937
-0.028134525 0.081562884 -0.013500117 0.07538425 -0.09382143 -0.09119215 0.01742895 0.020509638
0.0349446 0.057590894 -0.061726358 0.011088155 0.08729405 -0.07875466 0.026764192 0.003224507
0.09072969 -0.0369087 0.061329834 0.0021387115 0.047304265 -0.01669731 0.013637677 -0.018197201
0.03193643 -0.0930531 0.039372914 0.072460465 -0.08744655 0.0025459155 -0.023197092 0.06343334
-0.072066545 -0.04500358 0.0872375 0.009996697 0.005705893 0.049810506 0.0028090626 -0.04039055
-0.064636454 -0.09105716 0.010053374 0.02372004 -0.060792696 -0.055840146 -0.05336001 0.0015626997
-0.0067349896 -0.010989353 -0.081656896 -0.07078288 -0.08013861 -0.039867807 0.02320107 0.07033307
0.043638714 0.028621681 -0.035763226 -0.061680425 0.07547457 -0.028315209 -0.08417853 0.06809487
0.09910578 0.078615315 -0.03521414 0.045962088 -0.044535723 -0.03155756 -0.032038584 0.088270746
0.019290194 -0.051580787 -0.0530758 -0.01798506 -0.0006475225 -0.054436184 0.037157618 0.01417575
0.013426639 0.0910982 -0.0059444755 -0.060701955 -0.07120371 -0.07067367 0.09120459 0.06332197
-0.045355786 -0.02035626 -0.06929915 0.08542102 0.0121861845 0.01501058 0.029287435 0.041186042
0.0075153485 -0.046283733 -0.09222724 -0.032473467 0.082860045 -0.053529836 -0.07267781 -0.011340424
0.004299745 0.052313827 0.0995113 0.052144237 0.00013522059 -0.02540072 -0.07657802 0.004560873
-0.04120449 0.03219285 0.06969204 -0.06436308 -0.02914922 -0.03412272 0.09938843 -0.049568083
0.016680397 -0.038182855 -0.07624219 0.07409302 0.034178413 -0.018441513 -0.0022755489 -0.056247305
0.0069787875 -0.019972011 -0.06934704 0.09857137 0.06191761 0.04957717 0.09305314 0.047006734
-0.08223875 0.018556617 -0.034222104 -0.0820454 0.05878312 0.06845749 0.02430626 -0.072836295
0.07708309 0.008680023 -0.015382931 0.012094699 0.07773913 0.0827092 -0.07010337 -0.01558052
-0.08532845 0.00058879703 0.08216385 -0.092574075 -0.042033304 -0.03956263 -0.006835364 0.06843538
0.09459766 0.042454816 0.043872066 -0.049483646 0.08855427 -0.096353434 0.028796904 0.0030486435
0.009311892 -0.08874728 -0.0412004 -0.009372279 0.056565948 0.03542953 0.06742356 0.03110262
0.030211248 -0.0745818 0.055403017 0.06721089 0.08907015 0.011554338 0.08736444 0.0090960115
0.051706024 0.06913438 0.001800023 0.029159136 -0.012721837 -0.0748021 0.023751236 0.002320625
0.021275796 -0.079924665 0.05009342 -0.09304011 0.026953451 0.08662962 -0.03385508 -0.038081434
-0.083181165 0.046938993 0.0077541918 -0.066016056 0.016448952 0.0895432 -0.017329395 -0.05073979
0.090926595 -0.084378995 0.046587043 0.0026381835 -0.004088655 0.015092634 -0.022389606 -0.06179881

weight f4 [20, 100]
00000000: 1240 1e3d cd12 823d af0c bb3d 621c 7c3d
00000010: a84b 3a3c bd1a 913d 73f3 79bd d832 a5bd
00000020: dd36 5fbd a0c4 65bb 6d43 3fbd 206d 9bbc
00000030: df1a a23d 9ae0 aabd 72d4 cbbd f0da 163c
00000040: d0f2 6b3c a05f 63bd 32f9 6d3d 5278 94bd
00000050: f243 773d a7af b03d e866 c03c a394 b53d
00000060: cd03 75bd 7f22 9f3d 0965 883d 4dd8 b4bd
00000070: 6730 b13d 2234 083d b9da c53d 60d9 c8bc
00000080: bcbc db3c 00c3 70bd b4ff 973c 8640 763d
00000090: c2e5 3c3d e02d 963c 50a1 0d3c fdda a8bd
000000a0: d29a 673d 925b 2b3d 5e63 683d 2239 193d
000000b0: fbf6 823d 0063 803c 80f7 36bc aea3 523d
000000c0: 2c99 c5bc edba 38bd 255a bc3d 28ab b13c
000000d0: bd30 8ebd e158 993d 6178 a73d 79a9 903d
000000e0: 20d4 9cbd cebf 0c3d 06f4 a2bd 72ae b1bd
000000f0: e66f 4d3d 96f4 06bd 27a2 31bd c26f 443d
00000100: 39eb af3d 298d c23d 2c29 aebc 1783 bebd
00000110: d8f0 69bc c864 e3bc 4caf dcbc 7dce be3d
00000120: 0003 f5bb 60d6 a73c 24ee d03c e39e 883d
00000130: fba7 96bd 264f 613d 8eb2 033d 27d7 b73d
00000140: 176d 3dbd 91a1 b03d 6d76 6cbd 734b 65bd
00000150: e0d7 b0bc 6c7e c6bc 8a65 8cbd 542c 84bd
00000160: 204e 69bd 0ee9 0c3d 986a 6fbc a16f bd3d
00000170: daa9 3dbd c52a cb3d f2bc 383d 08c1 88bc
00000180: 582a 7c3c f5c8 abbd 4d4a 39bd c7a5 67bd
00000190: e0b9 86bc b276 99bd 2639 273d 661a 8bbd
000001a0: 26e3 553d 261e 87bd 80f1 feba 0084 c2ba
000001b0: 80f3 d4bc c088 553c 60a2 cdbc d3ea b43d
000001c0: f3e6 a0bd 008d 7dbc 4230 7e3d 30de 2dbd
000001d0: d4b9 a1bc 003f ef3b 9908 ba3d e2fb 453d
000001e0: 3279 b2bd e2ac 373d 4087 78bd a973 8e3d
000001f0: 3e8e 433d b8a4 8d3c b060 b5bd 6c3b a7bc
00000200: f0a0 633c 638f 6ebd ef74 b13d f75e 5fbd
00000210: adc2 c43d 8aca 9bbd 0bce a9bd 108f 93bd
00000220: be09 5e3d 08d0 dcbc b38a 42bd b241 7e3d
00000230: f24d 463d 8034 30bd 7fe5 ae3d 39ad a33d
00000240: 4495 de3c e8ab cdbc 6df6 be3d b872 87bc
00000250: 98d1 3cbc 30b2 b43b f756 2abd b19d c23d
00000260: 3605 15bd a094 a2bd f81d bf3c e0ab b83c
00000270: 4a44 aabd f0f6 5a3c ec56 8abd 506a d53b
00000280: 1db0 49bd 1e57 113d 7775 2cbd cd22 823d
00000290: 9e15 513d f8a3 863c ece0 87bc 1448 d03c
000002a0: 2e8d 013d ddf4 a23d ab43 c73d 14de fb3c
000002b0: d00b e33b 78ea 9f3c 8722 73bd cd1f bcbd
000002c0: c2e8 b2bd 736e 4ebd 2031 c9bb 3ca5 e43c
000002d0: 9669 483d 22aa 5a3d 90cd 00bc e819 4c3c
000002e0: 4ad5 9cbd 82e8 8bbd 8ae7 99bd 0cfd c4bc
000002f0: d049 44bd 82a6 86bd 1319 be3d 2744 b3bd
00000300: efa2 babd a093 823c d203 80bd f493 01bd
00000310: 457c b2bd 80df 9aba 3842 b4bc a03c cabb
00000320: 06b6 193d dc42 0fbd d823 173c 5be6 a73d
00000330: 9025 98bd 422b 573d 2845 47bc b14d ad3d
00000340: 57fc 803d 2242 703d c05a f1ba 7bb1 973d
00000350: d00a 09bd cf62 843d 4465 e63c e184 be3d
00000360: 2046 943c 2fd2 8a3d f605 473d 46df 6d3d
00000370: 6003 0a3b a031 84bb 8672 783d 9a43 4a3d
00000380: 1e77 85bd 0752 7dbd eaf9 233d 50cd abbb
00000390: d0a3 0dbd 87ff a13d fc20 e43c 071d c0bd
000003a0: 7b9b afbd f58f 93bd e0ff 89bd 3413 cabc
000003b0: ec92 8c3c f80c 9cbc b4b8 99bc 2aaf 63bd
000003c0: 58cb 813c d72c 2cbd f898 9cbc 60f4 3fbb
000003d0: d06a 85bd 95b3 ba3d d78c 32bd e328 61bd
000003e0: 661f 10bd 52c0 583d 338a c93d d2be 113d
000003f0: 00ac 173a 8969 a63d 982a c8bc d837 373c
0.03863532 0.06351242 0.091332786 0.061550505 0.011370577 0.07085178 -0.061023187 -0.08066338
-0.05449568 -0.0035059825 -0.04669516 -0.018972933 0.079152815 -0.083436206 -0.0995263 0.009207472
0.014401153 -0.055511117 0.05809898 -0.07249512 0.060367532 0.08627253 0.02348657 0.08866241
-0.059818078 0.077702515 0.06659896 -0.088303186 0.0865181 0.033252843 0.09660859 -0.024517715
0.026823394 -0.058779716 0.018554546 0.060120128 0.04611755 0.018332422 0.008644417 -0.08244894
0.056544133 0.041835375 0.05673539 0.037408 0.06394764 0.015672207 -0.011167407 0.05142563
-0.02412089 -0.04510014 0.09196881 0.021688059 -0.0694289 0.074876554 0.08177257 0.07063574
-0.07657647 0.034362607 -0.079567 -0.08675851 0.050155543 -0.0329481 -0.04336753 0.047958143
0.08589787 0.094995804 -0.021259867 -0.09302347 -0.014278613 -0.027758017 -0.026939057 0.09316728
-0.0074771643 0.020487964 0.02550418 0.0667093 -0.073562585 0.055007122 0.032152705 0.08976584
-0.046246614 0.08624566 -0.057730127 -0.055980157 -0.021587312 -0.024230205 -0.068553045 -0.064537674
-0.05695927 0.034401946 -0.014612816 0.09249807 -0.04630456 0.09920267 0.045102067 -0.016693607
0.015390955 -0.08387939 -0.045236874 -0.056554582 -0.016446054 -0.074933425 0.040825985 -0.067921445
0.05221858 -0.06597547 -0.0019450635 -0.0014840364 -0.025995016 0.013033092 -0.02510184 0.08833852
-0.0785655 -0.015475512 0.06205774 -0.042448223 -0.01974193 0.0073012114 0.09083671 0.048335917
-0.087145224 0.04484261 -0.06067586 0.06955654 0.047743075 0.017290458 -0.08856332 -0.020414077
0.013893351 -0.058242213 0.086648814 -0.054533925 0.09607444 -0.07606991 -0.08291253 -0.072050214
0.05420851 -0.026954666 -0.047495555 0.06207437 0.04841418 -0.043018818 0.08539867 0.07992024
0.027170785 -0.025106385 0.09324346 -0.016534194 -0.01152458 0.0055144057 -0.041586842 0.095027335
-0.036381923 -0.07938504 0.02332972 0.022542894 -0.08313806 0.013364539 -0.0675486 0.0065129176
-0.04924022 0.035483472 -0.04210421 0.06354294 0.051046006 0.016435608 -0.016586743 0.025424995
0.03162878 0.0795686 0.097297035 0.030745544 0.0069288984 0.019520983 -0.0593591 -0.09185753
-0.08735801 -0.0503983 -0.0061398894 0.027910821 0.04892882 0.053384908 -0.00786151 0.012457348
-0.07657869 -0.06831457 -0.07514866 -0.024046443 -0.047921956 -0.065747276 0.09282126 -0.087532334
-0.09113108 0.015939534 -0.06250729 -0.03163524 -0.08715109 -0.0011815876 -0.022004232 -0.006171778
0.037527107 -0.03497587 0.009224854 0.08198234 -0.074290395 0.05253149 -0.012162484 0.08462084
0.0629813 0.05865682 -0.0018413886 0.074068986 -0.033457577 0.06464159 0.02812446 0.093026884
0.018099844 0.067783706 0.04858967 0.05807426 0.002105914 -0.004034236 0.060656093 0.049380876
-0.065168604 -0.061845805 0.04003326 -0.005242981 -0.034580052 0.07910066 0.02784776 -0.093805365
-0.085745774 -0.07205192 -0.067382574 -0.02466736 0.017159902 -0.019049153 -0.018764831 -0.05558697
0.015844032 -0.04203495 -0.01911591 -0.0029289946 -0.065145135 0.09116284 -0.043591347 -0.054970633
-0.035186194 0.052917786 0.098408125 0.03558237 0.0005785823 0.08125598 -0.024434373 0.011182748

weight f4 [20, 100]
00000000: 4f8c f1bc ddcd 6d3d a76d d73b c109 51bd
00000010: abae 0abd cb30 81bd f402 18bd 760f 543d
00000020: 0780 143d b32a 183d 5610 673d ff66 373d
00000030: 2228 78bd e93b 61bd 3fb0 0abe d902 bfbd
00000040: 70a6 eebd d4e6 4abd 0036 563d b89b 10be
00000050: faf4 893d e278 143d b69d 103e f22f 323d
00000060: 6c98 8a3d 34ca 1d3d 83c3 823d b6e4 89bd
00000070: 382b 24be f0ac f0bd 63a8 913d d44b 9dbd
00000080: 2279 98bd 0d7b 4cbc 2a12 a0bd a664 973d
00000090: b09c ffbd 558f b2bd f143 25bc dbe9 80bd
000000a0: c294 7fbd 3e16 8dbc cda8 793d 5f6e 22bc
000000b0: 5cdd 07bd 0992 e1bd 0869 223d 859a ed3d
000000c0: 3a7b e8bc 1712 6dbd 236d 8bbd 91dd ac3d
000000d0: b6d3 373d 2e0b 56bd a522 6bbb e1fe e6bd
000000e0: e2d0 46bd da7a bbbc 6ea4 273d 7183 cb3c
000000f0: a9d5 b23d 6975 153d 989b 2cbd 7250 043e
00000100: 051b 5f3d 0eab 153e 3211 3a3d db68 643c
00000110: db16 d73c 8557 96bc 0b29 0a3e 9e6f 83bd
00000120: 4806 1ebd ded8 d63c 18c4 ef3d d3cb b03d
00000130: 8e5e 503c e6b8 4bbd 40df d2bd ade5 813d
00000140: 7b86 1ebe 4c29 c4bc 32d3 3abc c32b e8bd
00000150: c881 99bd 37dd fc3d d42b 3fbd 06c1 febd
00000160: 269c 153e 3e57 af3d 4e95 a83b ba53 82bc
00000170: 80c8 e5bc 3269 e3bd 9afa 07be 378f 6bbd
00000180: 8e29 7f3d 773b 9abd dedc eebd 6bd4 f03d
00000190: 68be 31bd 94a6 adbc 717a 8d3c 4452 a5bc
000001a0: 7493 903d 3483 95bd cad8 883d 5d8b 9dbc
000001b0: cd01 02bd 9bc4 863d 15a7 67bc 8fd0 b53d
000001c0: 73e2 c9bc e2a8 abbb 61e8 f63b d000 373c
000001d0: 5a7e 523c 78a6 39bb 755e 813d 6851 0bbb
000001e0: 8690 c93d dddb f8bd 8cc7 e5bd 8962 fbbd
000001f0: 17d8 973d 52f5 853d 6dfd 92bc fd01 c2bd
00000200: 74de 0a3e c789 15bc 22e4 923d 4540 e6bc
00000210: e497 453d dad5 9dbd b11c 7a3d 6055 49bd
00000220: d061 b4bd e17b 163e 9519 ccbd ae3f 2c3d
00000230: a2ff aebd e1f7 7fbd 5133 e73d b3cd df3c
00000240: f0fa d8bd 80af f53c 1b75 ce3c dedf ab3d
00000250: 11b6 7bbc 5be2 433d 0e53 3bbc f005 813d
00000260: d447 a9bc 5ff3 6f3c 6bf5 21be fa38 e73d
00000270: 4a4f 5d3a 63a3 6d3d 8160 d3bd be96 ffbc
00000280: d425 d4bc 4668 13be f559 5abc 69e4 04be
00000290: dd86 ffbd 79fe a2bb 54b8 91bd 64c5 36bd
000002a0: e434 abbc 22d0 c7bc 71b0 d93c 59b9 72bd
000002b0: e74b 763c fcc6 f43c ac80 6d3d ccb6 5b3d
000002c0: f806 f3bc 812d 7bbc 3c10 90bd 00ca 8a3d
000002d0: c27d 803c 887b 44bd d509 20bd c229 543d
000002e0: bf28 e53d ff97 06be da43 53bd d894 133e
000002f0: 479b 9ebc 8e27 a3bd 417f f13c bedc 7a3d
00000300: 1aa0 c6bd 656c 57bd 63f4 d83d 9ca5 5ebd
00000310: 52e4 18be 5874 fc3d 2076 6a3d 2e32 b93d
00000320: 7600 943d 6e4d 7a3c 3c92 aa3d f938 a5bd
00000330: 8009 0cbd 86ca 5d3d abc8 8cbd 08b9 5ebc
00000340: c038 903c 2448 99bd 248f 85bd 98d5 673d
00000350: c5cd e5bd a2aa d7bd 5d61 813d 7db1 b6bb
00000360: 8182 93bd 2c49 9ebd fc3d c7bb 50c2 3bbe
00000370: a9e1 2bbb 8002 8c3d eb31 c43d 96da 9bbc
00000380: 626a 19bd e535 0e3d 8ad4 b83d 8fef 0dbd
00000390: 790a d53c 4cab 6abc 9c1e c8bd 9a3d 22bc
000003a0: ed02 cabd c169 b7bd 12a6 a03c 257f b03c
000003b0: 18a0 893d 7e96 38bd 77f6 b93d d3e3 453d
000003c0: 8a08 5dbc 2306 1d3d 8640 b1bd 5ce9 3d3b
000003d0: 5658 853d 65d6 2d3d 4408 b33b ce06 873c
000003e0: c8db 573d d731 d3bd d671 1ebe f9a2 7dbd
000003f0: 109a 91bd 6465 4e3c ad99 1d3e 0871 e1bd
-0.02948585 0.058057655 0.006574351 -0.051034693 -0.033857983 -0.06308135 -0.03711219 0.051772557
0.03625491 0.037150096 0.056412064 0.04477596 -0.06058515 -0.054988775 -0.13543795 -0.09326715
-0.11652839 -0.04953654 0.052297592 -0.14121902 0.06736179 0.036248095 0.14122662 0.043502755
0.067673534 0.038522914 0.06384947 -0.06733076 -0.16032112 -0.11751735 0.07112195 -0.07680479
-0.07444979 -0.0124805095 -0.078159645 0.07392244 -0.12481058 -0.08718745 -0.010086999 -0.062946044
-0.062397726 -0.01722252 0.060951997 -0.00991401 -0.03317009 -0.11014182 0.039650947 0.11601738
-0.028379072 -0.05787858 -0.068079256 0.08440698 0.044879638 -0.052256756 -0.0035878804 -0.11279083
-0.04853905 -0.022885729 0.040928297 0.02484295 0.08732159 0.036488924 -0.042140573 0.12921312
0.054469127 0.14616033 0.045426555 0.013941015 0.026256016 -0.01835228 0.13492219 -0.06417774
-0.03858021 0.026226457 0.11707324 0.086326264 0.012717856 -0.04973688 -0.10296488 0.06342635
-0.15480988 -0.023945473 -0.011402892 -0.11336472 -0.07495457 0.12346881 -0.046672657 -0.1243916
0.14610347 0.08561562 0.0051447516 -0.015909065 -0.028049707 -0.11104049 -0.1327919 -0.057509627
0.06229549 -0.07530873 -0.11663221 0.117592655 -0.043394476 -0.021197595 0.017270299 -0.020180829
0.070593745 -0.07300416 0.06681974 -0.019231493 -0.03174 0.06580468 -0.014138957 0.0887767
-0.024644112 -0.0052386383 0.007535026 0.011169627 0.012847507 -0.0028327983 0.063168444 -0.0021258239
0.09842019 -0.121513106 -0.11219701 -0.122746535 0.07414263 0.06540932 -0.017943108 -0.094730355
0.13561422 -0.009127087 0.07172419 -0.028106818 0.048240557 -0.077068046 0.06106252 -0.049153686
-0.08807719 0.14695694 -0.09965817 0.042052917 -0.08544852 -0.062492255 0.11289085 0.027319765
-0.105947375 0.029990911 0.025202325 0.08392309 -0.015363232 0.04782329 -0.011433376 0.062999606
-0.020664133 0.0146454265 -0.15816276 0.11290164 0.0008442296 0.058017146 -0.10321141 -0.03119981
-0.025896944 -0.14395246 -0.0133271115 -0.12977757 -0.12476895 -0.004974183 -0.07115236 -0.04462184
-0.020899244 -0.024391238 0.026573392 -0.059258793 0.015032745 0.02988004 0.05798404 0.053641126
-0.029666409 -0.015330673 -0.070343465 0.0677681 0.015684966 -0.04796937 -0.039071877 0.051797636
0.11189412 -0.1314392 -0.05157838 0.14412248 -0.019361151 -0.07966529 0.029479625 0.061245672
-0.09698506 -0.052593607 0.10593488 -0.054357156 -0.14930847 0.12326878 0.05724156 0.09042774
0.072266504 0.01527725 0.08328673 -0.08067507 -0.034188747 0.05414822 -0.06874212 -0.01359392
0.017605186 -0.07484463 -0.065214425 0.056600183 -0.11220888 -0.105305925 0.06317399 -0.0055753575
-0.07202626 -0.077288 -0.006080387 -0.18335843 -0.0026227033 0.06836414 0.095798336 -0.019025128
-0.03745497 0.034719367 0.090249136 -0.03465229 0.02600597 -0.014323067 -0.09771463 -0.009902382
-0.09863839 -0.08955718 0.019610438 0.021545002 0.067199886 -0.045065396 0.090802126 0.048312973
-0.013490805 0.03833593 -0.08654885 0.0028978204 0.06510989 0.04244079 0.005463632 0.016482737
0.052699834 -0.103122406 -0.15473112 -0.061923 -0.07109463 0.012597416 0.15390654 -0.11007887
