core/models/nlp/command/binary/binary_classifier.pt (torch, 789064 bytes, 37 tensors)

weight f4 [300]
0	0x3f7c443a	0.98541605
1	0x3f82cb7a	1.0218346
2	0x3f804af9	1.002288
3	0x3f808fc5	1.0043875
4	0x3f81f3bb	1.0152506
5	0x3f87e8f1	1.0617963
6	0x3f8027ce	1.0012147
7	0x3f7d9667	0.9905762
8	0x3f82ac26	1.0208786
9	0x3f84a21f	1.0361975
10	0x3f72b679	0.9480968
11	0x3f7f1a17	0.99649185
12	0x3f7d0c3a	0.9884678
13	0x3f7c277d	0.98497754
14	0x3f80c497	1.0059994
15	0x3f85b6bc	1.0446391
16	0x3f7f3a98	0.9969878
17	0x3f8422da	1.0323136
18	0x3f815e08	1.0106821
19	0x3f860eee	1.0473306
20	0x3f789a99	0.971109
21	0x3f80e54c	1.0069976
22	0x3f807d27	1.0038193
23	0x3f7c3b4c	0.9852798
24	0x3f8546c6	1.0412223
25	0x3f84a544	1.0362935
26	0x3f824129	1.0176135
27	0x3f831fc0	1.0244064
28	0x3f81fa7c	1.0154567
29	0x3f825f29	1.018529
30	0x3f838d58	1.027751
31	0x3f85d306	1.0455024
32	0x3f81cc54	1.0140481
33	0x3f82a022	1.0205119
34	0x3f819f45	1.012673
35	0x3f81330c	1.0093703
36	0x3f8110ea	1.0083287
37	0x3f819bd0	1.0125675
38	0x3f80fb05	1.0076605
39	0x3f80028a	1.0000775
40	0x3f809ee3	1.0048488
41	0x3f84d752	1.037821
42	0x3f834c7b	1.0257715
43	0x3f815158	1.0102949
44	0x3f814b38	1.010108
45	0x3f800dac	1.0004172
46	0x3f80210c	1.0010085
47	0x3f78737a	0.97051203
48	0x3f81069e	1.0080144
49	0x3f818739	1.0119392
50	0x3f82423b	1.0176462
51	0x3f7e1a11	0.99258524
52	0x3f7cb99c	0.9872072
53	0x3f82086f	1.0158824
54	0x3f7923f3	0.9732048
55	0x3f7ed04e	0.995366
56	0x3f81d585	1.0143286
57	0x3f822537	1.0167607
58	0x3f849a1a	1.0359528
59	0x3f82ab90	1.0208607
60	0x3f7f8aae	0.99820983
61	0x3f802580	1.0011444
62	0x3f82b182	1.0210421
63	0x3f8519b5	1.039847
64	0x3f819b5f	1.012554
65	0x3f833d95	1.0253168
66	0x3f80d46b	1.0064825
67	0x3f854e57	1.0414532
68	0x3f82f56f	1.023115
69	0x3f80aa62	1.0051997
70	0x3f81c55d	1.0138355
71	0x3f8271d5	1.0190989
72	0x3f82d42d	1.0221001
73	0x3f816f48	1.0112085
74	0x3f827c79	1.0194236
75	0x3f83597b	1.0261682
76	0x3f81794a	1.011514
77	0x3f828617	1.0197171
78	0x3f833e14	1.025332
79	0x3f81a81e	1.012943
80	0x3f83191a	1.0242035
81	0x3f83ef0d	1.0307328
82	0x3f7e725e	0.9939326
83	0x3f84c890	1.0373707
84	0x3f7cb197	0.9870848
85	0x3f7b5e51	0.9819079
86	0x3f81d8f5	1.0144335
87	0x3f80edb9	1.0072547
88	0x3f7eed92	0.99581254
89	0x3f82dbfc	1.0223384
90	0x3f7ffcc2	0.9999505
91	0x3f7ce38e	0.9878472
92	0x3f822b43	1.0169452
93	0x3f7fd878	0.9993968
94	0x3f80dbe5	1.0067106
95	0x3f800878	1.0002584
96	0x3f7eec4f	0.9957933
97	0x3f7a42fe	0.9775847
98	0x3f8499cb	1.0359434
99	0x3f824b59	1.0179244
100	0x3f8120a2	1.0088084
101	0x3f81233e	1.008888
102	0x3f83a6ca	1.0285275
103	0x3f83ebbe	1.0306318
104	0x3f7c7e9f	0.9863071
105	0x3f82bc2d	1.0213677
106	0x3f825cce	1.0184572
107	0x3f817ac6	1.0115592
108	0x3f80d882	1.0066073
109	0x3f7de7fd	0.9918211
110	0x3f797bea	0.974547
111	0x3f811fc1	1.0087816
112	0x3f7f38f5	0.99696285
113	0x3f7f3d18	0.99702597
114	0x3f7bfdb2	0.98433983
115	0x3f7e1e28	0.99264765
116	0x3f7e387b	0.9930493
117	0x3f802e4f	1.0014132
118	0x3f80cbb0	1.006216
119	0x3f80bc4b	1.0057462
120	0x3f7ecfba	0.99535716
121	0x3f81ec76	1.0150287
122	0x3f8129ac	1.0090842
123	0x3f80a9de	1.0051839
124	0x3f81f1f0	1.0151958
125	0x3f83b8ab	1.0290731
126	0x3f837d39	1.027259
127	0x3f857015	1.042483
128	0x3f828bef	1.0198954
129	0x3f805163	1.0024837
130	0x3f858c0c	1.0433364
131	0x3f8549b4	1.0413117
132	0x3f826cee	1.0189493
133	0x3f807d77	1.0038289
134	0x3f7eb46d	0.9949406
135	0x3f82ca4d	1.0217987
136	0x3f801213	1.0005516
137	0x3f78d5bf	0.9720115
138	0x3f82ecc3	1.0228504
139	0x3f864069	1.0488406
140	0x3f7eb214	0.99490476
141	0x3f82a687	1.020707
142	0x3f824d07	1.0179757
143	0x3f81675c	1.0109668
144	0x3f801b59	1.0008346
145	0x3f84aaff	1.0364684
146	0x3f7d3e0c	0.989228
147	0x3f8120ca	1.0088131
148	0x3f7f556d	0.99739724
149	0x3f7f35aa	0.9969126
150	0x3f7b8bb9	0.98260075
151	0x3f7deca5	0.99189216
152	0x3f81048c	1.0079513
153	0x3f801133	1.0005249
154	0x3f81715f	1.0112723
155	0x3f81d956	1.0144451
156	0x3f7e79a8	0.9940438
157	0x3f80cd35	1.0062624
158	0x3f829d62	1.020428
159	0x3f8060f7	1.0029591
160	0x3f81a9f7	1.0129994
161	0x3f806603	1.0031132
162	0x3f84453c	1.0333629
163	0x3f82a956	1.0207927
164	0x3f807ea9	1.0038654
165	0x3f876c20	1.0579872
166	0x3f7fcfa0	0.99926186
167	0x3f7b4cdf	0.9816417
168	0x3f840039	1.0312568
169	0x3f84a6d6	1.0363414
170	0x3f7d38ef	0.98915
171	0x3f82f20f	1.023012
172	0x3f7d9cbd	0.9906729
173	0x3f83c6da	1.029506
174	0x3f7ea2eb	0.99467343
175	0x3f847ec0	1.0351181
176	0x3f7dc686	0.9913105
177	0x3f824204	1.0176396
178	0x3f8295f6	1.0202014
179	0x3f7e80a2	0.9941503
180	0x3f826517	1.01871
181	0x3f80b3fc	1.0054927
182	0x3f82b255	1.0210673
183	0x3f838b97	1.0276974
184	0x3f853cd3	1.0409187
185	0x3f84f047	1.0385827
186	0x3f82f8fb	1.0232233
187	0x3f83ffbb	1.0312418
188	0x3f8004fa	1.0001519
189	0x3f8132fc	1.0093684
190	0x3f857bf3	1.0428451
191	0x3f7f9cbb	0.99848527
192	0x3f7960dd	0.97413427
193	0x3f7a71bc	0.97829795
194	0x3f7f6b6f	0.99773306
195	0x3f7f01d1	0.99612147
196	0x3f81c6c6	1.0138786
197	0x3f7b0dd3	0.9806797
198	0x3f801b01	1.0008241
199	0x3f835100	1.0259094
200	0x3f81658a	1.0109112
201	0x3f8323fb	1.0245355
202	0x3f7a1e3d	0.9770239
203	0x3f85349a	1.0406678
204	0x3f81c0e3	1.0136989
205	0x3f7a3ce5	0.9774917
206	0x3f7d04d5	0.988355
207	0x3f842831	1.0324765
208	0x3f817b06	1.0115669
209	0x3f81d094	1.0141778
210	0x3f7ffb1f	0.99992555
211	0x3f74087b	0.9532544
212	0x3f80e060	1.0068474
213	0x3f80109c	1.0005069
214	0x3f81a2d5	1.0127817
215	0x3f81dc42	1.0145342
216	0x3f7fdd7b	0.9994733
217	0x3f82b296	1.021075
218	0x3f7fdda2	0.9994756
219	0x3f817aaf	1.0115565
220	0x3f81de80	1.0146027
221	0x3f7f825c	0.9980829
222	0x3f809e90	1.004839
223	0x3f80fdb5	1.0077425
224	0x3f818184	1.011765
225	0x3f827d30	1.0194454
226	0x3f7d1c8d	0.9887169
227	0x3f841b78	1.0320883
228	0x3f7ebfb4	0.99511266
229	0x3f8517f6	1.0397937
230	0x3f81c8eb	1.013944
231	0x3f800e5b	1.0004381
232	0x3f7fe2e2	0.9995557
233	0x3f7cd420	0.9876118
234	0x3f7a59df	0.9779338
235	0x3f7c00fd	0.9843901
236	0x3f7cbe2a	0.9872767
237	0x3f81eed1	1.0151006
238	0x3f83edeb	1.0306982
239	0x3f79b919	0.9754806
240	0x3f8704f9	1.0548393
241	0x3f7f8fe7	0.9982895
242	0x3f80a30d	1.0049759
243	0x3f7e65e6	0.99374235
244	0x3f8315cf	1.024103
245	0x3f8306b4	1.0236421
246	0x3f81b335	1.0132815
247	0x3f80340b	1.0015882
248	0x3f82ef90	1.0229359
249	0x3f84e3e0	1.0382042
250	0x3f847628	1.0348558
251	0x3f829765	1.0202452
252	0x3f83d8de	1.0300558
253	0x3f8133cb	1.0093931
254	0x3f82e94b	1.0227445
255	0x3f81731b	1.0113252

bias f4 [300]
0	0xbcfdba85	-0.030972729
1	0xbcbd2864	-0.023090549
2	0xbd33f8b9	-0.043938372
3	0x3d59ddb6	0.053189956
4	0xbc22c182	-0.009933831
5	0xbda08567	-0.078379445
6	0x3d1e8759	0.038703296
7	0xbcb78929	-0.02240427
8	0x3b956bb2	0.0045599574
9	0xbd52841c	-0.05139552
10	0x3bd632cf	0.0065368186
11	0x3c34f717	0.011045239
12	0xbd1c988a	-0.03823141
13	0xbd2f6e51	-0.042829815
14	0x3da8eb35	0.08247987
15	0x3d8fe546	0.07026152
16	0x3d256860	0.040382743
17	0xbc7576f5	-0.014981975
18	0xbcef47b7	-0.029209001
19	0xbd3e13a4	-0.04640545
20	0xbd2fd543	-0.04292799
21	0xbd55d3f7	-0.0522041
22	0x3d763a60	0.060114264
23	0x3cc110b0	0.023567528
24	0x3d86a5a4	0.06574562
25	0x3d99dfca	0.075133875
26	0x3d5e49bc	0.054269537
27	0xbcb2b226	-0.021813463
28	0xbd5301ef	-0.051515516
29	0x3d939ce0	0.07207656
30	0xbd9acdda	-0.07558794
31	0x3d6ba6a9	0.057531986
32	0x3d3cf8d5	0.046135742
33	0x3d868140	0.06567621
34	0xbbbed702	-0.005823971
35	0xbd1b45a1	-0.0379082
36	0xbd700b25	-0.05860438
37	0xbd5c06bd	-0.053717364
38	0x3cf95c17	0.03043942
39	0x3d5cd429	0.05391327
40	0x3a515e7b	0.0007986796
41	0xbd7b5fde	-0.061370723
42	0x3d4cec24	0.05002989
43	0xbd71cb5d	-0.059031833
44	0xbd89dde8	-0.067317784
45	0xbd04c9a8	-0.032418877
46	0xbd83e6dd	-0.06440518
47	0xbb725029	-0.0036974049
48	0xbd54d7df	-0.051963683
49	0xbd5f5559	-0.054524753
50	0xbb1091da	-0.002205959
51	0xbb7067e6	-0.0036683022
52	0xbd812e90	-0.06307709
53	0x3d6c2a2d	0.05765741
54	0x3cfa394b	0.030544898
55	0xbd4eefce	-0.050521664
56	0x3ba7453e	0.00510469
57	0x3d946630	0.07246053
58	0x3d66285c	0.056190833
59	0x3d0a35ed	0.033742834
60	0xbc7f6dbd	-0.0155901285
61	0xbd59c2e2	-0.05316437
62	0x3c7f66b9	0.015588456
63	0xbd174973	-0.03693528
64	0x3d2e4244	0.042543665
65	0x3d812420	0.063057184
66	0x3d3495c8	0.044088155
67	0xbc412bdb	-0.011790241
68	0x3db3a931	0.08772505
69	0xbd4a5581	-0.04939795
70	0xbca55386	-0.020181429
71	0xbd7c71d0	-0.061631978
72	0x3d5b431f	0.05353081
73	0xbd4a2ff4	-0.049362138
74	0xbd917cd4	-0.07103887
75	0x3caa17a3	0.020763224
76	0x3d369d55	0.044583637
77	0xbd6f34eb	-0.058400076
78	0x3d5f7d56	0.05456289
79	0xbd6321da	-0.055452205
80	0xbd6b389d	-0.057427038
81	0xbd9534eb	-0.07285484
82	0x3d4f7d86	0.050656818
83	0xbd4e5418	-0.050373167
84	0xbd17cb61	-0.03705919
85	0x3ceb108e	0.028694417
86	0xbd36f7b1	-0.04466981
87	0xbd0d75d1	-0.034536187
88	0xbd137e1f	-0.03600895
89	0x3d03dbb7	0.03219196
90	0x3d073a02	0.033014305
91	0xbd319151	-0.043351475
92	0xbd5b8326	-0.05359187
93	0x3d0797d1	0.033103768
94	0x3d536dcc	0.051618382
95	0x3d77980e	0.060447745
96	0xbd163b14	-0.036677435
97	0x3c5d1e03	0.013495925
98	0xbbc8d57f	-0.0061289663
99	0xbd601ccf	-0.054714974
100	0x3d7ab9a2	0.06121219
101	0x3d907157	0.07052868
102	0x3d7cce07	0.06171992
103	0x3d7e3848	0.062065393
104	0x3cf0ee79	0.029410588
105	0x3d5e7741	0.05431295
106	0xbd647584	-0.055776134
107	0xbc443838	-0.011976294
108	0x3d4f017e	0.050538532
109	0xbd6db149	-0.0580304
110	0x3b2d65fa	0.0026458488
111	0x3d861829	0.06547577
112	0xbd36d3e5	-0.044635672
113	0x3cb2ec5e	0.021841224
114	0xbbebdc66	-0.0071979044
115	0x3d454e69	0.04817048
116	0xbd30eef0	-0.04319662
117	0xbd2dd06d	-0.0424351
118	0xbce88ebd	-0.028388375
119	0x3cb07d4f	0.021544127
120	0xbb811602	-0.003939391
121	0xbd2f564b	-0.042806905
122	0x3d5c2bae	0.053752594
123	0xbd0a7a16	-0.033807836
124	0x3d4cf530	0.050038517
125	0x3d4d1403	0.050067913
126	0x3bdc9908	0.00673211
127	0xbd85e932	-0.06538619
128	0xbd841dcd	-0.064509965
129	0xbd869b40	-0.0657258
130	0x3da6eb45	0.08150343
131	0xbd758344	-0.059939638
132	0xbcd24cc0	-0.025671363
133	0xbd3e92bb	-0.04652665
134	0xbc07d33b	-0.008290107
135	0x3d53c2a4	0.051699296
136	0x3ce14efe	0.027503487
137	0xbd59e262	-0.05319441
138	0x3d5d708e	0.05406242
139	0xbce2f4f9	-0.027704703
140	0x3d0998a3	0.03359283
141	0x3d8b1683	0.06791403
142	0xbd04ecfa	-0.03245256
143	0xbca541eb	-0.020173034
144	0xbd325a43	-0.04354311
145	0xbd9eb8e1	-0.077501066
146	0x3d0945f4	0.033513978
147	0x3d4354b0	0.047688186
148	0xbd6666bb	-0.056250315
149	0xbd11bf44	-0.035582796
150	0x3cc5ed59	0.024161028
151	0x3ae9edfb	0.0017847413
152	0xbd4aeed7	-0.04954418
153	0x3d2ebf34	0.042662814
154	0xbd2c1bdb	-0.042018753
155	0xbd4602c0	-0.048342466
156	0x3ac579fe	0.0015066264
157	0x3d2e97c6	0.04262521
158	0x3d52e583	0.05148841
159	0x3ce0c74e	0.027438786
160	0xbd009a13	-0.031396937
161	0xbd41ccef	-0.04731458
162	0x3c777fe9	0.01510618
163	0x3d7a0d91	0.061048094
164	0x3d3d06ad	0.046148945
165	0x3d66e678	0.056372136
166	0x3cf33492	0.029688153
167	0xbd5be491	-0.053684775
168	0xbd246e36	-0.040144168
169	0x3d148a9e	0.03626501
170	0x3d100cf9	0.03516862
171	0x3d8dcbf6	0.06923668
172	0xbacce047	-0.0015630805
173	0x3d3c7548	0.046010286
174	0x3d5676af	0.05235928
175	0x3d874757	0.06605404
176	0xbd229362	-0.039691336
177	0xbd147e2b	-0.036253136
178	0xbd32c93b	-0.04364894
179	0x3ce750b1	0.028236719
180	0xbc99cd86	-0.018774759
181	0xbd84a0cd	-0.06475983
182	0xbd8d5d4d	-0.06902561
183	0x3d5b99a8	0.053613335
184	0xbd088989	-0.03333429
185	0xbd959a36	-0.07304804
186	0xbd496b7c	-0.04917477
187	0x3d8327ac	0.06404051
188	0x3d527cf7	0.051388707
189	0x3d825fb8	0.06365913
190	0xbd608454	-0.054813698
191	0xbcc2bc2d	-0.02377137
192	0x3b4a0e17	0.0030831152
193	0x3a8449e3	0.0010092821
194	0xbcf6455f	-0.030062376
195	0x3d48c7a4	0.049018517
196	0x3c7a85e3	0.01529071
197	0xbc547711	-0.012967841
198	0x3d391f7e	0.04519605
199	0x3d9c7118	0.076387584
200	0x3d2ead6f	0.042645868
201	0x3d790c18	0.06080255
202	0xbca13604	-0.019679077
203	0x3cbc9198	0.023018643
204	0x3d212f2f	0.03935164
205	0xbbc86b44	-0.0061163027
206	0x3b934624	0.0044944454
207	0xbd6caf66	-0.05778446
208	0xbcc12299	-0.023576068
209	0x3c07734c	0.008267235
210	0xbc8af66e	-0.01696321
211	0xbd0c5be6	-0.03426733
212	0xbd8dc13e	-0.06921624
213	0xbc11b79f	-0.008893876
214	0xbd94bb2b	-0.07262262
215	0x3d4a90b2	0.0494544
216	0x3d094b9c	0.033519372
217	0x3d2883fe	0.041141503
218	0xbd637a3b	-0.05553649
219	0x3d92a4f9	0.07160372
220	0x3d11f47d	0.035633553
221	0x3d394150	0.045228302
222	0xbcc98519	-0.024599599
223	0xbd41011f	-0.04712021
224	0xbc4da7f7	-0.012552253
225	0x3d3b65d3	0.045751404
226	0x3c37d69d	0.011220601
227	0xbd43cfb1	-0.04780549
228	0xbd876817	-0.066116504
229	0x3d483d89	0.04888681
230	0x3d563eef	0.052306112
231	0x3acddca4	0.0015706015
232	0xbd066d7a	-0.03281925
233	0xbbb203d5	-0.0054325857
234	0x3c8fc3a6	0.017549347
235	0x3cab4cd1	0.020910652
236	0xbca195d5	-0.019724766
237	0x3d819e63	0.06329038
238	0xbd88c33c	-0.06677863
239	0xbd2cf36d	-0.042224336
240	0xbd834699	-0.0640995
241	0x3d24f339	0.040271018
242	0xbd809af7	-0.06279557
243	0xbd604a23	-0.054758202
244	0x3d868e5d	0.065701224
245	0x3dc3a758	0.09553403
246	0xbd96a2b0	-0.07355249
247	0xbd314ef1	-0.043288175
248	0x3ccb839f	0.024843035
249	0xbd13774c	-0.036002442
250	0x3d4d1b0c	0.050074622
251	0x3d0d86dd	0.034552444
252	0x3bd049a7	0.0063564363
253	0x3d10fbc3	0.03539635
254	0x3d4751bc	0.048661932
255	0xbca8c77e	-0.020602938

weight_ih_l0 f4 [400, 300]
0	0x3cb00192	0.021485124
1	0xbdd14199	-0.1021759
2	0x3ca6458a	0.02029683
3	0x3a0a14ea	0.00052673987
4	0x3c808477	0.015688164
5	0x3d29ad4e	0.04142504
6	0x3d409e4f	0.047025975
7	0xbd5949c8	-0.05304888
8	0x3da3e0dd	0.08001874
9	0x3d2e4bd1	0.042552773
10	0xbd346841	-0.044044737
11	0x3d903420	0.07041192
12	0xbd757516	-0.059926115
13	0x3d271c2c	0.04079835
14	0x3cab383f	0.020900844
15	0xbc4bd512	-0.012440937
16	0xbda12fa4	-0.07870415
17	0x3d34bc03	0.044124614
18	0xbba284d0	-0.00495968
19	0xbdd8ec67	-0.10591965
20	0xbc3d86e4	-0.011567805
21	0xbdb92596	-0.09040372
22	0x3d7a68b3	0.061135005
23	0xbbb85ea7	-0.005626518
24	0xbd562dbd	-0.052289713
25	0xbcb94859	-0.022617506
26	0x3d6063ff	0.054782864
27	0x3d406690	0.04697281
28	0xbd785ea4	-0.06063713
29	0x3da7edfc	0.08199689
30	0xbd39e836	-0.04538747
31	0x3dca8205	0.098880805
32	0x3dbea65d	0.09309075
33	0x3cb6c033	0.022308445
34	0x3d9538aa	0.072861984
35	0x3cdcd8fe	0.026958939
36	0xbd65d956	-0.05611547
37	0x3cbca03f	0.02302563
38	0xbd48acfe	-0.048993103
39	0xbd166044	-0.0367129
40	0x3d4c170a	0.04982666
41	0x3d81d136	0.06338732
42	0x3d0bbb03	0.034113895
43	0xbd761b78	-0.06008479
44	0xbd3a99ae	-0.045556717
45	0x3a88662c	0.0010406426
46	0xbd9c780c	-0.076400846
47	0xbd3d91fb	-0.046281796
48	0x3d33694e	0.0438016
49	0x3d184d01	0.03718281
50	0xbd8f1e26	-0.06988172
51	0xbd5a226b	-0.05325548
52	0x3da9e25f	0.0829513
53	0x3de57e8f	0.1120578
54	0x3d7be4e0	0.06149757
55	0x3d5f0ba1	0.05445445
56	0x3d2072cf	0.03917199
57	0xbd99ce1c	-0.07510015
58	0xbc004820	-0.007829696
59	0x3d3a9301	0.04555035
60	0x3ceec8b7	0.029148443
61	0x3b171538	0.002305342
62	0xbd9f2e31	-0.07772482
63	0xbd9bc060	-0.07605052
64	0x3dc67aef	0.096914165
65	0xbd696ce9	-0.05698863
66	0x3d6d2b2d	0.057902504
67	0xbd8ca09a	-0.0686657
68	0xbc26db81	-0.01018417
69	0xbda0decc	-0.07854995
70	0x3d92f061	0.07174755
71	0x3d3d389f	0.046196576
72	0x3c46d6a8	0.012136139
73	0xbd704769	-0.058661852
74	0x3ba68d6e	0.0050827777
75	0x3d23af0c	0.03996186
76	0xbd345339	-0.04402468
77	0xbd61fe3b	-0.055174094
78	0x3d2e84bb	0.04260705
79	0x3bd8584a	0.0066023218
80	0xbd2ed4e2	-0.04268349
81	0x3ccda478	0.025102839
82	0xbd40c653	-0.047064137
83	0x3d7710bf	0.060318705
84	0x3d7d90d9	0.061905716
85	0xbcccf48e	-0.025018957
86	0x3d9585ff	0.07300948
87	0xbd1f199b	-0.03884278
88	0x3c6a9917	0.014318726
89	0x3dd2b403	0.10288241
90	0x3d8ea6a1	0.06965376
91	0xbd9c4744	-0.0763078
92	0x3cca90f8	0.02472733
93	0x3da79674	0.081829935
94	0xbdbe3d49	-0.09289033
95	0xbc91cf79	-0.017799126
96	0xbdca5e8b	-0.09881314
97	0x3dbd2dc4	0.09237245
98	0xbd829689	-0.063763686
99	0xbd0799cc	-0.033105657
100	0x3cf5254d	0.029925013
101	0x3d076a9f	0.033060666
102	0xbb867031	-0.0041027297
103	0xbd1b7331	-0.037951652
104	0x3caa91b4	0.02082143
105	0x3cade064	0.021225162
106	0x3c624a94	0.013811726
107	0x3db22dad	0.08700118
108	0x3af237f7	0.0018479814
109	0xbc523d2a	-0.012831965
110	0x3d8991c4	0.06717256
111	0xbd3a33f4	-0.045459703
112	0xbc2d0cce	-0.010562135
113	0xbd331109	-0.043717418
114	0xbcac4b44	-0.021031983
115	0xbd774c47	-0.060375478
116	0xbcedd6d7	-0.029033108
117	0xbd04e7f9	-0.03244779
118	0x3c2c3722	0.010511192
119	0x3b15fc2e	0.0022885907
120	0x3c63fd37	0.013915352
121	0xbd9b9408	-0.07596594
122	0x3db5a881	0.0887003
123	0x3d0b7ada	0.034052707
124	0x3d9a9074	0.075470835
125	0x3d8a1655	0.06742541
126	0xbdeb6b13	-0.11495032
127	0xbcc06a99	-0.02348833
128	0x3d531146	0.051530145
129	0xbd7c6a60	-0.061624885
130	0x3dfacec0	0.12246466
131	0xbd807fdb	-0.062743865
132	0xbd98db0d	-0.074636556
133	0x3c0dbe29	0.008651295
134	0x3cf0fd0b	0.029417535
135	0xbcc44912	-0.023960624
136	0xbdc6d35a	-0.09708281
137	0xbdc17984	-0.094470054
138	0x3d642883	0.055702697
139	0xbdae31c1	-0.085055836
140	0xbc0690a0	-0.008213192
141	0x3d8a5158	0.06753796
142	0xbdbfcdc0	-0.093654156
143	0x3b2f7b4e	0.0026776376
144	0x3da6cda9	0.08144695
145	0xbe03032a	-0.12794176
146	0x3ce88b3c	0.028386705
147	0x3d1cc5fa	0.038274743
148	0xbd93c7ff	-0.072158806
149	0xbc27ae4d	-0.010234428
150	0xbd8f3d73	-0.069941424
151	0xbdb09658	-0.08622426
152	0x3c0eaf0a	0.008708725
153	0x3db4b2ca	0.08823164
154	0x3d758858	0.05994448
155	0x3d480a94	0.048838213
156	0x3d8f6327	0.07001334
157	0x3d8ea492	0.06964983
158	0x3ca5f8f5	0.020260314
159	0x3d8fab73	0.07015123
160	0xbd27d671	-0.04097599
161	0x3d63e658	0.055639595
162	0x3d73f997	0.0595642
163	0x3cce9a4b	0.025220057
164	0x3d535e6b	0.051603716
165	0x3d7ae35f	0.061251994
166	0xbd23152b	-0.03981511
167	0xbd131c5b	-0.035915714
168	0x3dc79720	0.09745622
169	0x3d0aad93	0.03385694
170	0x3dd0ead6	0.102010414
171	0xbd0d9551	-0.034566227
172	0x3df38cd7	0.118920974
173	0xbd02c2a4	-0.031923905
174	0x3c73f1c0	0.014889181
175	0x3da0cd14	0.078516155
176	0xbdb57ade	-0.08861326
177	0xbd7b7ff9	-0.06140134
178	0xbd741c6a	-0.05959741
179	0x3b320fcc	0.002717006
180	0xbdb0e95e	-0.08638261
181	0x3cef7f32	0.029235456
182	0xbcbf50ab	-0.023353895
183	0x3c0221a8	0.007942595
184	0x3d1cc47d	0.038273323
185	0xbbcf4c41	-0.006326229
186	0xbcb80b33	-0.022466278
187	0xbcde45b7	-0.027132852
188	0xbc9bc576	-0.019015055
189	0x3d747bc2	0.059688337
190	0xbdfb90fd	-0.12283514
191	0xbc9d13c8	-0.019174471
192	0xbd471b68	-0.04861012
193	0xbda517f1	-0.08061207
194	0x3dbd13fa	0.09232326
195	0xbd6ca4db	-0.057774406
196	0xbc831abd	-0.01600396
197	0x3d9c5f88	0.07635409
198	0x3d5fb401	0.054615024
199	0xbd0820a2	-0.033234246
200	0xbc0992b4	-0.008396793
201	0xbdc66b0d	-0.09688387
202	0x3d5179f5	0.051141698
203	0x3de34135	0.11096422
204	0x3dcd6c63	0.10030439
205	0xbc610742	-0.013734641
206	0xbbe8561f	-0.0070903446
207	0x3afddf8b	0.0019368989
208	0xbe089274	-0.13337117
209	0xbabd3ac6	-0.0014437072
210	0x3d5979c6	0.053094648
211	0x3c813d06	0.015776169
212	0xbcaea8a6	-0.021320652
213	0x3d9b2fd0	0.07577479
214	0x3d576cbe	0.05259394
215	0xbd7d2b7a	-0.06180904
216	0x3d531c6e	0.051540785
217	0x3db6daf1	0.089284785
218	0xbab2575d	-0.0013606359
219	0x3da7713e	0.08175896
220	0x3d965e1a	0.07342167
221	0x3d8ed957	0.06975048
222	0xbd53ce0b	-0.05171017
223	0xbc45b1cf	-0.012066319
224	0x3c28a9be	0.010294376
225	0xbcadc7c6	-0.021213423
226	0x3d36d985	0.044641037
227	0xbc38affe	-0.011272429
228	0x3d92963f	0.071575634
229	0x3d7b6383	0.0613742
230	0x3d9f0461	0.07764507
231	0x3d5b6d48	0.053571016
232	0x3d545d2d	0.05184667
233	0xbd18b9ca	-0.037286557
234	0xbd946c3a	-0.07247205
235	0x3d415804	0.04720308
236	0x3a7574ff	0.0009363442
237	0x3c1186c3	0.008882227
238	0xbbc64e67	-0.0060518268
239	0xbcfa510a	-0.03055622
240	0x3bf2ab56	0.0074056787
241	0xbd1327c0	-0.03592658
242	0x3bb52ecc	0.0055292603
243	0xbdbc07bd	-0.091811635
244	0x3ce6dfaf	0.028182833
245	0x3db83de2	0.08996178
246	0xbd7ed38d	-0.06221347
247	0x3ceb4ec6	0.028724086
248	0xbdba320a	-0.090915754
249	0xbd5fc112	-0.054627486
250	0x3d2401a6	0.040040635
251	0x3d0c8464	0.034305945
252	0xbcfde284	-0.0309918
253	0xbd506d8f	-0.050885733
254	0xbd3eb1ad	-0.046556164
255	0x3d15881a	0.03650675

weight_hh_l0 f4 [400, 100]
0	0xbdb2d10d	-0.087312795
1	0x3daa9c4d	0.08330593
2	0xbdbc3970	-0.09190643
3	0xbd8110f2	-0.0630206
4	0x3d38aa96	0.04508456
5	0x3b84aa80	0.0040486455
6	0x3d9038f5	0.07042114
7	0xbd3f7b6a	-0.046748556
8	0xbd8b6a48	-0.06807381
9	0x3d965a65	0.0734146
10	0xbce9522c	-0.028481565
11	0x3d0f4122	0.034974225
12	0xbd1860d6	-0.037201725
13	0xbd7309c0	-0.05933547
14	0x3da80909	0.08204848
15	0xbd5a3ea3	-0.05328239
16	0x3dcba555	0.09943644
17	0xbc077d50	-0.008269623
18	0x3d71c1b6	0.059022628
19	0x3d9d0711	0.076673634
20	0xbd4e201a	-0.050323583
21	0x3db5049d	0.088387705
22	0x3c118740	0.008882344
23	0xbd9916b8	-0.074750364
24	0x3d9b889b	0.07594415
25	0x3dc56c41	0.096397884
26	0xba54c000	-0.00081157684
27	0xbd4874ba	-0.048939444
28	0x3ca8724c	0.020562313
29	0x3dba1d79	0.09087653
30	0x3d9af5d1	0.07566417
31	0xbd871536	-0.065958425
32	0x3caca138	0.021072969
33	0x3c623ae8	0.01380799
34	0xbda195b6	-0.07889883
35	0x3d3d5862	0.046226867
36	0x3ca872e8	0.020562604
37	0xbd9f8046	-0.07788138
38	0x3d287e6e	0.041136198
39	0x3db01801	0.085983284
40	0x3dba6fa1	0.09103323
41	0x3d903001	0.07040406
42	0xbccc86f8	-0.024966702
43	0x3da49c41	0.080376156
44	0xbd97b140	-0.07406855
45	0xbd79b5b7	-0.060964312
46	0xbcf2aa4c	-0.02962222
47	0xbd0a262a	-0.033727802
48	0xbd99b498	-0.07505149
49	0xbd2e373d	-0.042533148
50	0xbd6d65bd	-0.057958353
51	0xbc287598	-0.010281943
52	0x3d765dae	0.060147934
53	0x3d0929b6	0.033487044
54	0xbd8945e2	-0.06702782
55	0x3c6d34d0	0.0144779235
56	0xbcdd2e80	-0.026999712
57	0xbd94a35a	-0.07257719
58	0x3c8a3708	0.016871944
59	0x3dc04869	0.09388811
60	0x3d9a1703	0.075239204
61	0xbd7dc5c7	-0.061956193
62	0x3d1de666	0.038549803
63	0xbc8252d8	-0.015908644
64	0xbcd49e28	-0.025954321
65	0x3c6a96e8	0.014318205
66	0x3d47a756	0.04874357
67	0xbd24baea	-0.040217318
68	0xbcbbae20	-0.022910178
69	0x3bfaa750	0.0076493397
70	0xbd9c3185	-0.076266326
71	0xbc731a10	-0.014837757
72	0xbd096c00	-0.033550262
73	0xbd10b98c	-0.0353332
74	0x3d44131e	0.047869794
75	0x3d8101f1	0.062991984
76	0x3d7a92ce	0.06117516
77	0x3d03ab92	0.032146044
78	0xbd0fd4fc	-0.035115227
79	0x3d1f1c5e	0.038845412
80	0xbd0dce6a	-0.03462068
81	0x3d2d4846	0.042305253
82	0x3d2aa982	0.04166556
83	0xbc96a2a0	-0.018388093
84	0x3d82e7af	0.063918464
85	0x3d9e6bc7	0.07735401
86	0xbd1df490	-0.03856331
87	0xbd90feeb	-0.07079872
88	0xbd956b65	-0.072958745
89	0x3dc638a7	0.09678774
90	0xbdc157d2	-0.094405785
91	0x3d59492a	0.05304829
92	0xbd855fd2	-0.06512417
93	0xbd9ea4d2	-0.07746281
94	0x3c7fdd10	0.01561667
95	0xbc69d890	-0.014272824
96	0x3c7a9340	0.015293896
97	0x3d66105a	0.056167938
98	0x3cdb7c9c	0.026792817
99	0xbd321af0	-0.04348272
100	0x3d3a7496	0.04552134
101	0xbdb0e6aa	-0.08637746
102	0x3d37a2e6	0.044833086
103	0x3db850df	0.089998
104	0x3d27482a	0.040840305
105	0x3cdcb444	0.026941426
106	0x3d2b2e62	0.04179228
107	0xbd4f5efd	-0.050627697
108	0x3db1c511	0.086801656
109	0x3c9d596c	0.019207679
110	0x3c2d3728	0.010572232
111	0xbd13b1d4	-0.036058262
112	0x3d3befa2	0.04588283
113	0xbd84ecbc	-0.06490466
114	0xbd8ad29c	-0.06778452
115	0xbdc1c06d	-0.094605304
116	0x3cf3cca4	0.029760666
117	0x3ce54994	0.027989186
118	0x3d76e302	0.060275085
119	0xbdb1007d	-0.08642671
120	0xbd1d016d	-0.038331438
121	0x3d6463de	0.055759303
122	0xbd9676f8	-0.0734691
123	0x3dc86d85	0.09786514
124	0xbd86ba8c	-0.0657855
125	0x3d6ca5ca	0.057775296
126	0x39fe5600	0.0004851073
127	0x3d034362	0.032046683
128	0xbd587017	-0.052841272
129	0xbdbb24d7	-0.09137886
130	0x3db86a21	0.090046175
131	0x3c830580	0.015993834
132	0x3d4612ea	0.04835788
133	0xbc90da40	-0.017682195
134	0xbd1f6593	-0.038915228
135	0x3db43e05	0.08800892
136	0xbd5e4473	-0.054264497
137	0xbd364aa7	-0.044504788
138	0xbdb5e95d	-0.08882401
139	0x3d498d4a	0.04920701
140	0x3cff033c	0.031129472
141	0xbcd42288	-0.025895372
142	0x3d8b8ea1	0.06814314
143	0xbd0903e6	-0.033450983
144	0xbd4b0b6d	-0.049571443
145	0x3dabf949	0.08397157
146	0xbb4d5040	-0.003132835
147	0x3d564062	0.052307494
148	0x3d0a433e	0.033755533
149	0x3b1a14c0	0.0023510903
150	0x3db03f83	0.08605864
151	0x3dc2558b	0.09488972
152	0xbccb1534	-0.024790384
153	0x3d601f02	0.05471707
154	0x3c973488	0.018457666
155	0xbd91a7fe	-0.0711212
156	0x3d08d34a	0.033404626
157	0xbcbdfc18	-0.023191497
158	0x3ce9530c	0.028481983
159	0x3d234362	0.039859183
160	0xbc94c8c8	-0.018162146
161	0xbc9d8754	-0.019229569
162	0xbd27a80d	-0.04093175
163	0x3d2875a6	0.041127823
164	0xbdaf0db3	-0.08547535
165	0xbd72c2ba	-0.059267737
166	0x3ac88e80	0.0015301257
167	0x3ce2f1c4	0.027703173
168	0xbdad5468	-0.08463365
169	0xbd7d504d	-0.06184416
170	0x3d9891c5	0.07449678
171	0x3d0a792a	0.033806957
172	0xbcaeec38	-0.021352872
173	0xbdabd26b	-0.083897434
174	0x3a184680	0.0005808845
175	0xbdab3a13	-0.08360686
176	0xbd125d76	-0.035733663
177	0x3d516e16	0.051130377
178	0xbd8dde25	-0.06927136
179	0x3da97c49	0.08275659
180	0x3c8bb8d8	0.017055914
181	0x3dbab845	0.09117178
182	0x3d5793a2	0.052631028
183	0xbd8ab284	-0.067723304
184	0x3d96b495	0.07358662
185	0x3cda4444	0.02664388
186	0x3cc41d8c	0.02393987
187	0x3d2495b2	0.040181823
188	0x3d870e89	0.06594569
189	0x3d8bfc15	0.0683519
190	0x3cbce64c	0.023059033
191	0xbc4a9858	-0.012365423
192	0xbcf5184c	-0.029918812
193	0x3dbf66a1	0.09345747
194	0x3d28c5a6	0.041204117
195	0x3d76489a	0.060127832
196	0xbd6d9530	-0.058003604
197	0xbc979f58	-0.018508598
198	0xbd998a7a	-0.074971154
199	0x3daf7e93	0.08569064
200	0xbcc1f554	-0.023676552
201	0x3d821cb7	0.06353133
202	0xbbaf72e0	-0.0053542703
203	0x3cb27e4c	0.021788739
204	0x3cc84f0c	0.024451755
205	0xbc1072c0	-0.008816421
206	0x3daf860f	0.085704915
207	0x3d4d60f6	0.050141297
208	0xbd6a516a	-0.05720655
209	0xbcc81300	-0.024423122
210	0xbd85e9d2	-0.06538738
211	0x3d4d73a2	0.050159104
212	0x3cea5144	0.028603204
213	0x3ba0cd80	0.00490731
214	0xbcf7c9ec	-0.030247651
215	0x3cd16734	0.025561906
216	0xbcfac1e8	-0.03061004
217	0xbd9bdc46	-0.07610373
218	0x3cc6f834	0.024288274
219	0x3d48df0a	0.04904083
220	0xbd8594b5	-0.06522504
221	0x3db52cb1	0.08846415
222	0xbd765ff7	-0.060150113
223	0xbd2f86d7	-0.042853203
224	0xbd869eac	-0.06573233
225	0xbda6aaa0	-0.08138013
226	0xbcf356c0	-0.029704452
227	0x3dc3b227	0.09555464
228	0xbd39f69d	-0.045401204
229	0xbd55eb1d	-0.052226175
230	0xbdcb19e3	-0.09917047
231	0xbdc69cd7	-0.096978836
232	0x3db1b26d	0.0867661
233	0xbcc6848c	-0.024233125
234	0xbd38f727	-0.045157578
235	0x3d7fee92	0.062483378
236	0x3d765c96	0.06014689
237	0x3d8e6a49	0.06953866
238	0x3d2c9b9a	0.04214058
239	0x3d88285f	0.06648325
240	0x3da3e7bd	0.08003185
241	0x3d568bbe	0.052379362
242	0x3d52ce56	0.05146631
243	0xbdc5f76f	-0.09666335
244	0x3db97709	0.09055907
245	0xbd074150	-0.03302127
246	0xbd1162a4	-0.03549446
247	0x3cb0f634	0.021601774
248	0xbd9b71d6	-0.07590072
249	0x3dc49181	0.09598065
250	0x3d547da6	0.05187764
251	0xbd716fea	-0.05894462
252	0xbd9d51da	-0.076816276
253	0xbcb1ae14	-0.021689452
254	0x3d82ef1b	0.06393262
255	0x3d9028d9	0.07039041

bias_ih_l0 f4 [400]
0	0x3dbdd976	0.09269993
1	0x3d81fd2e	0.06347118
2	0x3b629b91	0.0034577588
3	0xbd1d1080	-0.038345814
4	0xbb808671	-0.0039222767
5	0x3c491fc0	0.012275636
6	0x3dbdb54e	0.09263097
7	0x3bb32cba	0.0054679783
8	0xbd02d7b6	-0.031944
9	0xbc380cce	-0.011233522
10	0x3dec6835	0.115433134
11	0xbd7c7668	-0.06163636
12	0x3d9295a0	0.07157445
13	0xbd0c399c	-0.034234628
14	0x3de2636d	0.1105412
15	0xbb8b9389	-0.004259531
16	0x3dcc7432	0.099831
17	0xbd803e27	-0.062618546
18	0x3e021aca	0.12705532
19	0x3dbf36ec	0.093366474
20	0x3dc5dd23	0.09661319
21	0xbc17bd29	-0.009261408
22	0xbdb16dd5	-0.08663527
23	0x3dafd37e	0.08585261
24	0x3c8ccc55	0.017187277
25	0x3e037713	0.12838392
26	0xbd8f9917	-0.070116214
27	0xbd8eb76d	-0.069685794
28	0x3de65a8b	0.112477385
29	0x3d811906	0.06303601
30	0x3cb4e4e6	0.022081804
31	0xbbb08ee8	-0.0053881295
32	0xbcfe84a7	-0.031069113
33	0xbd9ea9d0	-0.07747233
34	0xbd484e44	-0.048902765
35	0x3da22b63	0.079184316
36	0xbc7212d2	-0.014774995
37	0x3d9cf3dd	0.07663701
38	0x3a919c78	0.0011109253
39	0x3d6962f0	0.05697912
40	0x3dc271ff	0.09494399
41	0x3cc1bb4e	0.023648884
42	0x3d7ebd38	0.06219217
43	0x3cf3075b	0.029666593
44	0xbd8e0be6	-0.06935863
45	0x3dd46dae	0.10372482
46	0xbd70546f	-0.058674272
47	0xbdb72c43	-0.08943989
48	0xbcec5208	-0.02884771
49	0x3d360c45	0.044445295
50	0x3ce447cb	0.027866265
51	0x3d6dd1bf	0.058061358
52	0x3db708eb	0.08937248
53	0x3d01bf38	0.0316765
54	0xbd89915d	-0.06717179
55	0x3de34480	0.1109705
56	0x3ddd8ee8	0.10818273
57	0x3db23b3c	0.08702704
58	0xbd5bc82b	-0.053657692
59	0x3d06bd22	0.032895215
60	0x3d27ae4e	0.040937714
61	0x3d5d7777	0.05406901
62	0x3cf30fdf	0.029670654
63	0x3d4e00c3	0.050293695
64	0x3cdf7a52	0.027280007
65	0x3c57ca8a	0.013170848
66	0x3ce7fa73	0.028317666
67	0xbd0193fe	-0.031635277
68	0x3dc558ee	0.096361026
69	0xbd145775	-0.036216218
70	0x3dac7cf5	0.08422271
71	0x3e06eaff	0.13175581
72	0x3ca27e09	0.019835489
73	0x3d89e8e4	0.067338735
74	0x3e15f1e5	0.14643057
75	0xbc2e849d	-0.010651735
76	0x3cce2aa2	0.025166813
77	0xbd6bb6d4	-0.057547405
78	0x3c03a6e2	0.008035393
79	0x3ccba87f	0.024860619
80	0xbd2c3587	-0.042043235
81	0xbd9b56e5	-0.07584933
82	0x3daa680f	0.08320629
83	0xbd05b370	-0.032641828
84	0x3d9faf50	0.0779711
85	0xbd21e0f3	-0.03952117
86	0x3d765f7a	0.060149647
87	0x3d33fb09	0.043940578
88	0x3e0caa35	0.13736804
89	0xbbd083bc	-0.00636336
90	0xbcc9de49	-0.024642127
91	0x3dbb2722	0.09138323
92	0xbd7befb5	-0.0615079
93	0xbbaf60bd	-0.0053521083
94	0x3d763d24	0.060116902
95	0xbcb81992	-0.02247313
96	0x3e047e02	0.12938693
97	0x3dce2194	0.10064998
98	0xbd5ce56c	-0.05392973
99	0xbb7fda68	-0.0039040092
100	0x3d3bab12	0.045817442
101	0x3d8e7083	0.06955054
102	0xbcaf5154	-0.021401085
103	0xbdbfe247	-0.09369331
104	0xbcccfa18	-0.025021598
105	0xbdb1abcb	-0.08675345
106	0xbca97180	-0.020684004
107	0x3d7081d6	0.05871757
108	0xbd5da910	-0.05411631
109	0xbdc1f68f	-0.094708554
110	0xbc1a8c68	-0.0094328895
111	0xbcc08540	-0.023501039
112	0x3d38ea72	0.04514546
113	0xbd41f81a	-0.04735575
114	0xbdc6e5c0	-0.0971179
115	0xbd86b720	-0.06577897
116	0x3d9a1e1d	0.07525275
117	0x3d657bd6	0.056026302
118	0x3dc57807	0.09642034
119	0xbd1743ac	-0.03692977
120	0xbc17d630	-0.009267375
121	0x3c436f40	0.01192838
122	0xbd5af493	-0.0534559
123	0x3d834d49	0.06411225
124	0xbcc673c8	-0.02422513
125	0x3d9e51eb	0.07730468
126	0x3c5fe128	0.013664521
127	0xbd5f2a7a	-0.05448387
128	0x3cf31e04	0.029677399
129	0xbc0000e8	-0.007812716
130	0xbdca3390	-0.09873116
131	0x3d2d94a2	0.042378075
132	0xbd92fbbe	-0.07176922
133	0xbcc576ec	-0.024104558
134	0x3d6d8412	0.05798728
135	0xbd7c48da	-0.061592914
136	0x3dbeea89	0.09322078
137	0x3d544b0e	0.05182939
138	0x3ca9b20c	0.020714782
139	0x3c014530	0.007890031
140	0xbdc5d057	-0.09658878
141	0xbd0d9320	-0.034564137
142	0xbc488b90	-0.012240306
143	0xbdb29a58	-0.08720845
144	0xbc965fe0	-0.018356264
145	0x3db772d1	0.08957446
146	0xbd102f7c	-0.035201535
147	0xbdc65090	-0.09683335
148	0xbc5bafd8	-0.013408624
149	0xbd42b11a	-0.04753218
150	0x3b3683a0	0.002784945
151	0x3d36a4ce	0.044590764
152	0x3d8e99bb	0.069629155
153	0x3dc1f533	0.09470596
154	0xbad772c0	-0.0016437396
155	0x3d906533	0.07050552
156	0xbd93f8c8	-0.07225186
157	0x3d04e5e2	0.032445796
158	0xbc256a98	-0.010096215
159	0xbdb09b48	-0.086233675
160	0x3d80b669	0.06284792
161	0xbdc0438f	-0.09387886
162	0xbccdab88	-0.025106207
163	0xbdafbfcb	-0.085815035
164	0xbc7b3780	-0.015333056
165	0xbd1480c4	-0.036255613
166	0x3b17d6c0	0.0023168772
167	0x3ce45de4	0.027876802
168	0xbc0bdc68	-0.008536436
169	0x3cc59348	0.02411808
170	0x3da6f4c9	0.08152158
171	0x3d3e100a	0.046402015
172	0xbd904618	-0.07044619
173	0x3d357b12	0.044306822
174	0xbc6ac2b0	-0.014328644
175	0xbd983d9d	-0.07433627
176	0x3d2212d2	0.03956873
177	0x3dba898d	0.09108267
178	0xbd32011d	-0.043458093
179	0x3cccfea4	0.025023766
180	0x3d03819a	0.03210602
181	0xbd2b23bd	-0.04178213
182	0x3d8554c1	0.06510306
183	0x3daa4c99	0.08315391
184	0xbc473128	-0.012157716
185	0x3db548e5	0.08851794
186	0xbd591c77	-0.05300566
187	0x3cb35660	0.021891773
188	0xbd9eec32	-0.077598944
189	0x3d33e396	0.043918215
190	0x3d4d0f8e	0.050063662
191	0x3db7f731	0.08982695
192	0x3ca698e0	0.020336568
193	0x3d6e2f82	0.058150776
194	0x3c18c810	0.009325042
195	0x3d0cedf6	0.034406625
196	0x3db472b9	0.08810944
197	0x3d96fdeb	0.0737265
198	0x3d3de9aa	0.046365418
199	0x3b30eea0	0.00269977
200	0x3cb2e942	0.021839742
201	0x3ba5409e	0.0050431034
202	0xbc737da4	-0.014861498
203	0xbc567253	-0.01308878
204	0xbca27741	-0.019832255
205	0xbcb342cb	-0.021882435
206	0xbdff52e5	-0.12466983
207	0x3d0088bd	0.031380404
208	0x3cc5adc2	0.024130706
209	0xbcc681f6	-0.024231892
210	0x3dfda17d	0.12384317
211	0x3ddc6a12	0.10762419
212	0x3dca4fb4	0.098784834
213	0xbde76420	-0.11298394
214	0x3d4913d7	0.049091186
215	0xbdccf914	-0.100084454
216	0x3c23aabe	0.009989439
217	0x3d168dc3	0.03675629
218	0x3bc0d21e	0.005884423
219	0x3d87b3bd	0.06626079
220	0x3dc35dae	0.09539352
221	0xbcb891c9	-0.022530453
222	0x3d5c4f64	0.05378665
223	0x3d39dfbd	0.04537939
224	0x3cb7de9f	0.022445021
225	0x3e18d4e7	0.14924966
226	0x3d2ddbc8	0.042445928
227	0xbca6cda1	-0.020361723
228	0x3d6e00b5	0.058106143
229	0xbdc14d21	-0.09438539
230	0x3e017367	0.12641679
231	0x3dbf8e72	0.09353341
232	0xbe08dcc5	-0.13365467
233	0x3d040a51	0.0322364
234	0x38a4372e	7.8304074e-05
235	0xbca83027	-0.020530773
236	0x3d1543b7	0.03644153
237	0x3d27790c	0.040886924
238	0xbcb46baf	-0.022024004
239	0xbd957c6c	-0.07299122
240	0x3d403e58	0.046934456
241	0xbdb23284	-0.08701041
242	0xbd9fac2e	-0.077965125
243	0x3c06a1b5	0.008217265
244	0x3d3efa1a	0.046625234
245	0xbd33b066	-0.0438694
246	0xbd30c6fb	-0.043158513
247	0x3d106002	0.03524781
248	0xbdff2c76	-0.12459652
249	0x3da4e87b	0.08052155
250	0x3be18cff	0.006883263
251	0xbdca7181	-0.098849304
252	0x3b5e9703	0.0033964522
253	0x3c2a5104	0.010395292
254	0x3dd1dc02	0.10247041
255	0x3db491f4	0.08816901

bias_hh_l0 f4 [400]
0	0xbca8e493	-0.020616805
1	0xbd14a80c	-0.036293074
2	0x3daa6308	0.0831967
3	0xbb7ef05e	-0.0038900594
4	0xbcce4e8c	-0.025183938
5	0xbd3b9ad2	-0.045801945
6	0x3dee6a92	0.116414204
7	0xbd051d3f	-0.032498594
8	0x3e06d16a	0.13165823
9	0x3d0bac90	0.034100115
10	0x3daa443f	0.08313798
11	0xbd7aea8d	-0.06125884
12	0x3d3a1b2e	0.045436077
13	0xbcbaffa0	-0.02282697
14	0xbc9c0c7d	-0.019048924
15	0x3d8613df	0.06546759
16	0x3da1c6b7	0.0789923
17	0x3d96a037	0.07354777
18	0xbd338e59	-0.043836925
19	0x3c761b07	0.015021092
20	0x3ddb162b	0.106975876
21	0x3c8a93cd	0.01691618
22	0xbd4aec45	-0.04954173
23	0x3e1ff3b4	0.15620309
24	0xbac8dc4e	-0.0015324445
25	0x3cf2751b	0.029596856
26	0x3a9af058	0.0011820896
27	0xbd1f8b78	-0.038951367
28	0x3daaa489	0.08332164
29	0xbc85d0f3	-0.016334986
30	0x3c4ea139	0.012611681
31	0xbd635eb9	-0.055510256
32	0xbbeda3bd	-0.007252185
33	0x3c96425c	0.01834219
34	0xbd21e528	-0.03952518
35	0x3de1f48f	0.11032974
36	0xbda63f97	-0.081175976
37	0x3d905ba7	0.07048731
38	0xbd6b7b2e	-0.05749052
39	0x3d0e52ee	0.034747057
40	0x3d300e6e	0.04298251
41	0x3cc28be2	0.023748342
42	0xbb510fb9	-0.003190024
43	0x3ddfeab8	0.10933441
44	0xbd614927	-0.055001404
45	0x3cf7efc2	0.030265693
46	0x3dc34456	0.095345184
47	0xbd396e3c	-0.045271143
48	0x3c82679d	0.015918547
49	0x3b5efab2	0.0034023938
50	0x3cf8b639	0.030360328
51	0x3a0fe01d	0.00054884126
52	0xbd034bac	-0.03205459
53	0x3dfeed31	0.124475844
54	0xbb897f7b	-0.004196105
55	0x3da2cb92	0.07948984
56	0x3db05a69	0.08610994
57	0x3cebdbe7	0.028791381
58	0x3c2cbbae	0.010542793
59	0x3dfa5b3f	0.12224435
60	0xbc43f468	-0.011960126
61	0x3d280326	0.041018628
62	0x3dc921e2	0.09820916
63	0x3dcbcde7	0.09951382
64	0x3daf2a09	0.085529394
65	0xbd9b721e	-0.075901255
66	0x3da9c9b6	0.082904264
67	0x3c73a7c0	0.014871538
68	0x3c871717	0.016490502
69	0x3d8b0cdb	0.06789561
70	0xbcef1be2	-0.0291881
71	0x3d9c31de	0.07626699
72	0xbd297d5b	-0.041379314
73	0x3d681bc0	0.05666709
74	0x3de1a89c	0.11018488
75	0x3e106ded	0.14104433
76	0x3bab165d	0.005221172
77	0xbd34c61c	-0.044134244
78	0xbd3c446a	-0.045963682
79	0xbd5564cc	-0.05209808
80	0x3dfba872	0.12287988
81	0x3b391704	0.0028242478
82	0x3d2a39f0	0.04155916
83	0x3e00f019	0.1259159
84	0x3d0359f8	0.032068223
85	0xbb8efd2c	-0.0043636765
86	0x3e15d5ae	0.14632294
87	0x3bf25980	0.007395923
88	0x3d12cd54	0.035840347
89	0xbc92ab30	-0.017903894
90	0xbd860a5d	-0.065449454
91	0x3da253f2	0.079261675
92	0x3dccfda3	0.10009315
93	0x3dfa1f0e	0.122129545
94	0x3d34ccef	0.044140752
95	0x3d191e7e	0.037382595
96	0xbcddd56a	-0.027079303
97	0x3d38c6b4	0.045111373
98	0xbd19c1ad	-0.03753822
99	0x3d788927	0.060677674
100	0xbd4004ca	-0.046879567
101	0xbd96ff05	-0.0737286
102	0x3c92be8c	0.017913125
103	0x3daeec69	0.085411854
104	0x3dc316d1	0.09525836
105	0xbd9d6798	-0.076857746
106	0x3d4a0b52	0.049327202
107	0x3dc82755	0.09773127
108	0x3d1fc562	0.0390066
109	0x3dacc811	0.08436597
110	0x3db0c421	0.086311586
111	0xbcb33674	-0.021876551
112	0xbda991c0	-0.08279753
113	0xbd7e71a0	-0.06212008
114	0x3cb1078c	0.021610044
115	0x3d8267c1	0.06367446
116	0xbc006ee8	-0.007838942
117	0xbd7846e0	-0.060614467
118	0xbd8776d0	-0.066144586
119	0x3db0b00d	0.08627329
120	0x3ca9e718	0.020740077
121	0xbd62ff13	-0.05541904
122	0x3dc47749	0.09593064
123	0xbd2e2a5d	-0.04252087
124	0x3da1bd7d	0.0789747
125	0xbdb88bcd	-0.0901104
126	0xbd9c6806	-0.076370284
127	0xbdc0796b	-0.09398159
128	0x3d1735a2	0.036916383
129	0xbd8f743e	-0.07004593
130	0xbdaded3a	-0.08492513
131	0x3d746aa2	0.059672005
132	0xbd1fa1ed	-0.038972784
133	0xbdc47cbd	-0.095941044
134	0xbd378833	-0.044807624
135	0xbcf33678	-0.029689059
136	0xbcb54df8	-0.022131905
137	0xbd4fb38d	-0.050708342
138	0x3d3a7032	0.045517154
139	0x3c9d6f14	0.019218005
140	0xbc6e02a8	-0.0145270005
141	0xbd200053	-0.03906281
142	0xbcc35198	-0.023842618
143	0x3d8de267	0.069279484
144	0xbd56c8b7	-0.05243751
145	0x3a28a280	0.0006432906
146	0x3abacb40	0.0014251247
147	0x3c879e98	0.016555116
148	0xbdb30c9b	-0.08742639
149	0xbd6f054a	-0.058354653
150	0x3da7b5df	0.08188986
151	0xbd5ea0ad	-0.05435245
152	0x3c29a8d0	0.010355189
153	0x3db5c0f5	0.08874694
154	0x3da5ada5	0.08089761
155	0x3da055e5	0.07828883
156	0xbd4d9a80	-0.05019617
157	0x3c0f5e50	0.008750513
158	0x3c17e000	0.009269714
159	0xbda31aa8	-0.07964069
160	0x3d6f7b8e	0.05846744
161	0xbd9502aa	-0.07275899
162	0xbdbcd64f	-0.092205636
163	0xbd4e0ed3	-0.050307106
164	0x3ca6dc78	0.0203688
165	0xbd857dbc	-0.065181226
166	0x3d2dddee	0.042447977
167	0x3d9981e9	0.074954815
168	0xbdb17dff	-0.0866661
169	0xbd244247	-0.04010227
170	0x3ce4f844	0.027950414
171	0xbce90dcc	-0.028448962
172	0x3d33aec2	0.043867834
173	0x3b912f50	0.004430689
174	0xbda5c308	-0.0809384
175	0xbc3d2328	-0.011544026
176	0x3d2c32ba	0.042040564
177	0xbd1945a0	-0.037419915
178	0xbda144ba	-0.07874437
179	0x3d4800b6	0.048828803
180	0xbb81f930	-0.003966473
181	0xbcf6cc6c	-0.030126773
182	0x3dbb4fad	0.09146056
183	0x3db99e1b	0.09063359
184	0x3d8db8e1	0.069200285
185	0xbdb3f6ff	-0.08787345
186	0x3da170e3	0.078828596
187	0x3cafec28	0.021474913
188	0x3d847121	0.0646689
189	0xbd3ce83d	-0.046119917
190	0x3d478d46	0.048718713
191	0x3dad005b	0.084473334
192	0x3da77009	0.08175666
193	0xbc9048f4	-0.017612912
194	0xbd112cbc	-0.035443053
195	0x3d45eeb6	0.048323356
196	0xbd9f93bd	-0.07791851
197	0x3db4ff6f	0.088377826
198	0x3d8688a9	0.065690346
199	0x3d0e7902	0.03478337
200	0x3d68c4c6	0.056828283
201	0x3e1c08f9	0.15237798
202	0xbc3e190c	-0.011602651
203	0x3dab5882	0.08366491
204	0x3d2d5b5f	0.042323466
205	0xbc4b8cf0	-0.012423739
206	0xbde21fef	-0.11041247
207	0xbda95759	-0.08268613
208	0x3d211c91	0.039333884
209	0x3d56be9a	0.052427866
210	0x3dc99141	0.09842158
211	0x3ca6100e	0.020271327
212	0x3c14d00e	0.009082807
213	0xbd91d989	-0.0712157
214	0x3d8a30bc	0.067475766
215	0x3d1993f5	0.03749462
216	0x3af7c02d	0.0018901877
217	0x3dc62823	0.09675624
218	0xbe1776e8	-0.14791453
219	0x3cb309e1	0.021855297
220	0x3c1ccd37	0.009570411
221	0x3d323df1	0.043516103
222	0x3e04b313	0.12958936
223	0xbde87f23	-0.113523744
224	0x3c9ae50b	0.018908044
225	0xbd20a833	-0.039222907
226	0x3c133e31	0.008986996
227	0x3dd8e3c1	0.105903156
228	0xbd04dbf1	-0.032436315
229	0xbb56234c	-0.0032674847
230	0x3e1442a7	0.14478551
231	0x3d09c36a	0.033633627
232	0xbdf767e0	-0.120803595
233	0x3cefea4f	0.029286532
234	0x3cdba39b	0.026811412
235	0xbd293762	-0.041312583
236	0x3d1e0b4f	0.038585003
237	0x3c63febb	0.013915713
238	0x3d227efa	0.039671876
239	0xbd1de2a2	-0.038546212
240	0xbd3530b8	-0.044235915
241	0xbda8e321	-0.082464464
242	0x3c9359f2	0.017987225
243	0xbe0247ac	-0.12722653
244	0xbd2181ef	-0.039430555
245	0x3bebb8e1	0.00719367
246	0xbd9a4686	-0.075329825
247	0x3bcf5079	0.0063267318
248	0xbd2f025b	-0.042726856
249	0x3cb3e764	0.021960922
250	0xbd90373d	-0.07041786
251	0xbe289d46	-0.16466245
252	0x3c73aa23	0.014872107
253	0xbda41655	-0.08012072
254	0xbd1bb146	-0.038010858
255	0x3e03c19b	0.12866823

weight f4 [10, 100]
0	0xbcc557b8	-0.02408968
1	0xbd92395b	-0.07139846
2	0xbc118530	-0.008881852
3	0x3d298946	0.04139068
4	0xbd872df0	-0.06600559
5	0x3d939d1d	0.07207701
6	0x3cfcf144	0.030876763
7	0x3dbc222f	0.091862075
8	0xbbcaedb0	-0.0061928853
9	0x3db90917	0.09034937
10	0xbda35982	-0.07976057
11	0xbd894522	-0.06702639
12	0x3d5f0556	0.054448448
13	0x3ca81858	0.02051942
14	0xbd833795	-0.06407086
15	0xbd8748cd	-0.066056825
16	0xbc197828	-0.009367026
17	0xbdc5db67	-0.09660988
18	0xbc87f3c0	-0.016595721
19	0x3d9702a1	0.07373548
20	0xbd8debbb	-0.06929728
21	0x3d811bc1	0.06304122
22	0x3dac2e69	0.084072895
23	0x3c1e8fd0	0.009677842
24	0xbdafda1d	-0.08586524
25	0xbd7749ad	-0.060372997
26	0xbd2e4ab3	-0.042551707
27	0xbd17a354	-0.037020996
28	0x3d90a1bf	0.070621006
29	0x3d0d9e6a	0.034574904
30	0xbdbacf58	-0.09121579
31	0xbd85d77a	-0.065352395
32	0x3d8950c1	0.06704856
33	0x3cd78804	0.026309974
34	0x3d4cbb72	0.04998345
35	0x3cae55a0	0.021281064
36	0x3db972f1	0.090551265
37	0x3da65b19	0.08122844
38	0x3da36c41	0.07979632
39	0xbda4bd65	-0.08043937
40	0xbdb9c69a	-0.09071083
41	0xbd8f105b	-0.069855414
42	0x3bb63a30	0.0055611357
43	0xbce6562c	-0.028117262
44	0x3d32cdd2	0.043653317
45	0x3d280f42	0.041030176
46	0x3db515d5	0.08842055
47	0xbd9b0263	-0.075688146
48	0x3d4a3ad2	0.0493725
49	0xbaf80400	-0.001892209
50	0xbd8c6110	-0.06854451
51	0x3cb1f5b8	0.021723613
52	0xbd2e85f7	-0.042608228
53	0xbc9a3298	-0.018822953
54	0x3baeeeb0	0.0053385124
55	0x3a3eaf00	0.0007274002
56	0x3d989dd3	0.074519776
57	0x3d534eb2	0.05158872
58	0x3b88efb0	0.0041789636
59	0xbdcb191b	-0.09916898
60	0x3d877519	0.066141315
61	0xbd60d4f3	-0.054890584
62	0xbdb74fd0	-0.0895077
63	0x381bf000	3.7178397e-05
64	0x3d346fae	0.04405182
65	0x3d10196a	0.035180487
66	0x3d46a3ea	0.048496164
67	0x3d0d6402	0.034519203
68	0xbdb83628	-0.089947045
69	0xbc342ed8	-0.010997497
70	0x3abde340	0.0014487281
71	0x3d5c17a2	0.053733476
72	0x3d8e3025	0.069427766
73	0x3caf1398	0.021371648
74	0xbc8659a0	-0.016400158
75	0xbdb0b64b	-0.086285196
76	0xbc028790	-0.007966891
77	0x3b0715a0	0.0020612255
78	0x3d2ffdea	0.04296676
79	0xbd3d72d7	-0.046252098
80	0xbd14c4a6	-0.03632035
81	0x3dadff15	0.08495919
82	0x3c367790	0.011136904
83	0x3d34305a	0.043991424
84	0xbcf5b00c	-0.029991172
85	0x3cc9906c	0.024604999
86	0xbdc6096f	-0.09669768
87	0xbd2d0190	-0.04223782
88	0x3db1c67d	0.08680437
89	0x3d2e5472	0.042561002
90	0x3d9caf79	0.07650656
91	0x3d362ed6	0.04447826
92	0x3d093062	0.033493407
93	0xbcf9bca8	-0.030485466
94	0xbca98a08	-0.020695701
95	0xbdca9f37	-0.09893649
96	0x3d9e5c49	0.07732446
97	0xbd3243a3	-0.043521535
98	0x3c36ff98	0.011169337
99	0x3d15e39e	0.036594026
100	0x3d224e52	0.039625473
101	0xbc73d0d8	-0.014881335
102	0xbd65b190	-0.05607754
103	0xbd3848ad	-0.044991184
104	0xbb491d00	-0.0030687451
105	0x3a98b280	0.0011649877
106	0x3d2a0672	0.041510053
107	0xbd28699d	-0.041116346
108	0xbc515d40	-0.01277858
109	0xbcc34640	-0.023837209
110	0xbdbf40f0	-0.09338558
111	0x3a806080	0.0009794384
112	0xbd059420	-0.032611966
113	0x3b8c8ce0	0.0042892545
114	0xbd96fc1b	-0.07372304
115	0xbd1e5c23	-0.038662087
116	0xbdb4e6da	-0.08833094
117	0x3d371a92	0.044703074
118	0xbd9a59e5	-0.07536677
119	0x3db101c9	0.086429186
120	0xbd389b5d	-0.04507004
121	0xbd1cc0cd	-0.038269807
122	0xbc516e58	-0.012782656
123	0xbc3c6e70	-0.01150094
124	0x3db594f5	0.08866302
125	0xbd4094cd	-0.047016907
126	0x3dbe9cb9	0.09307236
127	0x3d7ae502	0.061253555
128	0xbc58f050	-0.013240889
129	0x3ccd731c	0.025079302
130	0xbd83f4a4	-0.06443146
131	0xbd96fe7d	-0.073727585
132	0x3db36ba9	0.08760769
133	0x3dacbec1	0.08434821
134	0x3dadeca1	0.08492399
135	0x3cdc5af4	0.026898839
136	0x3d821639	0.06351895
137	0xbdb96560	-0.09052539
138	0x3d65fb92	0.05614812
139	0x3d9ecfcf	0.0775448
140	0xbb6ab440	-0.0035813004
141	0xbd9b93b2	-0.0759653
142	0xbda07e35	-0.07836572
143	0xbdad5045	-0.08462576
144	0x3d369f6e	0.044585638
145	0x3db956a7	0.09049731
146	0xbd848536	-0.064707205
147	0x3d939d69	0.07207758
148	0x3c5fede8	0.013667561
149	0xbdc626f5	-0.09675399
150	0xbd0397e4	-0.032127276
151	0xbd8f87fa	-0.07008357
152	0xbd96e096	-0.07367055
153	0xbd887aa4	-0.06664017
154	0x3da05811	0.07829297
155	0xbd90a7fb	-0.0706329
156	0xbd59d7f7	-0.053184476
157	0x3d587b86	0.052852176
158	0x3d1a9e72	0.03774876
159	0xbd737593	-0.0594383
160	0xbd56f4ca	-0.052479543
161	0x3d699dd2	0.057035275
162	0xbd6ef5d3	-0.058339905
163	0x3d1d0222	0.038332112
164	0x3db50069	0.08837969
165	0x3d79ef4a	0.06101922
166	0x3caf260c	0.021380447
167	0xbc06b400	-0.008221626
168	0x3bb92750	0.0056504384
169	0x3ac952c0	0.0015359744
170	0x3d2f6d4a	0.042828836
171	0x3d80a437	0.062813215
172	0x3d71569e	0.058920495
173	0xbd7da007	-0.061920192
174	0xbdc860bf	-0.09784078
175	0xbdca8c9a	-0.09890099
176	0x3dbe1bd1	0.09282649
177	0x3d850db7	0.064967565
178	0xbd9496c2	-0.07255317
179	0xbd827cae	-0.06371437
180	0x3d4946f6	0.04913994
181	0xbc8d4d74	-0.017248847
182	0xbdb67943	-0.089098476
183	0x3da78a9f	0.08180737
184	0xbc3efa68	-0.011656381
185	0x3dc075b1	0.09397448
186	0x3b87f600	0.0041491985
187	0xbc49d690	-0.012319222
188	0xbd4987aa	-0.049201645
189	0x3ccfa1f4	0.02534578
190	0x3d076276	0.033052884
191	0xbd712e53	-0.05888207
192	0xbd1c60f3	-0.038178395
193	0xbd9b409b	-0.07580682
194	0xbcc45260	-0.02396506
195	0x3dc9d661	0.09855343
196	0x3d41ecda	0.04734502
197	0x3bc7e250	0.0060999766
198	0xbd5dff00	-0.054198265
199	0x3d23f482	0.040028103
200	0x3d9f1707	0.07768064
201	0xbdc7c03f	-0.09753465
202	0x3d6e1a86	0.058130763
203	0xbd1e7ab3	-0.038691234
204	0x3d627a8a	0.055292644
205	0x3da6cc27	0.08144408
206	0x3d956f0b	0.072965704
207	0x3c190810	0.009340301
208	0xbac8f6c0	-0.0015332326
209	0xbc49c6f0	-0.012315497
210	0xbdafafe7	-0.085784726
211	0xbdc76bc7	-0.09737354
212	0xbdc63df7	-0.096797876
213	0x3b04d960	0.0020271167
214	0xbc518c18	-0.012789749
215	0x3d2c3f1a	0.042052366
216	0xbd497ed0	-0.049193203
217	0x3da03f8d	0.07824621
218	0xbdc5d988	-0.096606314
219	0xbd4bdd50	-0.049771607
220	0xbc7836c0	-0.015149772
221	0x3d38de22	0.045133717
222	0x3d86cc1b	0.06581899
223	0xbdc242f3	-0.09485426
224	0x3d7a4c2a	0.061107792
225	0x3d6dad96	0.058026873
226	0xbd721dd0	-0.059110463
227	0xbd03b45c	-0.032154426
228	0xbd5faca3	-0.054608
229	0xbc2292a8	-0.009922661
230	0x3d3a793e	0.04552578
231	0x3d32dfe2	0.043670543
232	0xbd52764a	-0.05138234
233	0xbdba9ffd	-0.091125466
234	0x3b9d9800	0.0048093796
235	0xbd8b7fb8	-0.0681147
236	0x3d560086	0.052246593
237	0x3d5e46e2	0.054266818
238	0xbdae6be8	-0.08516675
239	0xbd978848	-0.073990405
240	0xbd493efa	-0.049132325
241	0x3d225992	0.039636202
242	0x3d669ee2	0.056303866
243	0xbc211d70	-0.009833679
244	0xbdc91d88	-0.09820086
245	0xbd73e253	-0.05954201
246	0x3d94affd	0.072601296
247	0xbc43cde8	-0.011950947
248	0xbdc7f68f	-0.09763824
249	0x3ca1898c	0.019718908
250	0x3d327ef2	0.043578096
251	0x3d149f1e	0.03628456
252	0x3d2aeb36	0.04172822
253	0xbd4f84d3	-0.05066378
254	0xbcb012e8	-0.02149339
255	0x3da05571	0.07828797
