core/models/nlu/command/binary/binary_classifier.pt (torch, 785658 bytes, 35 tensors)

weight_ih_l0 f4 [400, 300]
00000000: 90e9 c8bc 2eef 12be 3c6a b83d 2fc8 ce3c
00000010: 48a9 53bd b3db f8bd 7645 6e3d 5da7 0dbd
00000020: 25a3 193d 1738 ad3c c7ee b4bd bd26 ba3d
00000030: 83fd b03d 4db1 8cbd 85a5 e0bc 1d6d 083e
00000040: 22ef b03d 7e7f ee3c 2e73 0d3d 5b9c 95bd
00000050: 5bd7 273d da81 cfbd e591 69bd 56b6 863c
00000060: 0738 3cbd 1508 c03c 78c0 763d efdf 32bd
00000070: d6ff 4cbd 87d1 b0bc 92c5 ec3b f38a bb3d
00000080: 8777 6e3c 8a36 113e 6e5a 30bd 0f5d c43d
00000090: f046 00be a6ee debc e030 103d 8286 d13d
000000a0: d810 6f3d c535 e0bd bdfb babc b5e8 90bd
000000b0: 0e03 76bd 2c5d 0bbd 36e9 9c3b 8a82 1f3d
000000c0: 0c37 0d3d 43a7 13bd ef64 39bd 0ed5 a1bd
000000d0: b89f 8f3d dce6 d33c 93dc 863c 0b2e 2e3c
000000e0: 5fd7 a2bd 8be2 5ebd 6c13 67bd 12db 093c
000000f0: e297 de3d 1132 ccbd 6628 f7bd ae82 b93b
00000100: 1b82 2f39 6fb6 34bd 8c08 823d d950 b53c
00000110: d3e3 db3d ee2f ff3c 4cac 8dbd 8d4c 03be
00000120: 4f8b 433d 921b e43d 74dd f1bc 7064 e83c
00000130: 757c b43d 658b 85bd 8c3d 8a3d ad31 ba3d
00000140: 84d9 dbbd 29ed b5bd a75b dabd e9f0 9dbd
00000150: dd41 1d3d 1038 343e 8156 393d 74d5 333d
00000160: d5dd 9a3c aea1 893d 0d59 0cbc f28f 963d
00000170: 77cf 2dbd 47b9 21bc 9573 29bd ea48 dc3c
00000180: 1e85 17bd fbb9 893d 1a67 20be b749 eabd
00000190: 5f07 853d 6b3e 9a3d f5a8 723d b234 dabd
000001a0: 78a5 c13d 59f3 00bc 2f15 613c 3956 7abd
000001b0: 9f57 50bd 225a 82bd f6f7 4f3d dbc5 a2bc
000001c0: 48fd f23c e9da 1c3d f7eb dcbc c929 953d
000001d0: b964 86bd 44ff d8bd 623d edbc 4633 46bc
000001e0: 953c 6b3d 7e4b 1d3c 943e e9bc bc8e 42bb
000001f0: 7f7b f93c efec 10be d346 2d3a 4ef0 97bd
00000200: d2b9 07be f5ce 013d d049 413d 1447 c0bc
00000210: 4bde 95bd 36e3 09be dd92 a5bd 3861 563d
00000220: 5052 7d3d 66a4 b2bc a145 8dbd b987 08bd
00000230: f03d 4e3d e985 263d 1cc2 693c 9f97 65bc
00000240: 44f7 a6bd 610e 81bd e424 0f3e 854c d13d
00000250: a649 dabd c390 9c3d 3ea8 cabd 0b63 40bd
00000260: 187b 143e a6b6 0abc 3260 91bd 5aaf 9ebd
00000270: 16c0 8ebc 3b44 e23c a3bc 1c3e 43d1 db3c
00000280: b865 bbbc ce13 79bd dc52 0dbd dc19 4d3d
00000290: c00a 033e 0477 b03d 1674 5c3c 9923 c5ba
000002a0: 8485 3f3c 8a69 74bd 44ad 843c efb2 2a3c
000002b0: d31b 9e3d 0235 06bd a254 203e 2b53 5bbd
000002c0: b11d 873d 3148 a73c 4b61 aabb 6da5 413d
000002d0: 0cd0 71bd 44a7 9ebd c494 b1bd c34f 1f3d
000002e0: dc76 8e3d 93cd 4e3d 900c d2bd b847 ad3c
000002f0: 9fe8 82bd b2fe 9d3d 8928 c3bd 5a59 b0bd
00000300: 9ddc 8c3d 992f 903d 2ceb d13d 9d18 aebc
00000310: fefb da3d 1de2 583d 4b05 09bd aa96 173d
00000320: b868 1e3d da6b ab3d 4d76 8dbd a56a a33b
00000330: 7a5b a13d ff65 8e3d a49e eb3c a551 65bd
00000340: 263c c5bd a983 0dbe 6075 5c3d 846f e13d
00000350: 6aca fcbc b236 9cbd c348 d8bd 3f46 b83d
00000360: 621e 79bb 13d7 c53d dead 09bd 83fb 023e
00000370: 5208 3dbd 4121 6f3d 20be c9bd 7351 1bbd
00000380: 86f0 37bc 55bd 70bd ec39 e83c 91cd d2bd
00000390: d1a9 03bd 8f4f 93bd 7783 023e d63a 0f3d
000003a0: 4081 6d3c bfbc c83d 90b8 8f3d bcb0 da3c
000003b0: bc91 47bc de3d b5bc 2d24 d73d 3a2f afbd
000003c0: 3398 bcbd 364d 0b3d 865b 76bd aa2e cebd
000003d0: 6228 12bc 4a11 18bb a2c1 953d 4744 5bbd
000003e0: a17f bebd 2a12 3bbd 80bc 793c fad3 313d
000003f0: 8850 0fbe c1d8 183e 9044 db3d 9e82 b83d
-0.024525434 -0.14349052 0.090046376 0.02524194 -0.05167511 -0.12151279 0.05817171 -0.03458344
0.037509102 0.02114491 -0.08834606 0.0908942 0.086421035 -0.06869755 -0.027422676 0.13322873
0.08639361 0.029113527 0.034533672 -0.07305213 0.040976863 -0.10132189 -0.0570239 0.016444366
-0.04595187 0.023441354 0.060242146 -0.04367059 -0.05004867 -0.021584285 0.0072257007 0.09157362
0.014554865 0.14180961 -0.04305499 0.09588062 -0.1252706 -0.027213406 0.03520286 0.102307335
0.058365673 -0.10947756 -0.022825116 -0.07075635 -0.060061507 -0.034024402 0.004788543 0.03894285
0.034476325 -0.036048185 -0.045262273 -0.07901965 0.07012886 0.025866918 0.0164626 0.010631095
-0.07951235 -0.054415267 -0.056415007 0.008414047 0.10868813 -0.09970487 -0.12068252 0.00566133
0.00016737769 -0.044119295 0.063492864 0.022133278 0.107368134 0.031150784 -0.06917629 -0.1282217
0.047740277 0.11138071 -0.029524542 0.028368205 0.08812801 -0.06520728 0.067500204 0.09091506
-0.10734847 -0.08883125 -0.106620125 -0.077119656 0.03839289 0.17599511 0.045248512 0.043904737
0.018904606 0.06720291 -0.008566153 0.07351674 -0.042434182 -0.009870834 -0.041369993 0.026890237
-0.036992185 0.06724926 -0.1566433 -0.11439841 0.064955465 0.075314365 0.05924316 -0.10654582
0.09455389 -0.007870519 0.013737961 -0.061117385 -0.050864812 -0.06364848 0.050773583 -0.019869735
0.02966179 0.038294706 -0.026967986 0.072833605 -0.0656218 -0.10595563 -0.028959934 -0.0120971855
0.057430822 0.009600518 -0.028472222 -0.0029687127 0.030454395 -0.14152883 0.000660998 -0.07418881
-0.13254479 0.03169151 0.047189534 -0.023471393 -0.0731779 -0.1346558 -0.080846526 0.05233881
0.061846077 -0.021806907 -0.06898046 -0.03333256 0.050352037 0.04065505 0.014267471 -0.0140132
-0.08152631 -0.06301571 0.13978916 0.10219673 -0.106585786 0.076447986 -0.09895371 -0.046969455
0.14500082 -0.008466398 -0.07098426 -0.077482894 -0.017425578 0.027620425 0.15306334 0.026833182
-0.022875652 -0.060809903 -0.03450285 0.05007349 0.1279707 0.086164504 0.013455411 -0.0015040516
0.011689547 -0.059670962 0.0161959 0.010418638 0.07720151 -0.032765396 0.15657285 -0.053546112
0.0659746 0.020420166 -0.0051995865 0.047276903 -0.0590363 -0.07746747 -0.08670953 0.038894426
0.069562644 0.05048902 -0.10256302 0.021152362 -0.06392025 0.07714595 -0.09529216 -0.086107925
0.06878016 0.070403285 0.102499336 -0.02125197 0.10692595 0.052950013 -0.033452313 0.03700892
0.038674086 0.083701804 -0.0690733 0.0049870783 0.07878776 0.06953048 0.02876217 -0.055986065
-0.09630613 -0.13819756 0.053822875 0.11007598 -0.030858237 -0.0762762 -0.10560753 0.089977734
-0.0038012494 0.09660163 -0.03361308 0.12791257 -0.046150513 0.058381323 -0.098507166 -0.037919473
-0.011226779 -0.05877431 0.028347932 -0.10293115 -0.03214437 -0.07192909 0.12745462 0.03496822
0.014496148 0.098016255 0.070176244 0.026695602 -0.012180742 -0.022124227 0.10504947 -0.085539296
-0.09208717 0.03400918 -0.060145877 -0.10067494 -0.008920761 -0.0023203664 0.07312323 -0.05353191
-0.09301687 -0.04567162 0.015242696 0.043415047 -0.13995564 0.14926435 0.10706437 0.09009288

weight_hh_l0 f4 [400, 100]
00000000: 62c9 7a3d 4061 8dba 480c cabc e086 fdbb
00000010: 5da6 39bd 237c 23bd 4854 cfbc c66b 743d
00000020: 0086 36b9 b2f3 273d f460 b83c 044a cf3c
00000030: e854 dabc 5034 8fbb 28b5 533c 45cf afbd
00000040: 32fa 5b3d 58a4 2a3c 4b2f abbd d64d 86bd
00000050: 1a6a 57bd 3e78 093d 2451 88bd 8db9 9dbd
00000060: aa44 3c3d 4ce5 c6bc d029 0b3c fad8 bdbd
00000070: 90c0 233c e8e3 6cbc 600f d1bb c332 bb3d
00000080: 001d dbbc f4a6 ba3c 0258 623d 927c 0d3d
00000090: 2e50 213d 405e 79bc 806e 6f3c c910 a23d
000000a0: 2519 cbbd 20de e33b a942 ac3d 1a1b 32bd
000000b0: 4db4 893d 9ad3 273d 4bde bcbd d4f6 d1bc
000000c0: 32f1 3c3d 403a 88bd d83f c6bc c00a 423c
000000d0: f77d 9d3d e8cb 51bc 183a 36bc 2213 303d
000000e0: 808d 06ba 50d1 7dbd 9540 bd3d c08b 14bc
000000f0: 414e 923d 16e1 4f3d 5110 ba3d 20c3 a0bb
00000100: 2c3f a63c 6b52 96bd 4603 97bd e88b c0bd
00000110: cccb d63c 8fe2 b63d 0618 1a3d 75d8 c7bd
00000120: a512 a4bd aadb 1c3d 5734 b23d 4f27 c03d
00000130: 182c 0e3c 59ad a43d c00d 1fbd 8053 d3bb
00000140: 45c6 b63d ec60 843c 8d5a b43d a44a e03c
00000150: 8095 0cbd 182b 283c 0018 9fbc 53bf 90bd
00000160: fccd f93c 88f5 97bc 405f e2ba b7a2 c0bd
00000170: 0a08 6e3d 7367 9bbd 945b ab3c 401d 103c
00000180: 058b 89bd 005d c8b9 700c 59bd 48f2 9c3c
00000190: 736f 9abd 3e7c a9bd d072 53bd 10b2 76bd
000001a0: 1826 b3bd e828 91bc c0a1 833c a8dd af3c
000001b0: d02f 88bb 6283 103d 97ff 4abd b0bf ec3b
000001c0: 6031 95bc 3859 a2bc eb39 863d 82f8 83bd
000001d0: a2e6 133d f0b9 6fbd bb01 ac3d 38a9 b5bd
000001e0: 3a97 1f3d ba37 6d3d 6869 cbbc dd9b 63bd
000001f0: 0c3c a0bc e0cf f1bb 097b c43d 6392 6abd
00000200: 806a b63b 4dfc 833d c072 5e3b 6530 c73d
00000210: e10d ad3d 63d6 43bd b0b5 023c a005 c9bd
00000220: 6b08 a43d 515c 813d 8ab4 44bd 40b9 103c
00000230: 5889 81bc 7d59 7cbd 4092 2b3b e69e 0bbd
00000240: 21da 893d 484e 853c a04d 18bb e1c0 813d
00000250: 58bb 683c ca04 383d 04f4 f63c 6888 3c3c
00000260: 0c9d b23c 3e58 3e3d ca3d bbbd 0c05 9cbc
00000270: 80e6 223a 1897 1ebc 94d0 ccbc ba31 5a3d
00000280: f596 a63d 33d4 44bd b79d 2bbd 9e4a 97bd
00000290: 7ff4 9c3d 9966 803d e824 a5bc 5ac8 7d3d
000002a0: 60e5 843b 11eb c03d 2eda 463d a2f0 163d
000002b0: 3a62 243d 32ea 9dbd 687d 74bc b56f b73d
000002c0: 8a50 363d 81f2 8c3d 03bf 883d 26ad 0d3d
000002d0: 30e9 493c 2378 c6bd 9e07 85bd 4c13 873c
000002e0: dd18 c93d 3037 83bb b142 ba3d ccb1 863c
000002f0: d0b7 223c ccc0 b9bc e0dc 9bbc 6008 f23b
00000300: b073 adbb c0ff 06bc d85c b7bd fe0a 9cbd
00000310: 19aa 9a3d 0a94 77bd c866 81bd 7f65 903d
00000320: 3045 a1bb 2ddb b63d 10ec 01bc 9abb 2f3d
00000330: 9edf 6a3d 6caf 00bd 6810 e4bc fdc4 73bd
00000340: becb 403d 0975 813d f0a5 583c a843 85bc
00000350: e6a8 103d 588f 563c 0596 98bd ba48 523d
00000360: d84b 79bc 671f c93d 2b92 bcbd d002 373c
00000370: 34ee 80bc e2ca 163d eaec 51bd 560d 9fbd
00000380: 6f71 b7bd 1f6d c9bd 46ae 203d 3db0 b63d
00000390: 6d99 8c3d 9227 1a3d 6e03 84bd 24dd fd3c
000003a0: 752d 85bd 6061 b8bc 3961 953d 4a7f 38bd
000003b0: ad02 1ebd 54b0 d5bc 4444 f03c e1c6 9b3d
000003c0: f9ea ae3d b0a8 5f3c 8c78 a8bc 8c2d d83c
000003d0: 9c1a e53c de9a 493d 6a43 82bd daa0 63bd
000003e0: 356a 8a3d e8bb 59bc ecf2 81bc 2d12 ccbd
000003f0: 7a09 bebd 90a0 3a3c fa39 34bd 33a0 bcbd
0.06122721 -0.0010786429 -0.02466406 -0.0077370256 -0.045324672 -0.039913308 -0.025308743 0.059673093
-0.00017406791 0.04100389 0.022507168 0.025303848 -0.026651815 -0.00437025 0.012921609 -0.085844554
0.0537054 0.010415159 -0.0835863 -0.06557815 -0.05259142 0.033561938 -0.06656101 -0.07701407
0.04596392 -0.02427926 0.008493856 -0.092699006 0.009994641 -0.014458634 -0.0063800067 0.091405414
-0.026747227 0.022784688 0.055259712 0.034542628 0.039383106 -0.015220225 0.014613748 0.07913358
-0.09916905 0.0069539696 0.08411152 -0.043482877 0.06723843 0.040973283 -0.092220865 -0.025630392
0.04612846 -0.06651735 -0.024200365 0.011843383 0.076900415 -0.012804963 -0.011122249 0.042986996
-0.00051327795 -0.061967194 0.09240834 -0.009066522 0.07143832 0.050751768 0.09085143 -0.004906073
0.020293795 -0.07339939 -0.07373671 -0.09401685 0.026220225 0.08929931 0.037620567 -0.09758083
-0.08011369 0.038295425 0.08701389 0.093824975 0.008677505 0.08040876 -0.038831472 -0.006449163
0.08924536 0.016159497 0.08806334 0.027379341 -0.03432226 0.010264181 -0.019420624 -0.07067742
0.030493729 -0.018549696 -0.0017270818 -0.094060354 0.058113135 -0.07588091 0.020917691 0.008796036
-0.06715969 -0.00038216263 -0.052990377 0.019158497 -0.075407885 -0.082756504 -0.051623166 -0.060228407
-0.087475 -0.017719701 0.01606834 0.021467999 -0.0041560903 0.035281546 -0.049560156 0.0072249994
-0.01821202 -0.019817933 0.06554016 -0.064438835 0.03610862 -0.058526933 0.083987676 -0.088701665
0.03896258 0.057914473 -0.024830535 -0.055568565 -0.019559883 -0.007379517 0.095937796 -0.05726851
0.005566895 0.06444607 0.0033942908 0.097260274 0.08449913 -0.047811877 0.007977888 -0.09815526
0.08009418 0.06316436 -0.048023738 0.00883323 -0.01581256 -0.06160878 0.00261797 -0.034087084
0.06731058 0.016272679 -0.0023239627 0.06335617 0.0142048225 0.044926442 0.030145653 0.011507131
0.021803401 0.046470873 -0.09142645 -0.019045375 0.0006214157 -0.009679578 -0.025001802 0.05327008
0.081342615 -0.04805393 -0.041898455 -0.07387279 0.076638214 0.06269569 -0.0201592 0.06195865
0.004055664 0.09419835 0.048547916 0.03685058 0.04013274 -0.07710685 -0.014922477 0.08956853
0.0445104 0.068821914 0.066770576 0.034588955 0.012323663 -0.09690883 -0.064955935 0.016488694
0.098191954 -0.0040043816 0.090947516 0.016442202 0.00993152 -0.02267494 -0.01902622 0.0073862523
-0.005293332 -0.0082396865 -0.089532554 -0.07619284 0.07551975 -0.060443915 -0.06318432 0.07050609
-0.004921578 0.08928523 -0.007929817 0.04290352 0.057342164 -0.031417295 -0.027839854 -0.059514035
0.047069304 0.06321151 0.013223156 -0.016267613 0.035317324 0.013095699 -0.07450489 0.05133889
-0.015215836 0.09820443 -0.09207567 0.011170104 -0.015738584 0.036814578 -0.05125133 -0.077662155
-0.089571826 -0.09835266 0.0392287 0.089203335 0.06865201 0.037635393 -0.06445967 0.030989237
-0.06502811 -0.02250737 0.072939344 -0.045043267 -0.03857677 -0.026085056 0.029329427 0.076062925
0.08540911 0.013651058 -0.020565294 0.026388906 0.02796679 0.04921996 -0.063605145 -0.055573322
0.06758539 -0.013289429 -0.015862904 -0.09964404 -0.09279151 0.01139082 -0.044000603 -0.09210243

bias_ih_l0 f4 [400]
00000000: 4545 d93d 52e0 223e 4b83 4f3c effe 2f3e
00000010: 3d88 a43d e4e9 02bc 8696 6abd ad57 ce3d
00000020: 1dde 803d 8a6b a23c eb2d 283e a914 bb3d
00000030: c381 043e 4b3e 923c b8c9 ae3c 854c c33d
00000040: 23c7 573d c6cd c73d c07a fd3d f3b6 7cbc
00000050: eb6d 013b 086f c33d b8af fa3d 5655 323d
00000060: 9ba2 db3d 544e aa3d 551c e63b 8ece a63d
00000070: d449 b13b 3f0f 733d 294e 97bc ae79 c2bc
00000080: 724e 9a3d 2bb4 b93d ec83 913c 60f7 cdbc
00000090: 8fed 5d3a fc97 ea3d 0e71 be3d 20ff 0db9
000000a0: 940a 4b3c 351e 133e c47a 023d 6072 ba3d
000000b0: 2879 28bc 5aed f73d 699b 433d c4ad cd3d
000000c0: ba35 0d3e 2a4e 303e eb47 b5bb a027 123e
000000d0: 4308 fb3a 7660 133d 56fb 493c c629 19bd
000000e0: d099 053e 18fc 073e 2070 c63d f91f fc3d
000000f0: 24f9 ed3d 2f14 b93d 9887 ae3d 10e1 3b3d
00000100: 336b af3d d331 0d3c 227d ee3b fd96 a33d
00000110: 3477 1d3e 163a a63d d699 28bd 851e 783d
00000120: 429b 95bd 903d 80bb 3222 883d b23f 073d
00000130: 68f0 d1bb 7d12 213e d591 773e f200 f53c
00000140: 926b 983d 7284 e13c c551 003e 5f33 543d
00000150: d5a6 97bc 9b6f ee3d ca9b 803c 0b6e 0a3d
00000160: 4285 5d3d 2505 be3c 3feb 033e 7d91 b53d
00000170: 8af5 093b 93c3 43bc e546 853d de61 1c3e
00000180: 9e54 f53d da36 1b3e ed9b 853d 377d 383e
00000190: 60b9 dcbb 40e4 073c 8454 d03c 2c58 f3bc
000001a0: a0a5 91bd 68fe 4c3c 913e a63d 8d3c 98bd
000001b0: ec16 9b3c 002d b5b9 aa78 c3bd ca96 603d
000001c0: 984d 16bc f157 9f3d be04 6d3d 9d5d 79bd
000001d0: 676c 3dbd 7521 a93d 6db1 893d b0c8 dc3b
000001e0: d84e 1d3c 00ef 9b3c aa82 77bd a06c a9bb
000001f0: 70ee 013c d88c 92bc a68e 85bd 32b9 4e3d
00000200: 62a4 8fbd 8738 ccbd 678d 69bd 2072 0dbd
00000210: b578 b53d b0d7 38bc 53f3 22bd 0917 943d
00000220: 4c23 b6bc 80d4 79bc 1852 a13c 60b5 633b
00000230: 28be a8bd 5967 bc3d 7ad4 abbd b63a 03bd
00000240: 123a 6f3d 8a8b 2c3d a07d 72bd d063 5dbc
00000250: d3a2 873d 1baa a8bd 9e07 433d b866 afbc
00000260: c7f5 b7bd 001d aabc ca6f 5abd 4a4c 473d
00000270: 8051 2c3c 30c1 84bb 98f8 02bc 02e9 5d3d
00000280: f2cb a4bd 4075 5c3c bd57 26bd d3e0 45bd
00000290: 309c 69bc 5c37 d83c 8ba5 bc3d 9793 65bd
000002a0: ec31 dbbc 90ba aebd bea1 5e3d 53d6 78bd
000002b0: 72a0 babd f70d a93d 2b7b a9bd f4da 9bbc
000002c0: e82c 94bd 6ac5 c5bd 51f9 9e3d 3691 a2bd
000002d0: aa9e 1f3d 5ed4 793d 54d7 b13c f45c 87bd
000002e0: ec64 bbbc 307a 3a3c 5e22 aabd 58fe 963c
000002f0: a840 a1bc 9e2f 653d 4d15 a6bd c0c7 463b
00000300: 9199 893d cc9e 09bd ca71 60bd 38c0 dcbc
00000310: b925 973d 02dc 5d3d b4c3 d2bc f14e a53d
00000320: 01f1 003e b98a afbd 9be1 383c 4356 383d
00000330: 6fb3 00bc 1b70 07bd 7669 81bd c0d1 aebd
00000340: 46b1 ed3d 0b2d fa3d 63db c7bd 12a5 043e
00000350: 6cc7 ddbd 81a0 0a3d 000c e13d 1f35 3b3d
00000360: 1b76 f93d b759 12bd c05f 5c3d 4a02 fe3d
00000370: 8ba4 cebd 5f72 70bb ade5 523c 6019 9ebd
00000380: be38 cf3c f974 0f3e 8cb0 bdbd 8f55 30bd
00000390: 8c25 e73c d69a bbbd 3b2c 0a3d adc0 c2bc
000003a0: ed6a 94bc 82fc a73d ad57 1b3e 15de 51bd
000003b0: 272c fdbd c200 b7bd f4de 563b 0f8b e6bd
000003c0: f2f6 c23d 829b 02be 7f36 81bc e884 3f3c
000003d0: afb0 21be ac07 953d d0c6 fcba 9641 fabd
000003e0: 3c09 c33c 718e 09be f9e6 42bd d37f 333b
000003f0: 1129 433d 38a5 0bbe e2c7 87bd 6c33 113e
0.10608915 0.15905884 0.01266558 0.17187093 0.08033798 -0.007990334 -0.057272457 0.100753166
0.06292365 0.01982667 0.16423766 0.091348 0.12940125 0.01785197 0.021336421 0.09536079
0.052680146 0.09756045 0.12376928 -0.015424478 0.0019749354 0.09542662 0.12240547 0.043538414
0.10724374 0.08315721 0.0070224204 0.08144866 0.0054104123 0.05934071 -0.018469887 -0.023739662
0.075344935 0.090675674 0.0177631 -0.025142372 0.000846588 0.1145477 0.09298907 -0.0001354185
0.012392659 0.14366992 0.03185536 0.091038465 -0.010282792 0.12105818 0.047755633 0.10042909
0.13790026 0.17217317 -0.005532255 0.14272928 0.0019152242 0.035980664 0.01232799 -0.037393354
0.13046956 0.1327976 0.09689355 0.12310786 0.116197854 0.09037053 0.08521956 0.045868933
0.085653685 0.008617836 0.0072781006 0.07987783 0.15377504 0.08116548 -0.041162334 0.06057598
-0.07305004 -0.003913589 0.06647147 0.03301973 -0.0064068325 0.15729709 0.24176724 0.029907677
0.074423924 0.027528975 0.12531193 0.051806804 -0.018512169 0.11642381 0.015699286 0.03379635
0.054082163 0.023195812 0.12882708 0.0886564 0.0021050894 -0.011948484 0.06507663 0.15271708
0.1197903 0.15157643 0.06523881 0.18016516 -0.0067359656 0.008294165 0.025430925 -0.02970513
-0.071116686 0.012511827 0.08117402 -0.07433424 0.018931828 -0.00034556538 -0.09544499 0.054831304
-0.009173773 0.07780445 0.05786585 -0.060880292 -0.04624596 0.082583345 0.067232944 0.006737791
0.009601317 0.019034863 -0.060427345 -0.00517042 0.007930383 -0.017889425 -0.06521349 0.050469585
-0.070137754 -0.09971719 -0.057019617 -0.034532666 0.08860914 -0.011281893 -0.039782833 0.07230956
-0.022233628 -0.015248418 0.019692466 0.003474556 -0.082393944 0.091993995 -0.08390136 -0.032038413
0.05840499 0.042125262 -0.059201837 -0.013512567 0.06622853 -0.0823557 0.047614686 -0.021411285
-0.08982425 -0.020765781 -0.053329267 0.04865674 0.010517478 -0.00405135 -0.00799384 0.05417729
-0.08046712 0.013455689 -0.040611017 -0.048310112 -0.014258429 0.026393585 0.09211262 -0.056048956
-0.026757203 -0.08531678 0.054353468 -0.06075127 -0.09112634 0.08254617 -0.082754456 -0.019025303
-0.07235128 -0.09656794 0.07762397 -0.07937853 0.038969673 0.060993545 0.021709122 -0.06609526
-0.022875272 0.011381671 -0.08307336 0.018431827 -0.01968415 0.055953614 -0.081095316 0.0030331463
0.067187436 -0.033598706 -0.054796018 -0.026947126 0.07380242 0.054164894 -0.025728084 0.080716975
0.12591936 -0.08571381 0.011284257 0.04500414 -0.00785528 -0.033065896 -0.06318943 -0.085361004
0.11606078 0.122156225 -0.097586416 0.12953594 -0.10829052 0.033844475 0.10988617 0.045704957
0.1218073 -0.03573009 0.05380225 0.1240278 -0.10089978 -0.0036689264 0.012872142 -0.07719684
0.025295611 0.14009465 -0.09262189 -0.043050345 0.028216146 -0.09160392 0.033733588 -0.023773516
-0.018117392 0.08202459 0.15170164 -0.051237185 -0.12361937 -0.089356914 0.00327867 -0.11256992
0.09519757 -0.12754634 -0.015773056 0.011689402 -0.15790056 0.07276854 -0.0019285325 -0.12219541
0.023808114 -0.13433243 -0.047583554 0.0027389422 0.047646586 -0.13637245 -0.066299215 0.14179772

bias_hh_l0 f4 [400]
00000000: acc0 323e 2f9b 2e3e be2f 8fbd 55d8 8c3b
00000010: 5773 f43d ad77 af3d 244e 573d 24e9 823d
00000020: 41a1 323e d9c3 c63d 924e 383e 7944 a43d
00000030: 374d 153e b047 0b3e 2620 70bb 43c3 4abd
00000040: 2761 3d3e 33d5 713d e0e2 0b3e 84d6 7a3d
00000050: 7785 8b3d e2b4 da3d cc98 163e 91b8 f23d
00000060: 94c9 2a3e e68b 263c 6c27 2f3e b7a6 1abd
00000070: 2446 a13d 2c78 f03c c127 993d 9970 8cbd
00000080: 1913 443d e705 e93b 84e4 7f3d e5f5 1a3b
00000090: 5705 f13c db8b 1f3e 98b7 cb3d b206 6e3d
000000a0: e2bf 393e bf5c 553d c82e d63d 24a8 d43d
000000b0: c91e 4c3d 2c28 ef3d f265 873d 11ec f53b
000000c0: 5a4b 8f3d 7c44 2c3e c5f9 1a3e a034 0f3e
000000d0: dfdf 113e 0eae 42bc f914 183d 764e b53d
000000e0: f9ba 233e 6943 07ba dbc6 0fbd 5f15 2b3d
000000f0: ec62 113d e15b 27bc 708d 15bd 0226 a73d
00000100: 6468 723c a3ce 09bd 43f9 0c3e 1254 a13d
00000110: db08 da3d c67c 773d e8f2 943d a2f0 123e
00000120: 1f85 a53d 5e3f 503c e1e3 a23c fed5 193d
00000130: c48c 7c3d 83c7 a63c 2516 0b3e 510d a43d
00000140: bc2e 383e a27e acbc ac71 353d 2342 9cbd
00000150: 52a1 8cbb 7589 b83c 1be9 fd3d d883 973d
00000160: 0f5a 2a3e e373 0a3e 240d c43d 4d03 043e
00000170: b9b9 2cbb e00b 863b 11d8 0f3c 5b36 87bc
00000180: 98a3 4bbc 23a1 cdbb 88ef 7d3a 4e3a 473e
00000190: a052 203b 8aab 303d 60ff c93b 6f1b 933d
000001a0: c00d 18bb c6ef 733d b867 bd3c babe 78bd
000001b0: 020a 1e3d 3910 a03d d8da 933c b095 ea3b
000001c0: 81a1 c33d e5bb b4bd 4bbb c2bd b049 14bd
000001d0: 3069 78bc bc37 fa3c 6028 6ebd da31 a8bd
000001e0: 6bd3 aa3d 6a39 703d a822 12bc c005 733b
000001f0: 0043 d2bc 7e84 143d 5059 20bc 9c44 02bd
00000200: 62c9 87bd 121f 583d 55f0 b0bd 3a45 223d
00000210: 6063 5e3b 749e ca3c 915a b63d 45b5 90bd
00000220: b0d0 33bc 1a6e 593d ba4e 9fbd 8353 3abd
00000230: a894 c13c d037 10bc 1489 ecbc da78 4d3d
00000240: d065 5fbc 0eb2 153d c8e9 83bd cdcf c5bd
00000250: 4fed 833d ac63 cf3c 2bf5 a4bd d05e d8bb
00000260: 6de8 28bd 8806 b13c 6ebb 083d 93ba 5ebd
00000270: 8231 2f3d f2f5 9cbd da35 03bd e77d 6bbd
00000280: 50b0 09bd efbf c93d bbc8 8d3d d07a 653c
00000290: c242 6d3d 2901 903d 4d76 a23d 3c8e 13bd
000002a0: c5ea 88bd e69a 9bbd dd35 7abd 90bd a6bd
000002b0: b9f7 aa3d 8c4f c93c cd90 c3bd d253 783d
000002c0: f340 ca3d a0ca ffbc 0771 2bbd 9233 9dbd
000002d0: 0852 a83c 3613 373d d9c8 bd3d ec46 dfbc
000002e0: a023 c5bd 0836 873c c596 bc3d a03e 2c3b
000002f0: 34db e23c 1dd9 53bd 44d2 e43c 47b5 b63d
00000300: 4111 933d 5c04 12bd 067e 1e3d 22fd 283d
00000310: 0c16 d9bc 12d1 573d c074 1ebc 9999 963d
00000320: 3628 39bc 9f6d 0abe f8d2 113e aa37 acb9
00000330: 521c 38bd 58f5 dabd dd6c f33c 84dd 533b
00000340: 0b05 d73d 535f 3bbd 112d e33c 328b 843d
00000350: 341b ddbc 9ffd 4abd cd82 94bb 0621 b2bc
00000360: 3f05 0d3e 61b0 9a3d de2d a0bd a2ba 913d
00000370: 60fd c4bc 681d 103c a072 8abd 5ec2 ac3c
00000380: 11af b6bd 929e 893d a89d a4bd 9b64 de3d
00000390: 14d9 0a3d 4cb3 dabc a502 9f3d 012c 01bd
000003a0: 0c7a 803c 2e8e 0f3e e67e d83d fe84 13be
000003b0: 0e72 9bbd 9230 403c 7f20 84bb 71b4 2bbd
000003c0: 7b3f 743d 7471 f3bd b67f 0dbd 8118 833c
000003d0: 6a7c 97bd 3f26 833b 9fd6 c0bc a427 3cbd
000003e0: ebb9 b23d 0d57 46bd 7e3c 853c ad1e 9b3d
000003f0: cfd1 013e 3eef d0bd 18bd b03b b1a6 e73d
0.17456311 0.17051385 -0.06991528 0.0042982497 0.11936062 0.08567748 0.052564755 0.06392124
0.17444326 0.09705324 0.17998722 0.080208726 0.14580236 0.13601565 -0.0036640256 -0.049502622
0.18494092 0.059041213 0.13660765 0.061239734 0.06812566 0.10679032 0.14706725 0.118516095
0.16678458 0.01016519 0.17104882 -0.037756648 0.078747064 0.029354177 0.074782856 -0.06857414
0.047869775 0.0071112993 0.06247379 0.00236451 0.029421492 0.15580694 0.09947127 0.058111854
0.18139604 0.052090403 0.104581416 0.10383633 0.049834047 0.11677584 0.066112414 0.007504948
0.06996794 0.16823 0.15134342 0.13984919 0.14245556 -0.011882318 0.037129376 0.08852856
0.15989293 -0.0005159886 -0.035101753 0.041768428 0.03549473 -0.010214777 -0.03651184 0.08161546
0.0147953965 -0.03364433 0.13766961 0.07877363 0.1064622 0.060421728 0.07272893 0.14349607
0.080820315 0.01271042 0.019884052 0.037557594 0.061657682 0.020358806 0.13582666 0.080103524
0.17986578 -0.021056477 0.04429786 -0.07629802 -0.004291692 0.022526482 0.12397977 0.07398194
0.16635917 0.1352077 0.09572819 0.12891884 -0.0026355817 0.004090771 0.008779542 -0.01650541
-0.0124291405 -0.0062753125 0.0009686877 0.19455835 0.002446331 0.043132342 0.0061644763 0.07182967
-0.0023201555 0.059554838 0.023120746 -0.060728766 0.038583763 0.07815594 0.018048689 0.0071589574
0.09552289 -0.088249005 -0.095083795 -0.036203086 -0.015161797 0.030544154 -0.058143973 -0.082126334
0.08341106 0.058648504 -0.0089193955 0.0037082285 -0.025666714 0.036259167 -0.009786919 -0.031803712
-0.066302076 0.052764006 -0.0863959 0.0396168 0.0033933744 0.02473376 0.08903993 -0.070658244
-0.010975048 0.053083517 -0.07778688 -0.0454898 0.023630455 -0.008802369 -0.028873958 0.05016408
-0.013635114 0.03654676 -0.064410746 -0.096587755 0.064417474 0.025316082 -0.080545746 -0.0066030994
-0.041237283 0.02160956 0.033381872 -0.05437715 0.042771824 -0.07664098 -0.03203378 -0.057493117
-0.03361541 0.098510616 0.06923052 0.014006332 0.057924993 0.07031471 0.0793272 -0.036024317
-0.06685404 -0.07597904 -0.061086524 -0.08141625 0.083480306 0.024574064 -0.09549103 0.060626812
0.09875669 -0.031224549 -0.04185584 -0.07675852 0.020546928 0.044696055 0.09266824 -0.027255498
-0.096259356 0.016505256 0.092084445 0.0026282445 0.027692415 -0.051720727 0.027932294 0.08921295
0.07181025 -0.03564869 0.038694404 0.04125703 -0.02649977 0.05268962 -0.00967139 0.07353515
-0.011301091 -0.1351838 0.14240634 -0.0003284787 -0.044948883 -0.10691327 0.029714996 0.0032328079
0.10499009 -0.045745205 0.02773145 0.06471862 -0.02699051 -0.04955828 -0.004532194 -0.021744262
0.13771532 0.07553173 -0.078212485 0.071156755 -0.0240466 0.0087960735 -0.06760144 0.021088775
-0.0892011 0.06719698 -0.08037883 0.10859033 0.033898428 -0.026696824 0.07764176 -0.031536106
0.015683196 0.14019081 0.10571079 -0.14406201 -0.075901136 0.01173033 -0.004032194 -0.04192013
0.059630852 -0.11886874 -0.034545623 0.016002895 -0.07396777 0.004002362 -0.02353984 -0.04593624
0.08726867 -0.04842286 0.016264196 0.0757421 0.12677692 -0.10201882 0.0053936355 0.11311091

weight f4 [10, 100]
00000000: 8344 bc3d 38f5 c9bd 1206 6a3d d53f cbbd
00000010: 163c 613d da3e 543d 1c2b 19bd 40b3 c4bc
00000020: 75db a4bd 36bd 6c3d 54b9 94bc e042 35bd
00000030: a384 aa3d 30b9 af3b 16b0 96bd f887 b4bd
00000040: 4a7c cbbd c57a 8d3d cbe2 ca3d ca2c 633d
00000050: 00db ab3b 6a21 01bd 2557 8fbd 53d8 7fbd
00000060: 48eb 86bc 40b1 2b3b 7729 b5bd cc5f b2bc
00000070: 588b bebc a772 893d 62f5 1d3d 7057 4bbc
00000080: 5245 1b3d 80a0 8f3a dda3 bcbd 8b61 bfbd
00000090: f4d4 8f3c f9e5 b53d a285 213d 4a1f 2fbd
000000a0: 14d7 833c 8045 9b3b b155 b53d e09a 8f3c
000000b0: a05d 58bd bdb6 34bd 387a c2bc ca87 4bbd
000000c0: 0cad adbc c888 813c 3d8b 4abd 70d8 73bd
000000d0: 278d 3dbd d627 19bd ac84 a6bc 48ee 98bd
000000e0: b05d b8bd 4a49 5d3d 98fb 46bc 886b cabc
000000f0: f346 bc3d ef95 aa3d c37e c8bd e0de d73b
00000100: 516a 953d a045 8ebd 42e1 2c3d 686b e4bc
00000110: 402d 0bbb f616 1a3d 80d1 8a3c 18a8 c9bd
00000120: 901f 10bc ed44 a63d 1be8 98bd 5933 9b3d
00000130: 3273 533d 39e9 a33d b0c1 62bd c757 cabd
00000140: 8ffa b3bd 0087 e63b b0ff dd3b 8532 c53d
00000150: 52b3 c4bd 68b0 c73c 9d3a 993d 208f b9bd
00000160: d176 be3d da61 72bd 52c0 273d 0c4e a3bc
00000170: 3398 43bd 3034 db3b 4e80 82bd b0a5 a2bd
00000180: 40c3 abba 30e2 2dbc 4d2c 9dbd 724f 393d
00000190: ce45 663d e0ed b3bd 305c 50bd 90be 3bbc
000001a0: 2504 b03d 5a6f 54bd dadc 30bd 86c1 a1bd
000001b0: 8e49 593d fa21 5bbd 4eda 7d3d db61 973d
000001c0: 20b1 f5bc 9fde ca3d 7f58 823d 363b 2f3d
000001d0: 099d 933d 3a88 37bd b0e9 6ebc 0e4a 1f3d
000001e0: f266 2f3d 8253 003d 6038 40bd 7888 933c
000001f0: d090 37bc 82f7 493d 5287 253d bc2b ce3c
00000200: c833 eebc 9ad8 3f3d dab9 67bd 0706 ae3d
00000210: 4c4f ecbc 0abc 2c3d 63f5 be3d 6861 cfbc
00000220: 43c8 9bbd 35d2 a9bd edbe acbd 9a4f c0bd
00000230: e3c6 67bd 16b6 0bbd e9ff 823d 8832 a6bd
00000240: f489 cabc ca0f 5e3d f3b2 8fbd baac 08bd
00000250: 25ba bf3d 2ff3 c93d 497c bb3d 786e a93c
00000260: b21f 0e3d 8489 e73c 614c 903d 1734 823d
00000270: 0a66 a8bd 70d7 bcbd 07ae 7fbd 92ae 82bd
00000280: 90c4 07bd d471 ecbc 60ae 10bb 52dc 053d
00000290: 1046 6bbc 6474 03bd 523e 4d3d d28c 3c3d
000002a0: 00e1 2f3a f728 20bd 0a6a 3a3d 07af 9b3d
000002b0: d0fb 20bd f48d 8b3c 86df 063d 1481 f9bc
000002c0: 56e1 3a3d c027 48bd 00f0 8b3b 928c 633d
000002d0: d562 9cbd c667 563d 20b0 c9bd 8a81 2bbd
000002e0: 60fe 973c 327a 093d 7377 b83d 6cf4 8bbd
000002f0: e25a 713d 80a8 0abc 4dcf b1bd 9297 9abd
00000300: d010 25bc 80bd 73ba 8538 b23d 14d9 afbc
00000310: 92df 5c3d 5e2c 673d a799 a23d d0f9 c0bd
00000320: efcb 943d 392e b03d 8a26 a0bd 709c 45bc
00000330: 6e25 673d 004d e3bb 210a bb3d 2034 6bbd
00000340: 2924 a23d 7326 9f3d 82b2 633d debb a3bd
00000350: 7679 14bd 00e0 7bbb 60ea 9c3c a570 983d
00000360: 1732 af3d 1bd2 8dbd 667c 4e3d e83f 603c
00000370: 020d b9bd f072 6f3c 68c4 88bc fcaf f33c
00000380: a4c0 83bd 061b 85bd 8225 9abd 6838 e6bc
00000390: 301c febb 4d24 50bd 1319 c33d 22fd c8bd
000003a0: cc7b cd3c 7d76 57bd 8ad0 4f3d b6e9 2c3d
000003b0: a80b a5bc d84b 18bc 3027 5ebc 1338 a3bd
000003c0: 594e ba3d 48c8 bcbd cd5d afbd ca13 573d
000003d0: dec0 97bd cd15 82bd 2249 373d 5810 103c
000003e0: f6b0 a3bd 8c22 fbbc 00ba 5439 ab0b ad3d
000003f0: 5a3c 84bd 0015 423b 40fa 6dbb c7bc 7dbd
0.09192755 -0.09861225 0.057134695 -0.09924284 0.054988943 0.051817752 -0.037394628 -0.024011254
-0.080496706 0.057797633 -0.018154778 -0.04425323 0.0832608 0.0053626522 -0.073578045 -0.088149965
-0.09935816 0.06908182 0.099065386 0.055462636 0.0052446127 -0.031526007 -0.069990434 -0.062462162
-0.016469613 0.0026198179 -0.088457994 -0.021774195 -0.023259804 0.06711321 0.038564093 -0.012410983
0.037907906 0.0010957867 -0.09210942 -0.09344777 0.017557599 0.088817544 0.039434083 -0.04275445
0.016093768 0.0047385097 0.08854235 0.017529905 -0.052823663 -0.044119585 -0.023739919 -0.049690045
-0.02120068 0.015812293 -0.049449194 -0.059532583 -0.04627719 -0.037391506 -0.020326935 -0.074673235
-0.090022445 0.054024972 -0.012144946 -0.024709478 0.0919322 0.08329379 -0.09789803 0.006587848
0.07295669 -0.06946874 0.04220701 -0.027883247 -0.0021236688 0.037619554 0.0169456 -0.098465145
-0.008796588 0.08118615 -0.074661456 0.07578153 0.05162353 0.08003468 -0.055360496 -0.098800234
-0.08788025 0.007035136 0.006774865 0.096287765 -0.09604515 0.02437611 0.07481883 -0.09060502
0.09300006 -0.05917535 0.040954895 -0.019934677 -0.04775257 0.006689571 -0.063721284 -0.07941759
-0.0013104454 -0.010613009 -0.07674465 0.04524178 0.056218915 -0.087856054 -0.050869167 -0.011459008
0.085945405 -0.051864006 -0.04317937 -0.0789824 0.053048663 -0.0534992 0.06197577 0.07391711
-0.029991686 0.09905743 0.063645355 0.042781077 0.072076865 -0.04480765 -0.014582083 0.038888983
0.042822786 0.03132964 -0.046928763 0.01800941 -0.01120396 0.049308307 0.040412255 0.025167339
-0.029077426 0.046837427 -0.056573726 0.084972434 -0.028846405 0.042171516 0.093241476 -0.025315002
-0.07606556 -0.08292047 -0.08434854 -0.09390183 -0.056586158 -0.034109198 0.06396467 -0.08115107
-0.024723984 0.054214276 -0.07016554 -0.03336785 0.09361676 0.09860837 0.09154565 0.020682558
0.034698196 0.028263815 0.07045818 0.063575916 -0.082225874 -0.09220779 -0.062421825 -0.06380953
-0.03314644 -0.028862871 -0.0022076592 0.032680817 -0.014359966 -0.03209342 0.05010826 0.046032734
0.0006709248 -0.039101567 0.045511283 0.07601743 -0.039302647 0.017035462 0.032928012 -0.030457057
0.045625053 -0.048866034 0.0042705536 0.05555398 -0.07636038 0.05234506 -0.09848046 -0.041871585
0.018553913 0.0335638 0.09007158 -0.06833729 0.058924563 -0.008463025 -0.086821176 -0.07548441
-0.010074809 -0.0009297952 0.087021865 -0.021465816 0.05392415 0.056438796 0.07939463 -0.09422648
0.0726546 0.08602566 -0.07819851 -0.012061223 0.05643218 -0.0069366693 0.09132791 -0.057422757
0.07917053 0.077710055 0.05559016 -0.07994817 -0.036248647 -0.0038433075 0.019154727 0.0744336
0.08554476 -0.0692484 0.050411604 0.013687111 -0.09035684 0.014614806 -0.016695216 0.029747002
-0.06433228 -0.06499295 -0.07526685 -0.028103068 -0.007754825 -0.05081587 0.09526267 -0.09813906
0.025083445 -0.052603234 0.050735988 0.04221507 -0.02014716 -0.009295426 -0.013559148 -0.0796968
0.09096975 -0.09217888 -0.08562813 0.052509107 -0.07409833 -0.063518144 0.04474748 0.008792959
-0.07992737 -0.030656122 0.00020287186 0.08449491 -0.06456824 0.0029614568 -0.003631249 -0.06194761

weight f4 [10, 100]
00000000: 1812 cbbc 07c0 a93d 573f bc3d 990a 8b3d
00000010: 2154 bb3d 34de e33c 46e9 613d 2c26 ea3c
00000020: 6185 b43d 6895 edbc c5d8 ac3d 0061 713c
00000030: 402f e5ba fa5e 553d cb28 833d 3bce a73d
00000040: 678a cbbd f852 b6bc 8560 acbd 5089 8e3b
00000050: fb19 8fbd ac11 12bd 7bc8 c73d b87b b63c
00000060: 4ef7 a2bd 1948 833d f29d 383d da40 bfbd
00000070: 7618 6c3d ed93 3cbd 2090 9e3c 90b2 94bd
00000080: 9406 87bd bd89 813d 7f08 cbbd 2a43 a7bd
00000090: f8b3 80bd e77e 7ebd 3ae9 37bd 0479 fc3c
000000a0: e4b7 ec3c 781f a63c d6ea 7d3d f933 ad3d
000000b0: a093 b63c 2841 2bbc 12e0 213d 9d64 98bd
000000c0: f53f b3bd ae89 053d d66f 463d c60e 0ebd
000000d0: 182a 053c 6def 8fbd b029 26bd b47e b8bc
000000e0: 379b 34bd da72 b5bd f002 a1bd 287c 89bc
000000f0: 4062 12bc ad62 99bd f407 8cbd 6056 dd3b
00000100: 5a85 aabd a81f 743c 7d1f 21bd 7aa7 353d
00000110: 8cc6 a9bc fdb1 b23d 2013 01bd d764 34bd
00000120: 769d 07bd b0ab 453c c38c 99bd 4e2b 9abd
00000130: 348a f9bc 00cb e8bb e846 c4bd 02e3 353d
00000140: 34a0 d2bc 40e1 63bb 6256 733d c855 ccbd
00000150: 0429 e13c e3dc a4bd 2833 a93c bc4d d53c
00000160: ab5a ca3d 409b 2bbb a64f 663d 118c 963d
00000170: fab7 043d 58f7 383c 4add 563d 6054 b63b
00000180: e7e4 60bd a6d8 1b3d a51d 90bd 7859 e9bc
00000190: 1879 9cbd 4290 81bd 83a2 a9bd 1123 9e3d
000001a0: a0e4 463b 68d0 acbc bb96 cabd 8ff4 ad3d
000001b0: 81fe 9d3d e93c 853d 48d7 83bc 180a 5abc
000001c0: 274b 71bd 22d7 1d3d 2080 c83b 4003 11bc
000001d0: 53a4 54bd 284c 953c d0f6 b0bb b88c ecbc
000001e0: 06c9 723d 57e1 5bbd 5ca4 f03c 4493 e43c
000001f0: 955f 9d3d 768c 103d 360a 123d f428 91bc
00000200: 0285 2f3d 318c 803d c0ef c23c b8eb b6bc
00000210: adcd 6bbd 38c8 b93c 1a96 233d 63bc 47bd
00000220: 3e47 253d 0c97 ae3c b030 c8bb c008 bc3a
00000230: 1f78 c4bd 7c02 d83c 1819 523c 6a9a 243d
00000240: a9f7 b93d 28db 05bc ccc1 a23c 6500 a03d
00000250: a085 d03b 87e0 72bd 2a5e 84bd 60cd 233b
00000260: 42b8 95bd 841c 12bd 3d22 52bd 400c 583c
00000270: b88e 8bbd 800b adbd 68d3 44bc b454 a4bc
00000280: e784 5dbd a27f 4a3d 7706 a73d f6ea 97bd
00000290: 219a 9a3d a303 3fbd 1e39 003d 072f 52bd
000002a0: 0476 df3c c99c 963d 0ba5 c23d a38e a6bd
000002b0: b7e0 8c3d 390a a33d 8dd8 a23d 31bf b93d
000002c0: 7942 a83d be01 753d 426f 513d 58fb a9bc
000002d0: 12e7 073d 9c2f 04bd ec1e e43c f418 f6bc
000002e0: 5cce f33c 8072 05bd 6564 be3d ecd3 b33c
000002f0: 283c 7abc d868 643c 6181 bb3d a0a3 d13b
00000300: acc6 8a3c 0925 8e3d 85b4 8d3d f069 413c
00000310: 9e28 163d 4051 2c3b 6030 103b a846 b83c
00000320: 3879 c53c c297 203d 2f26 c93d e026 843b
00000330: 2334 973d 53a2 49bd 5b9c 823d e5cc b7bd
00000340: 2046 34bd 1023 503c 2cb5 db3c a799 c93d
00000350: 22d0 96bd 4c01 10bd 6a75 253d d1ee 893d
00000360: 9b9c bcbd 4962 c43d 5ea6 133d 8b6b b8bd
00000370: b4fc ecbc 80af 8e3a e8f1 183c 5817 7abc
00000380: 2c6d 9a3c d385 a03d 5667 15bd 4014 0cbb
00000390: 7854 9d3c 09b2 a93d 4063 27bc ba29 77bd
000003a0: 3446 e83c 810b cc3d 42e6 6f3d df28 c4bd
000003b0: 55d6 b33d 30a2 19bd 6ace a0bd b0a0 afbb
000003c0: cac3 623d 983a 623c 2eb1 433d e163 9b3d
000003d0: 9d8d ad3d c03e ec3a 6866 27bc 4d54 c23d
000003e0: 3da5 7dbd 3d35 25bd 239a b63d 3007 c4bb
000003f0: 78a8 90bc 9fea 823d 0742 c53d 280f b9bd
-0.024788901 0.082885794 0.091917686 0.06789131 0.09146906 0.027815916 0.055154108 0.028582655
0.088145025 -0.029001907 0.08439783 0.014732599 -0.0017485395 0.05209253 0.06404265 0.08193632
-0.099385075 -0.02225636 -0.08416847 0.004349865 -0.06987377 -0.035661384 0.097550355 0.02227579
-0.07957326 0.06410236 0.045072503 -0.09338541 0.057640515 -0.04603951 0.019355834 -0.072606206
-0.065930516 0.063250996 -0.0991373 -0.081671074 -0.06284326 -0.062132742 -0.044900157 0.030819423
0.02889628 0.020278677 0.061991535 0.084571786 0.02228719 -0.010452546 0.03952033 -0.074410655
-0.08752433 0.032602005 0.0484465 -0.034682058 0.008127712 -0.07028089 -0.0405671 -0.022521354
-0.044093337 -0.08859797 -0.078618884 -0.016782835 -0.008934557 -0.07489524 -0.068374544 0.0067546815
-0.08326216 0.014900126 -0.03933667 0.04434917 -0.020724557 0.08725355 -0.03151238 -0.04404148
-0.03310915 0.012064859 -0.07497551 -0.07527791 -0.030461408 -0.0071042776 -0.09583837 0.044405945
-0.025711156 -0.003477171 0.059408553 -0.09977299 0.027485378 -0.08049943 0.020654276 0.026038043
0.09880575 -0.0026185066 0.056228302 0.07350934 0.032402016 0.01128944 0.05245713 0.0055642575
-0.0549058 0.03804841 -0.07036904 -0.028485045 -0.07640284 -0.06326343 -0.0828295 0.07721532
0.0030348673 -0.02109547 -0.09892031 0.084939115 0.077145584 0.06505758 -0.016093865 -0.013308071
-0.05890956 0.038535245 0.0061187893 -0.0088508725 -0.051914524 0.01822479 -0.005400516 -0.028875694
0.059273742 -0.053681698 0.029375248 0.027902253 0.076842465 0.035290204 0.03565427 -0.017719723
0.042851456 0.062767394 0.023795962 -0.022329196 -0.057569195 0.02267848 0.03993807 -0.048763644
0.040351145 0.02131226 -0.0061093196 0.001434587 -0.09593224 0.026368372 0.012823366 0.040186323
0.090804406 -0.008169927 0.0198678 0.07812575 0.0063635856 -0.059296157 -0.06463273 0.002499424
-0.07310535 -0.035671726 -0.051302183 0.013186514 -0.06814331 -0.08449459 -0.012013294 -0.02005992
-0.054081824 0.049438126 0.0815553 -0.07417862 0.07548929 -0.046634328 0.03130447 -0.05131438
0.027277954 0.07354123 0.09504136 -0.081326745 0.068787985 0.07960934 0.0795146 0.0906967
0.08215804 0.059816115 0.051131494 -0.020749733 0.03317935 -0.032271966 0.027846776 -0.030041195
0.029761486 -0.0325799 0.092964925 0.021951638 -0.015273131 0.013941012 0.091555364 0.0063976794
0.016940437 0.06940658 0.06919197 0.011805043 0.03665983 0.0026293546 0.002200149 0.022494629
0.024105653 0.039207228 0.09821736 0.0040329546 0.07382991 -0.04922707 0.06377479 -0.089746274
-0.04401219 0.012703672 0.026819788 0.0984376 -0.07363917 -0.035157487 0.040395178 0.06735004
-0.092095576 0.09589059 0.036047332 -0.09004887 -0.028929092 0.0010886043 0.009335019 -0.015264355
0.018850885 0.07838025 -0.036475502 -0.0021374375 0.019205317 0.08285911 -0.010216534 -0.060342528
0.028353788 0.09963132 0.0585692 -0.09578108 0.08781115 -0.03750819 -0.0785187 -0.0053597316
0.0553625 0.013807915 0.047776394 0.0758741 0.08474276 0.0018024072 -0.010217287 0.09488735
-0.06192516 -0.040333975 0.08916118 -0.005982302 -0.017658457 0.06392407 0.09631734 -0.09036094

weight f4 [10, 100]
00000000: 51f8 5b3d c244 f63b 9812 cb3d ec8d 52bd
00000010: c22d ac3c 8024 eebc 61ca fd3d 2ba0 32bc
00000020: b1a3 e8bd fe37 9bbd 86d0 0a3e d271 9fbd
00000030: 81d6 253e 8c37 0f3e 553f 4a3d 2a04 dd3d
00000040: eb8d d0bd 33b1 28bc a009 8c3d ef9b d83c
00000050: 6353 883c e148 ed3d 0333 9e3c 5ed9 183d
00000060: 1812 113e e26a f0bd cc6f bd3d 23f2 76bd
00000070: ff27 3fbd 8dd0 573d e1bb e6bc 36fb 093d
00000080: 5169 edbc ff36 e83c b5c3 dc3c f7e8 5e3a
00000090: 9ddc ffbb 6653 ddbc 1b61 153d ed91 2c3e
000000a0: 79a6 62bd 7cda 0f3e 36e3 b3bc bd67 d4bd
000000b0: 8e84 883d da81 80bc 66b0 43bd 4dec fd3d
000000c0: 843a 65bd d948 bf3d 10f1 53bd 2b81 f4bd
000000d0: baf9 0abe b19d 95bc 3b5f 12bc 3ec5 b0bd
000000e0: e2f0 ad3d c0ae 6abd 9d92 be3b 169a 653d
000000f0: 76d2 df3d ce19 ac3d 809c 04bd 6412 1c3d
00000100: 01af 19bc 40ea 3dbd f957 ecbd acdc f9ba
00000110: 41ef 6bbd 924b 04bb 5f02 4ebb d629 163d
00000120: 327d 973c 5fe1 08be efc4 7f3d a46a 2dbd
00000130: 9e06 3fbd 4722 96bc 4ae4 33be 09af 183e
00000140: 772e 0f3d 1301 cebc ac4d fdbd 146c ab3b
00000150: d04a 88bc 90e7 88bd e182 ba3d 0049 6d3c
00000160: be8c 6abc 55b4 7ebd 1620 61bc 0c0b bcbd
00000170: e1d4 a53d 4b97 c53b 965d 0abe ca55 0abd
00000180: 1350 b7bb 2917 f4bd 8152 c33d 4777 d5bd
00000190: dc06 26be 4232 ea3d 6203 2cbc 2bf7 23be
000001a0: b6fe 0b3c 9cdf b8bd 463d 953c 9dd2 86bd
000001b0: bd0f e3bd 6fd0 3fbd 8b4a b33d 299d ca3b
000001c0: 645c b83d d39f 3a3d 0a36 a93d 2326 ed3d
000001d0: 4b7d 0fbd 6749 0fbe 1fba 183e c435 25bd
000001e0: 215d ac3d 647b ef3d 2a03 f83c 2b49 613d
000001f0: eada b63d 5cb7 e23d c198 053d 4ebf 0cbd
00000200: 15bc 04bd 70a9 4e3d a12a eabd 49db b03b
00000210: 107d 3b3c 3513 fbbd 002f 9dbd 37d5 bd3c
00000220: 6ab8 efbc 86eb 36ba cd38 dc3c 157b 5b3d
00000230: 956e 06be 3406 f53d 223c 8e3d ba61 20be
00000240: 7c9b 3ebd 258b 3dbe d20e ae3d 5286 b43d
00000250: 63cb 16be 2f6b d43d cbac f5bd 597d 9bbd
00000260: 25ef d6bd 4718 c83d 82af cdbc 6f6d 41bc
00000270: dbea ec3d 97e1 b73d 5e99 473b 6659 8a3d
00000280: 2a99 103d fcab e0bc 785b 353e 6ac6 88bd
00000290: 7d50 993d 47f4 acbc 3c7c b3bd abf5 15be
000002a0: 67f1 25be b0aa cdbd 943a 2dbc 669a 0c3b
000002b0: 2d0f bdbd 3263 84bd 652b 44bd 7ffe 873d
000002c0: 32e4 ecbd bce6 18be b06d 30be 1c46 9d3d
000002d0: 806a 733c 626b d9bc 37f1 523c 867b dd3c
000002e0: 759f 75bd 8f26 ecbc 40a3 0cbd a536 c13d
000002f0: f171 0b3e 53fb 01be a7c8 df3c 9009 37bd
00000300: f3b2 343c 2e3d 07be 2b63 a7bd 5987 da3d
00000310: 0a97 123d acdf 25be 75c9 403e ca29 52be
00000320: 558b 0bbd c44f 2cbe 87a4 803c 0465 d63d
00000330: d224 10be 3091 69bd 124c a23d 7b48 07be
00000340: 5815 c63d 09d2 0d3e 9517 00be d34e bbbc
00000350: be8d 05bd 142e 00be 38e5 d53d 8f36 4d3d
00000360: 6a6b 1b3e ae9d aabc 4118 0f3c f468 363d
00000370: 3adf 8dbc 8644 51bd 386e 7fbb cc29 61bd
00000380: 56fb 11be ef51 41bc 7ac2 3abd 8641 4f3c
00000390: 836b 643d 87eb dbbd 98f6 8c3d 4226 633c
000003a0: cc3e 31bd 7354 f33d 0621 063e e629 0bbe
000003b0: f551 27bc 66ed e2bd a9d2 0bbe 3703 89bd
000003c0: 3bad fc3c 72a1 17be b52e 6b3d b7f8 f43d
000003d0: fe56 b0bd f1e4 e5bc 3130 14be 3bc3 aebd
000003e0: f92c 1a3e 1885 c0bc 4026 a8bd 189f 2e3d
000003f0: de20 b5bc c9a8 1cbe 035e 893d ef98 85bb
0.05370361 0.007515521 0.09915656 -0.05140488 0.021017913 -0.029070139 0.12392116 -0.010902445
-0.11359347 -0.07579039 0.13556108 -0.077853814 0.16195108 0.13986033 0.049376804 0.1079181
-0.10183319 -0.010296154 0.06837773 0.026441542 0.016641324 0.11586166 0.019311434 0.037316673
0.14167058 -0.11739136 0.09249839 -0.060289513 -0.046669003 0.052689124 -0.02816576 0.03368684
-0.028980883 0.028346537 0.02694879 0.00085033424 -0.0078082816 -0.027017307 0.03646956 0.16852541
-0.055334542 0.14048189 -0.021958929 -0.10371349 0.06665908 -0.015686918 -0.04777565 0.123985864
-0.055964008 0.093400665 -0.051743567 -0.11938699 -0.13571826 -0.01826367 -0.0089338375 -0.08631371
0.084932104 -0.05729556 0.0058158175 0.05605515 0.10928814 0.08403359 -0.032375813 0.038103476
-0.009380103 -0.046365976 -0.11540217 -0.0019062958 -0.057601217 -0.0020186645 -0.0031434519 0.03666099
0.018492315 -0.13367222 0.06244367 -0.04233803 -0.04663717 -0.018326892 -0.17567554 0.1491052
0.03495642 -0.025146997 -0.1236833 0.00523139 -0.016637236 -0.06684792 0.091069944 0.014482737
-0.014315782 -0.062183697 -0.01374056 -0.091817945 0.08097244 0.0060299984 -0.13512263 -0.03377322
-0.0055942624 -0.1191848 0.09537221 -0.10423141 -0.16213554 0.11435367 -0.010498853 -0.16012256
0.008544615 -0.09027025 0.018217694 -0.0658314 -0.11086986 -0.046829637 0.08754452 0.0061832857
0.09001997 0.045562577 0.0826226 0.115795396 -0.035031598 -0.13992845 0.1491475 -0.040334478
0.084162004 0.11693457 0.030274946 0.05500142 0.08928473 0.11070129 0.03261638 -0.03436213
-0.03240593 0.050454557 -0.11433912 0.0053972346 0.011443391 -0.12259523 -0.0767498 0.023172958
-0.02926274 -0.0006977845 0.026882553 0.053584177 -0.13128121 0.11964074 0.06945063 -0.1566228
-0.046535 -0.1851011 0.084989205 0.08814682 -0.14726023 0.10372006 -0.11995848 -0.075922675
-0.10494832 0.097702555 -0.025108103 -0.011805876 0.115682326 0.08978575 0.0030456404 0.06755333
0.03530232 -0.027425759 0.17710674 -0.066784695 0.07486055 -0.021112574 -0.0876393 -0.14644496
-0.16205369 -0.10042322 -0.010573048 0.0021454333 -0.0923141 -0.064642325 -0.047892947 0.06640338
-0.11566962 -0.14931768 -0.17229342 0.07679388 0.014856935 -0.026540462 0.012874893 0.02703644
-0.059966523 -0.02882698 -0.034335375 0.09434251 0.13617684 -0.12693529 0.027317358 -0.044686854
0.011028993 -0.13206932 -0.08173212 0.10670347 0.035788573 -0.16198605 0.1882685 -0.20523754
-0.034068424 -0.16827303 0.015703453 0.10468486 -0.14076546 -0.057023227 0.079246655 -0.13211243
0.0967204 0.13849653 -0.12508996 -0.022864735 -0.03260588 -0.12517577 0.10444111 0.05010086
0.15177694 -0.02082714 0.00873381 0.044533685 -0.017318357 -0.05109074 -0.0038975608 -0.0549715
-0.14256033 -0.01179932 -0.045595624 0.012649899 0.055766594 -0.10738283 0.068829715 0.013864102
-0.04327278 0.11881342 0.13098535 -0.13590202 -0.010212411 -0.110804364 -0.13654579 -0.06690066
0.030844321 -0.1480768 0.05741759 0.11961501 -0.086103424 -0.02806327 -0.14471509 -0.08533331
0.15056218 -0.023500964 -0.082104206 0.042632192 -0.022110399 -0.15298761 0.067073844 -0.004077069
